results/BaseCAE_best.pth (torch, 750489 bytes, 12 tensors)

encoder.0.weight f4 [32, 3, 3, 3]
00000000: 85b3 bbbd a8e0 f73d 8159 dd3c a1c8 123e
00000010: 427b ee3d 40e9 ecbc a074 8e3d 3a67 8d3d
00000020: 7390 1c3d 1e31 bc3d a67d 11be 4687 03be
00000030: e1aa 31be fc4a 9a3c 0e95 10be a2d0 d73c
00000040: c0c9 14bd 7900 96bd 3626 3abc 91d0 b9bd
00000050: c579 ee3d 795e 26bd cf5f 17be ad46 8fbc
00000060: 145b 273e 0edf 3b3d cdd1 7b3d e0e3 6bbc
00000070: 0d66 5fbe d6ad 113e 34ac 80bd 4205 04be
00000080: 253b 1f3c f336 f9bd 137d 9bbd 4e17 e33d
00000090: 0d5d 08bd 9146 ef3d ab92 54be 3945 69be
000000a0: d1ea 9f3d cd5f 7abe dabb 86bd 7a20 36be
000000b0: 59a7 5fbe 5718 cb3d 6eb1 3ebc 7664 9b3d
000000c0: e567 cbbd 95dd dc3d 4efb dbbd e466 3bbe
000000d0: 3e7b cfbd 025e 13bd 159a 9ebd 1edd 9e3d
000000e0: d392 7cbd 756f bdbd fc18 f63c 8c19 d13c
000000f0: 1365 303e dfca 2dbe b59d 48be b93b 32be
00000100: 6b35 1d3d 8a02 03be 0407 263e c1ea 2abe
00000110: 1760 b93d e021 d23c be92 35be eadc dabd
00000120: 543b ebbd faa3 9d3d 1190 8bbc 1c33 163c
00000130: b3f2 07be eccf 33bd 00c5 533d 98b2 0b3e
00000140: d636 1fbe 5b1c 2cbe 0e4f 6c3d fbe5 c43c
00000150: f251 d4bc fb74 973d 5ee9 adbd ba75 47be
00000160: a655 24bd c534 56be 29bc e93b 5933 d7bd
00000170: cdb3 0ebe ae09 8bbc 542b 9a3d 3c83 34be
00000180: 7a93 62be fe42 42bd c5d4 b83d 2cbc c53d
00000190: 8521 14be 177e 8abb 1543 363d ab84 38be
000001a0: d996 a3bd 8d33 193d c9f0 7d3d 79b7 fcbd
000001b0: ea21 48be 7d26 143d c140 bdbd c528 52be
000001c0: d59e f13c 2d71 73bc ed33 09bd 7234 51be
000001d0: 652a 5abe d6cf bb3d af85 253e 3808 f5bd
000001e0: 3c3b ab3d 2cf9 59be 1004 f9bd 032e d2bc
000001f0: da94 a33d cc70 c1bd 939d 10bd be3e 423c
00000200: 4864 32be 9cef 98bc a973 c33c ecf0 a9bd
00000210: 9a8b dc3d 2f42 96bd da8b c7bc 3c21 5ebe
00000220: 5025 cfbc 57f4 43be e1aa 8a3d e5e9 5ebe
00000230: ce70 b0bd 35b9 233d ddd5 013e 4140 0a3d
00000240: 17ff c6bd ba78 fdbc 45f2 aebb 7865 6d3c
00000250: 3f40 22be 2a99 24be 4931 053e f15f 8abd
00000260: 1c8e 2c3c fbf7 853d bbe4 26bd 6b27 60bd
00000270: d89c 7d3c d22f 9f3d 16cd 003e c46e f4bd
00000280: d62c 3bbe ac5b 07bd 86d4 ff3c e47d 3dbe
00000290: 4682 1b3d a5bc e1bd dfa9 f8bd 22c2 d7bd
000002a0: a8b9 83be 5565 e13d 3af8 5abe e850 47be
000002b0: f141 223c cda2 5ebe ef03 a7ba 1edb b43c
000002c0: b909 aa3d d92f 033d 71dc 9d3b def0 03be
000002d0: 15e2 61be d4b3 f5bd c2a4 253b af0c ae3b
000002e0: e5e2 e43b 99fd f73d f39e d63c daf7 1fbe
000002f0: 39d9 ecbc c548 eebd 5e94 3a3d 400b a1bd
00000300: 41aa c2bc c8e6 83bd f989 c03d c755 8f3d
00000310: bd65 c03d 242e 47be dd17 12be a1c2 c0bd
00000320: 00d8 f4bd a29c d6bd d3cf c1bd 6572 34be
00000330: 8154 a3bd 7e31 53be 1de4 a53d fadb cabc
00000340: 5f4a e53d 02c0 8dbc 93a6 25be bb62 0cbd
00000350: ae4e 063e e440 dbbd cec5 02be 2a1c 3b3c
00000360: 2532 66be 0393 a03d eddf 11be f6e1 5dbe
00000370: dedd cdbd f350 1f3e b8d2 ac3c e749 503d
00000380: 500c c23d 3afe 153e 97af 143b 25cb 31be
00000390: f1f2 a1bd 635b 40bd 5a74 2cbe 066f f63d
000003a0: ad0e 903d 5de6 8dbb ee13 2b3d 4848 59be
000003b0: 374d 4fbe 15ca bbbd 6ece 3e3c 149f 5dbe
000003c0: 0edf 23be 6559 4cbe 6c95 103e af1e 1e3e
000003d0: 2e50 a83d dc4a f8bd cb42 973d 60e5 e03d
000003e0: 6a96 dabd 2849 70bd f90e 223e 7d24 93bd
000003f0: 3772 4abe 139c 23be 1666 22be 3e53 e4bb
-0.091651 0.12103397 0.027020218 0.14334346 0.11644603 -0.028919816 0.06955838 0.069044545
0.038223695 0.09189056 -0.14208087 -0.12844571 -0.17350341 0.018834583 -0.1411936 0.026344601
-0.036325216 -0.07324309 -0.011361649 -0.09072984 0.116443194 -0.04061744 -0.14782642 -0.017489756
0.16343337 0.04586702 0.06147938 -0.014397591 -0.21816273 0.1422647 -0.06282845 -0.1289263
0.009718691 -0.12168684 -0.075922154 0.110884294 -0.033291865 0.11683381 -0.20759074 -0.22780313
0.078084596 -0.24450608 -0.065787986 -0.17785826 -0.21841182 0.09916752 -0.011638982 0.07587521
-0.09931926 0.10784451 -0.10741292 -0.18300968 -0.101309285 -0.035978325 -0.077442326 0.077570185
-0.06166346 -0.09249774 0.03004121 0.025524877 0.17226057 -0.1697192 -0.1959141 -0.17405595
0.03838102 -0.12793937 0.16213614 -0.16691114 0.09051531 0.025650918 -0.17731759 -0.10686667
-0.11485925 0.07697292 -0.01703647 0.009167459 -0.13276176 -0.04389946 0.051701546 0.13642347
-0.15548262 -0.16807692 0.05769258 0.024035444 -0.02591798 0.07395359 -0.08491777 -0.19478503
-0.040120743 -0.20918567 0.007133026 -0.10507841 -0.13935776 -0.01697239 0.075277954 -0.17628187
-0.2212657 -0.04742717 0.090249576 0.096550316 -0.14465912 -0.004226457 0.04449757 -0.18019359
-0.07987756 0.03740268 0.06199721 -0.12339682 -0.19544187 0.036169518 -0.092408665 -0.20523365
0.029494682 -0.014858526 -0.033496786 -0.20430163 -0.21305235 0.09170501 0.16164277 -0.11964458
0.083609074 -0.21286458 -0.12158978 -0.025656706 0.079873756 -0.094453424 -0.035306524 0.011855779
-0.17421067 -0.018668942 0.023858862 -0.08297905 0.107688144 -0.07336842 -0.024358679 -0.21692365
-0.025286347 -0.19136177 0.06770874 -0.21768911 -0.08615266 0.03997155 0.12679239 0.033752684
-0.09716623 -0.030941356 -0.0053389394 0.014489524 -0.1584482 -0.16074052 0.13007082 -0.067565806
0.010531928 0.06541439 -0.040745478 -0.054725092 0.015479289 0.07772793 0.12578234 -0.11935189
-0.18278822 -0.03304641 0.031229269 -0.18505055 0.037966035 -0.11022309 -0.12141775 -0.10535075
-0.25727582 0.11005656 -0.21383753 -0.19464457 0.009903417 -0.21741791 -0.0012742261 0.02207714
0.08302636 0.032028053 0.0048175384 -0.12884852 -0.220589 -0.1199719 0.0025275205 0.0053115706
0.0069850557 0.12108917 0.02619884 -0.15621892 -0.028912174 -0.116349734 0.04555165 -0.07863474
-0.023762824 -0.064405024 0.09401316 0.069987826 0.09394405 -0.19451195 -0.14266916 -0.094121225
-0.11955261 -0.10479094 -0.094634674 -0.17621763 -0.07975102 -0.20624349 0.0810015 -0.024763096
0.11195826 -0.01730347 -0.16176824 -0.034273844 0.13115951 -0.10705736 -0.12770769 0.011420289
-0.22480066 0.0784054 -0.14245577 -0.21668229 -0.100520834 0.15558223 0.021096572 0.05085173
0.09475005 0.14647761 0.0022687668 -0.1736265 -0.079076655 -0.046962153 -0.1684126 0.12032895
0.07034049 -0.00433044 0.041767053 -0.2121898 -0.20244299 -0.091694035 0.011645896 -0.21642715
-0.16003057 -0.19955976 0.141195 0.15441392 0.08218418 -0.12123653 0.073857866 0.1098125
-0.106732205 -0.058663517 0.15826024 -0.07184694 -0.19770132 -0.15977506 -0.15859255 -0.006967931

encoder.0.bias f4 [32]
00000000: dec5 2c3e 42e7 033e 6287 603e 9d47 b0bd
00000010: 80da 75bd acc5 0a3e 86c7 323e 6bb0 02bb
00000020: d62e 88bd 4f8e d93c 48b4 78be 4d52 2fbd
00000030: bf68 563e 1d3e 1abd 0409 0e3e c0f9 03be
00000040: 53ae 4a3c 9b72 78be a7c7 123d a889 17be
00000050: 2a59 3dbe 7d75 ae3d c8a4 b1bc ff0c d5bd
00000060: 92b2 35bc 2aef 583d 0be8 25be 7cc3 a4bd
00000070: 1c17 a6bd 83fa 2f3e e684 78be c0f9 78bc
0.16872355 0.12881187 0.21926644 -0.08607409 -0.06002283 0.13551968 0.17458925 -0.001994158
-0.06649558 0.026557116 -0.24287522 -0.042803098 0.20938395 -0.037656892 0.13870627 -0.12888241
0.012370664 -0.24262469 0.035834935 -0.14798605 -0.18491045 0.08518503 -0.02168502 -0.104028694
-0.011089938 0.05296246 -0.16201799 -0.08045098 -0.081098765 0.17185406 -0.24269447 -0.015196264

encoder.2.weight f4 [64, 32, 3, 3]
00000000: 4e3f b9bd 598b aebd d800 c63b 9ce5 e13c
00000010: 3929 93bc 3f15 41bc 38f6 9cbd 612a 13bd
00000020: 279c 2bbc d1ff 7d3c dc48 45bd 3aae 4b39
00000030: b50e 76bd 9f65 92bc 0590 1cbd d819 1f3b
00000040: c351 05bd b8c5 3abd 3485 a3bd e9c4 a03b
00000050: 2129 133c fe61 7cbd 21eb 9d3c d64d 64bc
00000060: dc22 0f3b e8b4 d1bd 1c30 89bd a145 7d3b
00000070: eff2 5e3d 0f8d 143d e8ac 19bc 1bb3 20bd
00000080: 6efa 213d 8a50 2bbd 95ea 873b ef73 4fbd
00000090: 48ce 613d dd4c a33d d0db c03d 99c5 b63c
000000a0: 1c18 ca3b 0c86 1fbc 2f82 813d 1143 56bb
000000b0: 8d54 933c 561b 913c 6b43 103d e4d3 6bbb
000000c0: 2761 44bc cde9 6dbd f9ec b73c d929 d1bc
000000d0: e364 a63c da23 6ebd 3577 70b8 286a bcbd
000000e0: 4ee1 c9bd 1a1e b9bd 565f 70bd bb1f bcbd
000000f0: 7b49 a6bd 2e3f 62bd fc33 d83b 33fa 343c
00000100: e3c8 3e3a f009 16bd e3b1 ca3c 4f51 64bd
00000110: ca61 3ebd 5129 023d f64f 3dbd e6f8 71bd
00000120: 7805 b6bb 0d04 3dbc 7892 e4bc 89af c3bb
00000130: 9788 91bd a83d ae3c e305 c93c c736 52bd
00000140: 4f4d b23c 3c32 263d fb44 573d 99a9 7f3d
00000150: bac9 12bd 4c24 503d 3eee cfbc 6fd6 923c
00000160: c601 c23c 4a32 09bd 25f4 2bbd b96e 28bc
00000170: d1b4 693d 35e3 623d e419 4e3d 0976 983d
00000180: 14ba f93c 01bb a73d 7ec6 993c 62b0 20bd
00000190: 351a 09bd 3d25 3a3d 8234 27bd fba7 c4ba
000001a0: 9ed9 b63c 7f09 063d 240d 2abc a7e7 52bd
000001b0: 71c6 083c 0dda 79bc 18b0 b9bd b921 3dbc
000001c0: 542d af3b 50be a43c f409 c6bd 7762 83bd
000001d0: bde3 43bd 17af d93b a450 12bd 760e 50bd
000001e0: a12d 89bd 8b18 663c 54f0 49bd 179a 86bc
000001f0: df6c 7d3b d9d6 c5bd 2fd0 373d bc7d 70bd
00000200: c51c fd3b 4639 1a3c 6e04 4fbd 7fee d13c
00000210: 7d10 343d 24f4 89bb 4957 92bd d4fd 123d
00000220: 0208 3f3c 680e 15bd 2048 dd3c 7bbb bc3d
00000230: 44b9 84bc 3c20 453c 6b32 a53d 3c04 3bbd
00000240: 5e75 41bc bfd1 1cbd 15b4 3239 f7fd 6abd
00000250: f381 a7bc 1185 a6bd 5a10 babd d482 bebd
00000260: 8900 23bd c86f 383d 72bc 903d 5ea9 f13c
00000270: 63c4 b13d 0ee6 c93d 220f 7e3d 5474 36bc
00000280: 54ea 25b9 cd2d 483d 8c98 4fbd 90d6 51bd
00000290: 9048 43bd fa3b 823a 99ed a83b dd98 c2bc
000002a0: e442 f83c c635 5c3c 723d 2fbd 7e14 2e3d
000002b0: d9a6 223d b87c a93d cb3f fbbc 0a64 8e3b
000002c0: 3eec c43c db42 ab3c abec 443c f4a6 863d
000002d0: 65a2 19bd 1406 933d 9778 5e3d f9fe 843d
000002e0: 4b85 14bc 8bc1 ed3a 99b9 3e3b d504 9bb9
000002f0: c568 1f3d eb58 0fbd b972 bcbd b8bf 98bd
00000300: a8e9 a3bd df89 aeb9 1ca8 c5bb 1023 babd
00000310: 6048 35bb d75e c4bd 3821 3ebd 7992 ecbc
00000320: 3423 363c b0ee 6bbb 197c 4ebd 0d54 653d
00000330: afc8 48bd b4d8 303c 3e1c c5bc 4044 2dbc
00000340: 81f4 9fbd 02c7 04bd d3ca 93bd 0c76 04bc
00000350: 2b25 2b3b 5010 8fbd 7095 a7bd 97b1 2fbd
00000360: 8b83 44bd b30e 90bc 1d76 e3bc 6262 4138
00000370: 4911 0cbd 6e19 ad3c e5f2 78bc 03af 2ebd
00000380: 6e1d 09bd 0623 bc3d 98aa b93b 055c 153e
00000390: f115 1c3e 032e 443d e04d 0e3e 1c0e 653c
000003a0: a03e b3bd 28ef 033d b828 2a3d 547b e83d
000003b0: 1e72 703d e37d 993d 1b12 c03d f1f4 9e3d
000003c0: e451 103c 588b 153b 5267 ab3d af47 9ebc
000003d0: 8cdc cabd a335 dfbb 18a4 b5bd aec6 15bd
000003e0: 5494 9fbd 0e7e e1bd bdf4 c7bd 703b 1dbd
000003f0: 5517 4b3d 7e7b 383d 1a67 883c c493 95bc
-0.090452775 -0.08522672 0.006042581 0.027575307 -0.017963992 -0.011784851 -0.0766415 -0.035929088
-0.010474241 0.015502886 -0.048165187 0.00019424493 -0.06007262 -0.017870722 -0.038223285 0.0024276879
-0.032548677 -0.045598716 -0.07984391 0.004906286 0.008981974 -0.06161689 0.019277157 -0.013934573
0.0021840846 -0.10239583 -0.06698629 0.0038646238 0.0544309 0.036267336 -0.009379603 -0.03923331
0.03954547 -0.041824855 0.0041478374 -0.050647672 0.055128366 0.07973645 0.09416926 0.022311019
0.006167425 -0.009736549 0.06323659 -0.0032693783 0.017984653 0.01771323 0.035220545 -0.003598445
-0.011986054 -0.058084298 0.022451865 -0.02553265 0.020311778 -0.05813966 -5.733148e-05 -0.09199935
-0.098574266 -0.090389445 -0.05868467 -0.091857396 -0.08119484 -0.055236034 0.006597994 0.01104598
0.0007277859 -0.03663057 0.024743026 -0.055741604 -0.046479978 0.031777684 -0.046218835 -0.05907526
-0.005554851 -0.01153661 -0.027901873 -0.005971853 -0.071061306 0.021269634 0.02453894 -0.05132177
0.02176538 0.04057525 0.05255602 0.0624176 -0.035836913 0.050815865 -0.025382157 0.017924516
0.023682486 -0.033495225 -0.04198088 -0.010280305 0.057057206 0.055392463 0.05031766 0.074443884
0.030484237 0.08189965 0.018771406 -0.03923071 -0.03347226 0.04544567 -0.04082156 -0.0015003675
0.022320565 0.0327239 -0.0103791095 -0.051490452 0.008348093 -0.015249741 -0.0906679 -0.011543685
0.0053459797 0.02011028 -0.09669867 -0.06415265 -0.04782461 0.006643187 -0.035721436 -0.05079504
-0.06698156 0.014043937 -0.04930146 -0.016430898 0.0038669629 -0.096601196 0.044876274 -0.05871366
0.007724377 0.009413069 -0.050541334 0.02562642 0.043961037 -0.004210012 -0.071455546 0.0358866
0.011659624 -0.036390692 0.027011931 0.092154466 -0.016201623 0.012031611 0.08066257 -0.045658335
-0.011807768 -0.038285967 0.00017042489 -0.057371106 -0.020447707 -0.08130849 -0.0908515 -0.09302297
-0.039795432 0.045028478 0.07067193 0.029499706 0.08680036 0.098583326 0.06202615 -0.011136133
-0.0001582292 0.048871804 -0.05068259 -0.051230013 -0.047676623 0.0009936087 0.005155277 -0.023754532
0.030305333 0.013440555 -0.04278321 0.04250001 0.0397099 0.08275741 -0.030670067 0.0043454217
0.02403843 0.020905903 0.012019317 0.065748125 -0.037508387 0.07178894 0.054314222 0.06493945
-0.009064983 0.0018139345 0.0029102324 -0.00029567504 0.038918275 -0.03499691 -0.09201569 -0.074584424
-0.08003551 -0.00033290588 -0.006032003 -0.09088719 -0.0027661547 -0.09588402 -0.0464184 -0.028878437
0.0111167915 -0.0036000423 -0.050411317 0.05598836 -0.04901951 0.010793854 -0.024061318 -0.010575354
-0.07810307 -0.03241635 -0.0721642 -0.008084785 0.0026114683 -0.06985533 -0.081828 -0.042893972
-0.04797701 -0.017585134 -0.027766282 4.6106412e-05 -0.034196172 0.02113029 -0.015194629 -0.042647373
-0.033475332 0.09186368 0.0056660883 0.14585884 0.15242745 0.047895443 0.13896894 0.013980415
-0.08752179 0.0322105 0.04154274 0.11351648 0.05870258 0.07494714 0.09378453 0.077615626
0.008808587 0.002281865 0.08369316 -0.01932129 -0.09905347 -0.006811814 -0.08869189 -0.03656643
-0.07791963 -0.11010371 -0.09763477 -0.038386762 0.049582798 0.045039646 0.016650725 -0.018258937

encoder.2.bias f4 [64]
00000000: 3599 2ebe e695 80bd 19b3 19be a966 05bd
00000010: 2251 a4bd 61b8 b6bd efed 68bd d70f 8ebd
00000020: 4ffe 55bd 9352 78bd e930 a1bd 0dcc 50bd
00000030: 2128 0bbe 5688 0bbe 7817 82bd 8a50 2cbe
00000040: e3a1 bbbd 0ece b6ba 7109 b6bd bc9c 26be
00000050: 73b8 5c3e a5a6 0dbd a697 a03b 9738 d5bd
00000060: 2649 a7bd f900 f4bd ed93 71bd e488 dbbd
00000070: ed63 a2bd 1c09 48bd 384d c4bd 2a63 94bd
00000080: 92a3 1ebe 3ab8 583d 6112 4cbd 4739 5f3c
00000090: a4ae ebbd 342c 9dbd 9445 1cbe ee37 b4bc
000000a0: e0a3 e93a 6579 a33d c32e c6bc 3772 aebd
000000b0: db9e cab9 0254 93bd 9793 b8bd da93 d7bd
000000c0: f864 843d 9e41 f1bd 3690 b3bd 3776 e0bc
000000d0: 8b29 b5bd 39ee c3bd 0bde 98bd 8602 04be
000000e0: b2c6 a5bd c435 fcbb 49c9 22bd e548 e7bd
000000f0: 4880 f5bd a278 f538 d5a7 5ebd 64a4 d0bc
-0.17050631 -0.06278591 -0.15009727 -0.032568607 -0.08023287 -0.08921886 -0.056867536 -0.06936615
-0.05224448 -0.060625624 -0.07870657 -0.050975848 -0.13589527 -0.13626227 -0.063521326 -0.16827598
-0.09161737 -0.0013946907 -0.088885196 -0.16270727 0.21554737 -0.034582753 0.0049008904 -0.10411184
-0.08168249 -0.11914248 -0.058978964 -0.10719469 -0.079292156 -0.048836812 -0.09585041 -0.072454765
-0.15492085 0.052910067 -0.049822215 0.013624496 -0.115079194 -0.07674447 -0.15260917 -0.021999326
0.0017825328 0.079821385 -0.02419222 -0.085178785 -0.000386468 -0.071937576 -0.090125255 -0.10526247
0.06464571 -0.117800936 -0.087677404 -0.02740012 -0.08845814 -0.09566922 -0.07464226 -0.12891588
-0.08094539 -0.007696839 -0.03974274 -0.112932004 -0.11987358 0.0001170498 -0.054359276 -0.025469013

encoder.4.weight f4 [128, 64, 3, 3]
00000000: ab20 b9bc 9f2f 01bc bdd3 36bd 7152 babc
00000010: 1789 9abd bf12 95bd b828 aabd f1fd 70bc
00000020: cd2f 31bc ec49 a33d 48f1 4d3d afb6 c13d
00000030: b390 be3d 5166 943d b3e5 b73d 9897 ae3d
00000040: 7267 ae3d d150 713d 750b 4dbc cd2e 06bd
00000050: 2ca5 95bd 79ae 56bd b6da 3bbd ae8c 87bd
00000060: 29e9 8abd 8680 57bc 12db 85bd b073 23bd
00000070: 0105 0fbd 18ee 16bd ba37 c3bc b337 a0bc
00000080: 7406 9bbd 2427 d7bc b886 43bd 3d88 33bd
00000090: 28c7 b63c 3f26 b4bc 15e9 73bb 00e2 363b
000000a0: 1ed3 813c bbf4 dbbb 67f2 17bc 88c3 05bd
000000b0: 8242 dabc 3c5e 7abc eac6 95bd f049 87bd
000000c0: 4d01 95bd be38 2cbd 6707 01bd 5681 1dbd
000000d0: 1a44 4fbd c805 abbd 5bf9 42bd c2fd c3bd
000000e0: 6c30 80bd 1685 d6bd 46c8 b2bd 9bf8 9ebd
000000f0: 9fdd a7bd be7f 61bd 10ed efbc c450 99bd
00000100: 5fda 7abd b37d efbc 75d0 adbb 66ac 21bd
00000110: 4fab 77bd 1882 95bc 36a1 06bb 8be5 10bc
00000120: 35dc 35bc 51d0 8fbd 5576 8dbd 9647 a0bc
00000130: ecb0 02bd ee83 6ebd ea42 1bbd effb 7fbd
00000140: 97e4 11bd 6ab0 85bd 12a9 f5bc e39e 97bc
00000150: c538 a0bd c285 1ebc f625 2cbc 5d6c 83bb
00000160: 3c92 a0bb 49ec 92bd 6c70 70bc 0083 2ebc
00000170: 25e2 153d 88e7 d2bb c454 2a3c 9d9a 123d
00000180: c61b 7dbc 56ca 50bc 5a08 e03c 3d37 ccbc
00000190: 1b81 ddbb 4fdc 32bd 7798 81bb b839 74bd
000001a0: a54f 91bd 91c4 fbbc 1d1a a0bd a653 f7ba
000001b0: f6f8 17bd 52b5 b9bc cbf2 aabc 8dfe 8fbd
000001c0: 5c9a c5bc 7f8e 75bd 92c9 27bd a7ef efbb
000001d0: 9045 55bd ea67 aabc 8c8e d1bc e1fb 0bbd
000001e0: 9999 40bd 986e b43b 52f0 ba3b 848a 80bd
000001f0: 0248 90bd d6bd 7dbd 2161 123d c047 ebbc
00000200: 0a85 e33c c239 1bbd 60e7 fcbc ec62 07bc
00000210: b323 83bc b085 083c 2004 8aba b343 debc
00000220: 624e 90bc 3934 59bd c968 40bd b09b 16bd
00000230: ec5b 4dbd fee5 8ebd 7aa2 18bd f103 8ebd
00000240: c8e6 a93d 4c0b 703d ef7b b13d a89f e33c
00000250: 5942 963d 1275 e43c 9514 a33c bb93 a33d
00000260: ceb0 9d3c c4d6 21bd 7e05 e1bc 7574 8fbd
00000270: 94ee 90bd 335e d0bb d27c 60bd bacd 0dbd
00000280: 1805 37bd d1c5 89bc 8082 403d 9f2e 323d
00000290: ea94 a43d 4f75 b53d 5529 853d 0218 9a3d
000002a0: 982a ca3d f245 093d 667e 173d d432 32bd
000002b0: babb b8bd d1ce 82bd df27 41bd ee0a 27bd
000002c0: cbca 5cbd ee36 6bbd 6173 88bd 753d 01bd
000002d0: 83a2 6ebc 46af 9d3c 1854 cfbc 467e cdbc
000002e0: c54a 88bc 3eb3 1b3c 5213 cbbc f279 9fbb
000002f0: dc37 43bb 56eb 50bd 07df dabc f9cd 09bd
00000300: 7d00 8ebd ff05 4fbd c1fa 53bd 7774 51bd
00000310: 4bbe 47bd 7651 8cbb dfc8 85bd e0df 5bbd
00000320: fc79 88bd 1726 d1bd 953f 5ebd e35e 42bd
00000330: ca90 8bbd e15d 6fbd aef2 e3bc ea34 bdbc
00000340: 798e 0fbd b625 87bd 6cc6 39bb 6bc0 66bd
00000350: 292e bdbc 6a29 98bd 19de 84bd c582 03bc
00000360: 203f 463c 16f4 e5bc 1eb8 dd3c 1c8f 7b3c
00000370: 8236 f7bc f7bb adbc ac0e 24bc 0056 c939
00000380: 50e1 0abb 5de7 a73d 0813 6d3d f45e ed3c
00000390: a26b 593d 8fef d33c d69e b93d 247e cb3d
000003a0: ee04 853d be61 5f3d 9760 8b3a 1551 a73c
000003b0: 4d15 1b3d c4f2 18bc 8910 e4bc 551b 1e3d
000003c0: cf68 943c fd5e 05bd dd58 133d 1a7d 7abd
000003d0: beec 2dbd 9303 98bd 6fb1 a9b8 ae2b 5dbd
000003e0: 717d 16bd 04f8 c4bc beed edbc 46be 03bd
000003f0: 4e06 763d b02c 1f3d 6bd8 ab3c e9a1 7a3d
-0.022598585 -0.007884889 -0.044635523 -0.02274439 -0.07545679 -0.07278966 -0.08308548 -0.014708982
-0.010814619 0.07973084 0.05027893 0.09458672 0.09304943 0.07246078 0.089793585 0.08525008
0.085158244 0.058914963 -0.012514939 -0.032759476 -0.07306895 -0.052412484 -0.045862876 -0.066186294
-0.06782753 -0.013153201 -0.06535925 -0.03990525 -0.03491688 -0.036848158 -0.023830283 -0.01955781
-0.0756959 -0.02626378 -0.0477359 -0.0438311 0.022311762 -0.021990893 -0.0037217785 0.0027905703
0.015847739 -0.0067125238 -0.009274102 -0.032657176 -0.026643042 -0.015281256 -0.073133305 -0.06605899
-0.07275639 -0.0420463 -0.0315012 -0.038453422 -0.050602056 -0.08350712 -0.047601085 -0.09569885
-0.06259236 -0.10474603 -0.087296054 -0.077622615 -0.08196568 -0.055053465 -0.029287845 -0.07486108
-0.06124341 -0.029234743 -0.005304391 -0.039471053 -0.060466107 -0.01825051 -0.0020542867 -0.00884379
-0.011099865 -0.07022155 -0.06907336 -0.019565385 -0.031907007 -0.058231287 -0.03790561 -0.062496122
-0.03561839 -0.06527789 -0.029987846 -0.01850838 -0.07823328 -0.009675445 -0.0105070975 -0.0040107206
-0.004900245 -0.07173974 -0.014675241 -0.01065135 0.03659262 -0.006436292 0.010396186 0.035791982
-0.015448516 -0.012743553 0.027347732 -0.024928683 -0.0067597753 -0.043667134 -0.003954943 -0.059625357
-0.07095269 -0.030733379 -0.07817481 -0.0018869534 -0.037102662 -0.022669468 -0.020867726 -0.070309736
-0.024121456 -0.059950348 -0.040963717 -0.00732227 -0.052068293 -0.020801503 -0.025580667 -0.034175757
-0.047021482 0.005506348 0.005704918 -0.0627642 -0.070449844 -0.06194862 0.03573716 -0.028720737
0.027773399 -0.03789688 -0.030872047 -0.008263331 -0.016008234 0.008332655 -0.0010529794 -0.02713189
-0.0176155 -0.05302832 -0.04697493 -0.03676957 -0.05013649 -0.06977461 -0.037264325 -0.069343455
0.08295971 0.058604524 0.086662166 0.027786091 0.073368736 0.027887855 0.019907275 0.07987162
0.019249346 -0.039511457 -0.02746844 -0.07004634 -0.07076755 -0.0063588857 -0.054806538 -0.034620024
-0.044682592 -0.016817959 0.046999454 0.043501493 0.080362156 0.088602655 0.06502024 0.075241104
0.09871405 0.03351397 0.036985777 -0.043505505 -0.09020181 -0.06387103 -0.047157165 -0.040781908
-0.053904336 -0.057425432 -0.06662632 -0.03155275 -0.014565113 0.019248616 -0.025308654 -0.025084626
-0.016637215 0.009503184 -0.024789486 -0.004866832 -0.0029787933 -0.051005684 -0.026717676 -0.033643696
-0.06933687 -0.050542828 -0.05175281 -0.05113646 -0.048765462 -0.004282172 -0.06532454 -0.0536803
-0.06663892 -0.10212343 -0.054259855 -0.047453772 -0.06814726 -0.05843914 -0.02782568 -0.02309652
-0.035047982 -0.0659899 -0.0028347028 -0.056335848 -0.0230933 -0.07429774 -0.06487674 -0.008026783
0.012100011 -0.02807049 0.027065333 0.015353944 -0.030177359 -0.021207793 -0.010013264 0.00038401783
-0.0021191426 0.08198426 0.057879478 0.028975941 0.053081162 0.025871066 0.09063499 0.09936169
0.06495081 0.054536574 0.0010633644 0.020424405 0.03786211 -0.009335224 -0.027839916 0.038600285
0.018116383 -0.03256129 0.03597342 -0.061154462 -0.042462103 -0.07422557 -8.0915976e-05 -0.053996734
-0.036740724 -0.024044044 -0.029044028 -0.03216388 0.060064606 0.038860977 0.02097722 0.061189566

encoder.4.bias f4 [128]
00000000: 1f7f 4ab9 7323 86bd e69e 933d 6702 b2bd
00000010: 2332 c1bd 840e 0cbd 9060 043e c146 b8bd
00000020: 3a4c efbc 6d98 91bd 3e16 4dbd 53b2 65bd
00000030: a985 34bd c069 35be e6ac 433a 5c7c 40bd
00000040: 1b5c cc3c 2784 9cbd 9145 38bd 9d67 aebd
00000050: 7d5f 13bd bad2 28bd 6d84 24bc eab8 81bd
00000060: 4b24 8bbc 7bd2 34bc 3037 bcbd 405e 89bc
00000070: 9470 433c 6ae7 fabc 8cb0 9dbd 6986 93bd
00000080: 0748 00bd 701e 2dbd 06c6 1cbd 35fe 70bd
00000090: cc0f bbbc 0e3b 10bd fb94 b63d 0097 a7bc
000000a0: c96a 9dbd 028a e4ba 001a 07be f1e6 b8bd
000000b0: d642 abbd ff70 7f3e 2407 22bc fcbc 99bd
000000c0: 5957 54bd 759e ad3d 6d55 b5bd cadf bdbd
000000d0: ae50 8cbd 273a b9bd ba65 b0bd 9667 2cbd
000000e0: 8aec 00be 4acd 84bd 7535 cdbd 5c32 17bd
000000f0: 3ac8 03bd 0c89 92bd ac98 5fbd a6c4 11bd
00000100: 9356 99bd 1a76 6bbc 776c 0bbd 8f9f 9bbd
00000110: 25a4 a1bd 422f 50bd 93ef 093d 03e2 cbbd
00000120: 4b2a 1ebd a380 933e 9d0c 1d3e 7a3e d1bb
00000130: 7eca dbbc e453 aabd 189c e83c 6263 55bc
00000140: 6260 0ebd a2d2 b7bc aee0 1cbd dbe4 78bd
00000150: 1b91 29bd 0433 55bd cd41 ccbb d0ad a1bd
00000160: 65ee 38bd 9536 3a3d 8ddb 683c 91d1 27bd
00000170: 3dce 1dbd d2e9 7ebc c2af 38bd c5d5 4cbc
00000180: 6f63 813b b712 86bd f948 36bd c105 26bd
00000190: 1edd a1bd 1db5 513c fa33 07bd 6f14 89bd
000001a0: 65de 49bd 2c2e 9fbd f202 92bd d783 b8bc
000001b0: 31fa 0fbd 1ffb da3c bba7 abbc ec90 80bd
000001c0: f5ac e3bc aaaf 17bc 1172 94bc 142d 78bd
000001d0: 3dcc a3bd eb2f 6dbd 47b0 d03d 9c12 f1bc
000001e0: 5993 53bd ea74 c13c 3391 4cbd e0ad 66bd
000001f0: bd3f 27bd 8f57 41bd 2037 9bbd 96e5 babd
-0.00019311577 -0.0654973 0.07208042 -0.086918645 -0.09433391 -0.03419353 0.1292746 -0.0899787
-0.029211152 -0.07109151 -0.05007004 -0.056078266 -0.04407278 -0.17716122 0.00074644235 -0.0469936
0.024946263 -0.076423936 -0.04498822 -0.085158564 -0.035979737 -0.04121659 -0.010041338 -0.06334098
-0.01698508 -0.011036511 -0.09190214 -0.016768575 0.011928696 -0.030627925 -0.07699689 -0.07203371
-0.03131869 -0.042265356 -0.038274787 -0.05883618 -0.022834681 -0.03521257 0.089151345 -0.020457745
-0.07686383 -0.0017436149 -0.13193512 -0.090284236 -0.08362357 0.24945448 -0.009889398 -0.07506749
-0.051841114 0.08477489 -0.08854184 -0.092712 -0.06851326 -0.09044295 -0.08613153 -0.042090975
-0.12590232 -0.06484468 -0.10019962 -0.03691326 -0.032173373 -0.07155046 -0.05458896 -0.03558793
-0.07487216 -0.014371419 -0.034038987 -0.07598793 -0.07892636 -0.05082632 0.03367574 -0.09955218
-0.038614552 0.2880908 0.15336843 -0.0063856216 -0.026829954 -0.08316782 0.028394744 -0.013024183
-0.034759887 -0.022439305 -0.03830021 -0.06076513 -0.04139815 -0.052050605 -0.00623343 -0.0789448
-0.045149226 0.04546221 0.014212501 -0.040971342 -0.038526762 -0.015558677 -0.04508949 -0.0125021385
0.003948621 -0.06546538 -0.044503186 -0.04053283 -0.07903503 0.012799528 -0.033008553 -0.066933505
-0.049284358 -0.077724785 -0.07129468 -0.022523804 -0.03515071 0.026731072 -0.020954004 -0.06277642
-0.027792433 -0.00925819 -0.018120797 -0.060589865 -0.0799794 -0.057907026 0.10189872 -0.029427819
-0.051654194 0.02361532 -0.04994316 -0.056318164 -0.04083227 -0.047202643 -0.07578874 -0.09125821

decoder.0.weight f4 [128, 64, 3, 3]
00000000: 8c26 43bc e1e7 26bd eccb 59bc c08a 7f3a
00000010: 6091 a33b da87 903c 73a3 afbc a190 9abd
00000020: 0e80 a63c ea8c cfbc 5796 4fbb be62 8abd
00000030: 3d37 c53b 4013 ba3b 5b5a 2abd 6a16 9ebd
00000040: 5b2a 2dbc 3a66 63bd 3046 30bc 654c 12bd
00000050: ae03 10bc 38eb 8a3c 684a aabd 00d2 b83d
00000060: fe03 80bd cabf 9fbd fed2 b1bc efa2 b53d
00000070: e2f1 be3c 61e6 b33d 7133 98bd f29f c0bc
00000080: daba a7bd e906 3f3d 0c83 a63d f240 813d
00000090: 6a46 0dbd cc0a 76bd 1ce8 1cbc 5e62 94bd
000000a0: 7902 b5bd f40f 9ebd b180 1dbc a538 71bd
000000b0: d399 82bd 57b5 9dbc 42a4 b3bd 96fa aabc
000000c0: c683 bcbd 0695 a3bd 0f50 36bd 922b 86bd
000000d0: 5dff 8abd 9ed8 18bd 004f 10bd 64c1 d0bd
000000e0: 1947 a1bd 532a 13bd 5750 a4bd 6ec3 63ba
000000f0: 7c33 73bc 5f50 d5bd 0093 82bd 5b5c 32bd
00000100: 2269 57bd c44b 90bd 6a1a 4bbd 2c6b 79bd
00000110: b703 ccbd d10e 6bbd 2829 8bbd a80f c4bd
00000120: c55d 54bd 17ef 083c 6d78 05bd bdae e23b
00000130: 7c56 5c3c 7a0c f7bb 81b5 b0bd 3f62 19bd
00000140: 8acb 17bd b537 b0bd 6605 843d fb10 c7bd
00000150: 90d1 5fbd d056 5c3c 8e7a cbbd a1a5 6fbd
00000160: ff26 b13d 3dce 9ebd ea20 4bbd 3959 eabb
00000170: 6669 9fbd 3f91 14bd d499 aabd 7983 e6bc
00000180: 3b91 b4bd 22e6 80bd 2037 65bd d89d cbbc
00000190: 457e 703d d69b ed3c acb5 653c 1a39 fb3c
000001a0: e492 08bc 10c3 1c3b 4d6d 91bc 8c75 023c
000001b0: fe6a 2cbd 1857 30bd badb 76bd 2c66 b23d
000001c0: a827 943d 34d7 703d 002e d0bc 16e8 eebc
000001d0: 32b5 84bd 184f fe3b afac 27bd f7c5 803c
000001e0: 406c 6cba b0f6 8e3c 0867 c8bb da40 c73c
000001f0: d66a 92bd 9bfb ebbc 641f 8e3c 7a58 2e3d
00000200: f65f 2c3d c1f7 9b3d 308b 0c3c 5f86 b63d
00000210: 65eb 493d 5974 a03d ceb6 8a3d bbe9 6d3d
00000220: 63f6 e0bc 34e7 b33c 3849 bcbc 922f d73c
00000230: 1576 043d bb04 723d c01b 7bbc 451f 2e3d
00000240: 02ec b8bd abb3 90bc def1 afbd b322 25bd
00000250: b2df 9ebd 3f02 94bd 0935 84bd 2742 a5bd
00000260: 5299 9ebc 6977 bcbd 9dd9 a3bd 70bf 9bbd
00000270: aa17 a5bc 273f 9ebd adba 76bd 0e1e 0bbd
00000280: 82fd 8ebd 28ee cabd 0acc babc 00b1 28bd
00000290: 34b3 83bd d505 47bd 8ce7 bebd a217 a2bc
000002a0: 51bc b9bd 2262 ebbc 7b35 0cbd 2dbe 6dbd
000002b0: f69c c3bd 32ab a6bc 1f63 ebbb 3a1a df3c
000002c0: 3640 52bc 7d22 5fbd 8940 acbd 34be 85bd
000002d0: 8c3b 83bd 57f2 92bd 50fa c3bd f200 8a3d
000002e0: 04a5 2c3c f482 2ebd 7aa6 8e3d 0df2 a2bd
000002f0: ba45 9f3d 4958 48bd 7a77 333d 6804 39bd
00000300: 513a 61bd fcb7 113d e1f5 7ebc 9faa 6fbd
00000310: 48a5 16bd 727b be3c 2db4 6dbd 86ad a0bd
00000320: e612 16bd 66bc 1cbd ea80 9fbd c485 95bd
00000330: af51 83bd 25a7 a8bd 8309 87bd a407 00bd
00000340: 9d3e 18bd 79ef b1bd a81c a6bd c016 bfbd
00000350: da15 2fbd e4e8 28bd 1836 48bd e745 97bd
00000360: e397 0abd a0fa 58bc 5278 833c 592a bfbc
00000370: 4608 863c 9879 d73c bc9c 45bc 881a d6bb
00000380: 4b8f c9bc 68d8 14bc 1084 1b3d 58c9 93bd
00000390: 6841 05bd 00cb f63c c6e2 5bbd 2952 b8bc
000003a0: efda fcba db55 94bd e7cd febc 0b8d 1fbd
000003b0: 285e 36bd 5a8d 1fbc 6240 91bd 834e 62bc
000003c0: 87a7 92bd ea3e 39bd ea63 27bd 2df2 a3bd
000003d0: ff47 6a3c 61ff 9cbd 28de e7bc d3cd 96bc
000003e0: 00c2 76bb 7482 b3bd 558c d73c 5b15 72bd
000003f0: 5af6 c1bc d6ef aa3c c008 c5bc 00bf 23ba
-0.011911046 -0.04074848 -0.013293248 0.00097481534 0.0049916953 0.017642904 -0.021440243 -0.07547117
0.020324733 -0.025335748 -0.0031675303 -0.06757115 0.006018548 0.0056785643 -0.041590076 -0.07719119
-0.01056918 -0.055517413 -0.0107589215 -0.035717387 -0.00878994 0.016957864 -0.08314973 0.09024429
-0.062507614 -0.07800253 -0.021707054 0.08868968 0.023308698 0.08784176 -0.07431687 -0.023513768
-0.08189936 0.04663745 0.08130464 0.063112155 -0.03449098 -0.06006889 -0.009576824 -0.072453246
-0.08838362 -0.077178866 -0.009613202 -0.05889191 -0.06376996 -0.019251509 -0.08771564 -0.020871442
-0.09204821 -0.07987408 -0.044509944 -0.06551279 -0.06786988 -0.037315957 -0.03523159 -0.10193136
-0.07874889 -0.035929035 -0.08023136 -0.0008688484 -0.014843818 -0.1041572 -0.06375694 -0.04354511
-0.052590497 -0.07045701 -0.049585737 -0.060893223 -0.09961646 -0.057387177 -0.06794959 -0.09573299
-0.051847238 0.008357785 -0.03258555 0.006917803 0.013448354 -0.007539329 -0.08628369 -0.03744721
-0.037059344 -0.08604375 0.06446342 -0.09720036 -0.054643214 0.013448432 -0.09935485 -0.058507565
0.08650016 -0.077541806 -0.049591936 -0.0071517495 -0.07783775 -0.03627133 -0.08330122 -0.028138863
-0.08816763 -0.06293894 -0.055960774 -0.02485554 0.05871417 0.029004972 0.014020365 0.030666877
-0.008335803 0.0023919977 -0.017752314 0.007962596 -0.042094223 -0.04305181 -0.06026814 0.08710894
0.07234126 0.058798984 -0.02541256 -0.029163402 -0.06479873 0.0077608936 -0.04093617 0.015719397
-0.0009018816 0.017451614 -0.006115798 0.024322916 -0.071492836 -0.028806498 0.017348953 0.042564847
0.042083703 0.07615615 0.008578107 0.08912348 0.049296755 0.078346916 0.067731485 0.05808423
-0.027461236 0.021960832 -0.022984132 0.0262678 0.032339174 0.059086543 -0.01532644 0.04251029
-0.0902939 -0.017663797 -0.085910544 -0.040316295 -0.0775751 -0.07226991 -0.06455428 -0.08069258
-0.019360218 -0.09202463 -0.08000491 -0.07604873 -0.020152885 -0.07726889 -0.06023662 -0.03396421
-0.069819465 -0.09908706 -0.022802372 -0.041184425 -0.06430665 -0.048589546 -0.09321508 -0.01978666
-0.09069122 -0.028733317 -0.03423069 -0.058042694 -0.09551422 -0.020345304 -0.007183447 0.027234185
-0.012832692 -0.05447625 -0.084107466 -0.06530419 -0.06407842 -0.07175129 -0.09569228 0.067384616
0.01053739 -0.042605355 0.06965347 -0.07956324 0.07776971 -0.04891232 0.043815114 -0.045170218
-0.054987255 0.03557585 -0.015561552 -0.058512326 -0.03677872 0.023252223 -0.058033157 -0.07845597
-0.036639117 -0.03826561 -0.0778826 -0.073009044 -0.06412064 -0.08235005 -0.06593611 -0.031257287
-0.037169088 -0.08688254 -0.081109345 -0.09330511 -0.04274545 -0.041237727 -0.048879713 -0.0738638
-0.033836257 -0.013243347 0.016048584 -0.023335623 0.016361367 0.026303098 -0.012061294 -0.0065339245
-0.02460446 -0.009084798 0.03796774 -0.07216138 -0.03253308 0.030126095 -0.053683065 -0.022500115
-0.0019291322 -0.07242938 -0.031104041 -0.03895287 -0.04452339 -0.009738291 -0.07092358 -0.013812664
-0.071608596 -0.045226015 -0.04086677 -0.08005176 0.014299392 -0.07665897 -0.028304175 -0.018408692
-0.0037652254 -0.08765116 0.026312033 -0.059102397 -0.02367704 0.020866316 -0.024052024 -0.0006246418

decoder.0.bias f4 [64]
00000000: d37f 55be ab95 89bd b472 37bb 6223 813c
00000010: 26fc 98bc 3246 5fbd 1a90 a9bd 09eb 25bd
00000020: 66bc cabc e445 99bb c0b2 863b c67e b7bd
00000030: 5da2 83bd 89c3 30be 3f3c c5bd f360 733c
00000040: 5141 69bd 00c8 68bd 2719 a53c 0c23 a0bd
00000050: b9dd a9bd 33ed dcbc ee05 18bd 8eb1 b73b
00000060: e6b4 f13c d665 adbc 29f2 75bd b031 d9bd
00000070: 7916 e2bd e84b 6cbd 0c05 0dbe c9e4 dbbd
00000080: fd61 81bd d0f0 37bd f608 363b 6c73 bbbd
00000090: 6410 a9bc 9da3 d3bd 60f8 ae3c 4cf7 b3bd
000000a0: a916 d4bc aac8 93bd 940d 55bd 6ed5 83bd
000000b0: d9ca 44bd 7613 3bbd 604d 1cbe e0d0 dfbc
000000c0: 1a31 41bd ea3c 93bd b11e 0cbd 90c1 f4bd
000000d0: b00c 9abd 238c e1bc a398 00bc 5d26 20bd
000000e0: 126e 95bd 30dc 55bd 10e4 bcbd c765 90bd
000000f0: 6061 393c cf59 70bd 3fbc 81bd 36c9 1a3c
-0.20849542 -0.06718 -0.0027991952 0.015763942 -0.018674921 -0.054510303 -0.08279438 -0.04050735
-0.024748039 -0.004677521 0.004110664 -0.08959727 -0.06427453 -0.1726209 -0.09630632 0.014854657
-0.056947056 -0.05683136 0.020153595 -0.07819185 -0.08294243 -0.026968574 -0.03711503 0.005605883
0.029505204 -0.021166723 -0.060045395 -0.1060518 -0.110394426 -0.057689577 -0.13771456 -0.10736997
-0.06317518 -0.04490739 0.0027776337 -0.09152874 -0.020637698 -0.10333941 0.021358669 -0.087874025
-0.025889711 -0.07216008 -0.052014902 -0.06437193 -0.048045013 -0.045672856 -0.15263891 -0.027321279
-0.047165968 -0.07189353 -0.034208957 -0.119509816 -0.07521951 -0.027532643 -0.007848891 -0.039099086
-0.07296385 -0.05221194 -0.09223187 -0.070506625 0.01131472 -0.0586794 -0.06334733 0.0094473865

decoder.2.weight f4 [64, 32, 3, 3]
00000000: 39dd bcbc b8ae 14bc 09fc 1bbd 1629 a23b
00000010: fd96 453e ce94 81bc f84b 5cbd 0479 99bc
00000020: 8a2b 8d3c 8271 c1bb eaf8 943c af04 5f3c
00000030: af49 abbd c14d 853e 9196 f6bd 3008 1f3d
00000040: 4be4 3ab8 8340 3b3d 0cac 953d 71cf ea3d
00000050: 1669 e93c 1de3 b23d ed7d 873d 3245 803c
00000060: 2f5b 72bd 3feb c63c 254c 81bc 1461 8abd
00000070: 83f8 913c 370c 85bd a7c5 f2bc 15bd 85bd
00000080: f678 e03b 4a50 7bbd 0f50 023d f948 acbb
00000090: a330 21be 3eb7 963d aae0 87bd 91e3 663d
000000a0: a51f 063e 5389 59bd 58e8 033e 6725 b83d
000000b0: 3ecb 213e 1b92 0f3d 31d2 483d 6a18 c43c
000000c0: ca44 b53c b02c f73b 0b45 ddbb 8edc b43c
000000d0: 35ad 303d 4c61 0ebc 3684 bb3d 909b 163d
000000e0: fdcb 4ebd 1351 203d 7a37 143d 7355 bb3c
000000f0: df1e 8cbd 7108 503c e88c c6bc bc4a 7b3d
00000100: cc94 5dbd 0db9 61bd fbbf 4abd 7cbe a5bd
00000110: 9625 c0bc ffc1 533d 5493 c63d f9d2 61bd
00000120: b742 1dbd 4e05 213d ea15 92bd a555 bd3b
00000130: 2d5f de3d a76b a6bd cb51 32bb b6df c23c
00000140: 1aa2 a2bd 8041 88bd 4927 a3bb b446 06bd
00000150: 44c8 ad3d 4da1 ce3d 7054 a5bc 413a db3c
00000160: 9d57 aa3b 0e51 64bd 0227 533d 131e 8e3d
00000170: ccf2 7bbc 0e8b a4bc b28c 913c ae20 20bc
00000180: 4ecb 8c3d c57a 313d 00b8 4c3d 0016 3cbc
00000190: 4a78 8bbc f2f9 6cbd fcdf b4bc e63d c93c
000001a0: ecb8 f13d e1dc 513d 43da a93d 575a 1f3c
000001b0: 2c0e 4d3d f6c9 b8bc 1e85 5abd fa84 483e
000001c0: 2530 003d a529 c6bd 6093 4e3d 77d6 0dbd
000001d0: 02e7 03bc 5780 ccbc 1004 ce3d be66 b93c
000001e0: b6fe 0f3e a16a 043e 1f30 873c 1559 093d
000001f0: 2a57 1d3d 7603 253d 52e2 693d 5ced 4c3c
00000200: 0d73 28bd dd46 59bd fe72 213d f5b2 80bd
00000210: 0414 48bc 4f7c 18bc f766 1cbd 546c 673c
00000220: 3ce1 683c 54c9 87bc 71cb f4bc 74a6 a039
00000230: 2664 903d e663 13bd 115f 133d 29fc 87bd
00000240: 8cc7 2e3c 5672 49bc 0356 4cbc f704 193d
00000250: b639 89bd cebd bb3c a353 583d f006 f4bb
00000260: 689c f3bb 4ca1 a9bc b77e b5bc bc40 aabd
00000270: 18c2 0ebd de80 7cbd 0a39 f33c db5c 04ba
00000280: 5b89 9cbb 86d4 d93d 7e5c a6bd 7fbb 033e
00000290: ff13 173b 6a73 783c b0c6 253d 3015 bc3d
000002a0: 559c e8bd 0d27 773d 398d 18bd 87d3 65bd
000002b0: f23f a23c 5a6f 443d ff41 0c3d 5c6a 0b3d
000002c0: ad01 613c 102f 383c dfb5 2f3d 3ebb 1cbd
000002d0: d09c b2bc bb5a a5bd 8d0a 23bd 7aaa 9dbc
000002e0: a3e0 5fb9 de15 0abd 80eb c7bd d124 66bd
000002f0: 76d2 c8bc a94c c9bc 014f fe3c 4521 b83c
00000300: 0997 14bd 9ae1 573d 3182 523c b03e 63bd
00000310: b012 e43c fa0f a8bc ef27 2cbc d8ce 14bc
00000320: 8e44 d2bd f346 c53d 8936 04bd b3b5 cb3c
00000330: 9e0a 8dbd 2a93 62bd 66d3 63bd 2e46 863c
00000340: 1b13 26bd a9eb 28bd 8f74 233d 59ca ccbd
00000350: a85e c9bd 72dc 8cbc bc9e 48bd 86a2 93bd
00000360: f399 363d 0031 d43d 4a9e 01bd 602a 6abb
00000370: f945 5bbd 43e6 e4bc 69b5 0b3d 29ed 643d
00000380: ec51 383c 75f9 8dbc d4eb 8e3d 8765 62bc
00000390: e34f f73d 1693 41bc 36ff 3abc 385b 8abd
000003a0: 6018 b13d d24a 203c 2653 6d3d b7c6 103e
000003b0: f716 cc3c 5e69 8fbc 0a9d b33d bbdd 263d
000003c0: 6a5a c9bd f4e8 b0bd e060 c2bd 6446 1dbd
000003d0: 0ff4 653d 3c90 b7bd d6d9 9bbd 3f36 b63d
000003e0: 322b 9a3b 6e2b 37bd 1d6a b13c 8a25 e3bd
000003f0: b7f5 4c3d cb15 c23d 1e23 12bd 0189 ed3d
-0.023054706 -0.009074859 -0.038082156 0.0049487455 0.19295879 -0.015818026 -0.053783387 -0.018734463
0.017232675 -0.0059034238 0.018185098 0.0136119565 -0.083636634 0.26035884 -0.12040437 0.038826168
-4.455847e-05 0.04571582 0.07308206 0.114653476 0.028492492 0.08734725 0.06615815 0.015657995
-0.05916899 0.024282096 -0.015783379 -0.067567974 0.017818695 -0.064964704 -0.029635264 -0.06530205
0.006850357 -0.061355866 0.03181463 -0.0052577225 -0.1574121 0.073591694 -0.06634648 0.056369368
0.13098009 -0.05310948 0.12881601 0.08991509 0.15800187 0.035051446 0.04902858 0.023937423
0.022127528 0.007543169 -0.0067526153 0.022077825 0.043133933 -0.00869019 0.091560766 0.03676945
-0.050487507 0.03913982 0.03618572 0.022867894 -0.06841826 0.012697325 -0.024237111 0.06135057
-0.054096982 -0.05510812 -0.049499493 -0.08092973 -0.023455422 0.05169868 0.09696069 -0.05513284
-0.038393702 0.0393117 -0.07133086 0.005778032 0.10857997 -0.08126002 -0.0027209397 0.023788314
-0.07941075 -0.06653118 -0.0049790484 -0.03278227 0.08485463 0.100893594 -0.020181865 0.026761176
0.0051984326 -0.055741362 0.051550873 0.0693933 -0.0153777115 -0.020085838 0.017767284 -0.009773416
0.06874715 0.043329973 0.049980164 -0.011479855 -0.017025132 -0.057855554 -0.02207946 0.024565648
0.11802849 0.051236037 0.08293583 0.009726129 0.050062343 -0.02255724 -0.053349607 0.19581977
0.031295914 -0.09675912 0.050433517 -0.034628358 -0.008050682 -0.024963541 0.100593686 0.022632
0.14062008 0.129313 0.016502438 0.03353222 0.038413204 0.040286504 0.0571006 0.012507763
-0.041125346 -0.053046096 0.039416306 -0.06284133 -0.012211803 -0.009306981 -0.038184132 0.0141249485
0.014213856 -0.016575493 -0.029882165 0.00030641595 0.07050352 -0.035983942 0.035979334 -0.066398926
0.010667693 -0.012295326 -0.012471679 0.03735825 -0.067004606 0.022917654 0.052814137 -0.007447116
-0.0074344166 -0.020706795 -0.022155149 -0.08313128 -0.03485307 -0.061646335 0.029690284 -0.0005049237
-0.0047771162 0.10636239 -0.0812311 0.12864493 0.002305269 0.015164236 0.040472686 0.09183729
-0.11357943 0.060339976 -0.037244055 -0.05610993 0.019805882 0.047957756 0.034242626 0.03403698
0.01373331 0.011241689 0.042898055 -0.038264506 -0.02180329 -0.08073946 -0.039804984 -0.019246329
-0.00021350621 -0.03371226 -0.09761715 -0.056187455 -0.024514418 -0.024572687 0.031043531 0.022476802
-0.03627685 0.052705385 0.012848423 -0.055479705 0.027840942 -0.02051543 -0.010507568 -0.0090825185
-0.10266982 0.09632673 -0.03227857 0.024866914 -0.06886791 -0.055316128 -0.055621527 0.016390886
-0.040545564 -0.041240368 0.03990608 -0.09999532 -0.09832507 -0.01719496 -0.048979506 -0.07208733
0.04458041 0.103609085 -0.031645097 -0.0035730824 -0.053533528 -0.027941829 0.034108553 0.055890236
0.01125 -0.017330864 0.069785744 -0.013818151 0.12075784 -0.011814853 -0.011413386 -0.0675568
0.08647227 0.009783464 0.057940625 0.14138304 0.024913294 -0.017506298 0.08770187 0.040738802
-0.09831698 -0.08638182 -0.09491134 -0.038397208 0.056140956 -0.089630574 -0.07609908 0.08897065
0.0047048563 -0.044719152 0.021657044 -0.110911444 0.05003902 0.09476813 -0.03567802 0.11598397

decoder.2.bias f4 [32]
00000000: ccd5 44bc 03b0 2d3e 22f0 b53c da60 6bbd
00000010: a42c 40bd 0e8c a3bd 853d 68bd 311f 30bd
00000020: 8649 53bc 3387 3c3d 77fa 3b3c 66f1 7c3c
00000030: 6580 90bc cc62 b13d b0d7 15bd c276 61bd
00000040: 0092 a6bd 4ed8 90bd 6799 99bd 445e c43b
00000050: ea18 bdbd a746 de3b 9e95 343c 25f3 f8bd
00000060: 1312 52bd a10d 833d d858 383d dc93 4dbd
00000070: 78e3 4a3c e29e acbb 34c8 e5bc 48fe 0fbc
-0.012013864 0.16961674 0.02220923 -0.05746541 -0.046917573 -0.07985698 -0.056699295 -0.042998496
-0.012895947 0.046027374 0.01147329 0.015438413 -0.017639348 0.08661422 -0.03658265 -0.055044897
-0.08133316 -0.07072507 -0.07499962 0.0059926827 -0.092332676 0.0067833248 0.011022 -0.12155751
-0.05128677 0.06399084 0.045006603 -0.050189838 0.012383334 -0.0052679637 -0.028049566 -0.008788653

decoder.4.weight f4 [32, 3, 3, 3]
00000000: e903 ddbd 98ba 8b3d 5ff3 f1bd c171 033d
00000010: 8efe 1cbd a6f5 2bbe 03a8 113d 6209 d83d
00000020: 2ace d53d abaa 393d a8e0 1f3d ea71 243e
00000030: c276 0d3e 97ba 033d ee15 8fbc 66b3 873d
00000040: b816 b23d 5d7b 7fbc f19c acbd 332e 293e
00000050: fba6 c2bc 1be0 c2bc c924 843e aa2c 4d3e
00000060: 4e9c 01be 16d9 443e 757f b33d 05c9 39be
00000070: bb02 8cbe 2862 5dbe 6097 a7be 9cd4 b4be
00000080: 9e1e 0bbe 6dc5 443b 16bc 5bbe 60e3 f6bc
00000090: ae54 67bd 69f2 29be 84f6 2ebe 67c7 54be
000000a0: 507e bfbe 67f5 26be 607a 1fbe 45a8 5fbe
000000b0: 0976 a43c bd6e 9b3d 7010 1dbd 19bb 41bd
000000c0: bbb9 ccbc b655 d5bd c8ae 02be cb12 71bd
000000d0: b825 4b3c 47d0 41bd 7e16 82bd 8e1a 0e3d
000000e0: 8b13 fe3d c9c3 30bd d73f 4e3d 7cd0 383e
000000f0: b46d d5bd 2756 473e 2ab3 b3bb ab2e 193e
00000100: f92b ecbd 01e8 e43d 8afe 863d c624 633e
00000110: 0dc5 04bc 5923 43bd 079e 1cbe 6db2 af3d
00000120: 2a5f 95bd a8a4 8ebd d20d 08bd 4342 033d
00000130: c89e 073e 799c 8f3d 5e71 b4bd 1e26 013e
00000140: ccc2 3cbd 1a72 2fbe d661 54bd 1489 3b3c
00000150: df00 563c aded 593e 1e41 8d3d 7a88 06bd
00000160: 5cf5 273d bcca 653d 893f a53d 4176 bc3d
00000170: c3b3 75bd 2479 07be 3440 a5bd 93fc 74bd
00000180: 2818 123e 519e ebbd ece9 613d a08e 253e
00000190: c59e 86bd 4afb 60bd 4478 df3d 8deb d53d
000001a0: b94c 0a3e 2d8b 39be 1619 593e 6bca 233e
000001b0: 5ccd 953c f8cf d43c 11b3 16bc df25 79bd
000001c0: c2be 63be ff03 36be 16b5 62be 37bd 58be
000001d0: cde5 61be beba 00bd 7485 56bc c0b4 80bd
000001e0: 6e0c d4bd a2e7 77be d7bb 35be 4fc7 2dbe
000001f0: 7ab1 8cbe c468 5fbe 711e 0ebd 0ead 82bd
00000200: ea24 a1bd c01b 4dbe 5494 96be 1161 03be
00000210: 7089 04be 021f 9dbe 382d 01be f196 3e3e
00000220: 3341 503e 26d0 6a3d 3ba7 70bd 1d53 ac3d
00000230: 52c1 d03d d76c 123c d483 813b 87ca a7bc
00000240: dee9 4bbd 8c3c 3b3e a32c 033e 9b8c a8bc
00000250: 5048 40bd 75f3 57bd 3e23 5cbc 34e8 94bd
00000260: 833a b03c 8e79 003e fdc9 acbd bd92 30bd
00000270: 58e7 2f3e 6956 4d3e d50d be3d c1c1 83bd
00000280: 6fad abbd 9e38 08bc 0891 fbbd cd11 3c3e
00000290: a8c7 263e 30c6 b83d d24e 063e a50d 533e
000002a0: 02fa 953b b7e0 7ebd a301 d0bd e764 40bb
000002b0: fc00 43be b350 13be 1385 92bd be6a c13c
000002c0: c4b7 593e 1038 0cbd 898c f23d 0f6a d23c
000002d0: c00a a03d c0a3 57bd a6b0 4dbd eefd 403e
000002e0: ce8a 3a3e dc1a d43d eba7 4a3d 6e3a 1cbd
000002f0: 2112 243e fa2f e53d cdf9 91bd d5b9 4dbd
00000300: ffd0 98bd 2c6d e53c 89c8 2c3c 4c8e 81bd
00000310: c0a1 1abc 84b2 273c f01e a33d 754f c03d
00000320: f58a 383e 7437 463e 1ace cc3c 4445 d43c
00000330: 2aaa 56bd 4fc9 04be 8176 283e 3802 ae3d
00000340: aa9d 5a3e 53c8 153e 3108 3a3e 5327 2f3d
00000350: 4b01 723d 4dbd 10bd c2df 553e b52e b0bd
00000360: 31e9 193e aa74 0ebc eb03 a03d 6596 0b3e
00000370: 56ae 613e e33d 3e3e 93c5 3abc 872d c8bb
00000380: 5ff8 61bd 0617 233b 4879 e13d 9b93 84bd
00000390: ff7f 1c3e e89e 203e 107a 243e 9b1c e33d
000003a0: 9709 b3bc 7591 5fbc 6be0 68bd f5b0 b43d
000003b0: 8b97 293d 322f 3a3c 3c38 d13c 0ca8 ea3d
000003c0: 900c 333e 62f0 453e 9244 f23d d17f 4f3c
000003d0: b256 243d 875f 05be 5c94 223d aea0 6c3e
000003e0: 1d1c bd3d ded7 f0bd bb72 753d 7d21 423b
000003f0: acd0 eb3b df50 043e 491d 1b3e 66e2 3a3e
-0.107917614 0.06822699 -0.118139975 0.032090906 -0.0383287 -0.16792926 0.03556062 0.10548665
0.10439713 0.045328777 0.03903261 0.1605908 0.13814834 0.032160368 -0.017466512 0.066260144
0.086957395 -0.015593377 -0.08428372 0.1652153 -0.023761263 -0.023788502 0.25809315 0.20036569
-0.12657282 0.19223437 0.08764545 -0.18143089 -0.27345833 -0.21619475 -0.32732677 -0.35318458
-0.13585898 0.0030024901 -0.21458468 -0.030137718 -0.05647724 -0.16596378 -0.17086226 -0.20779191
-0.37401056 -0.16304551 -0.15574026 -0.21841533 0.020075815 0.07589481 -0.038345754 -0.04729757
-0.024990907 -0.10416739 -0.12761986 -0.058855813 0.01239913 -0.04731777 -0.06351946 0.034693293
0.12406071 -0.043155465 0.05035385 0.1804828 -0.10421315 0.19466458 -0.0054840045 0.14959209
-0.115318246 0.11177064 0.06591518 0.22181997 -0.008103621 -0.047641132 -0.15294658 0.08578954
-0.07293542 -0.069649994 -0.033216305 0.032045614 0.13244164 0.07012267 -0.088106856 0.12612197
-0.04608421 -0.1713337 -0.051851116 0.011446256 0.013061731 0.21282072 0.06897186 -0.032844998
0.041005477 0.056101546 0.08068759 0.09202243 -0.059985887 -0.13229805 -0.080688864 -0.059811186
0.14267027 -0.11504806 0.055154726 0.16167688 -0.06573252 -0.054927148 0.10911611 0.10445318
0.1350583 -0.18119498 0.21200976 0.15995185 0.0182864 0.025978073 -0.009197966 -0.060827132
-0.22240737 -0.17774962 -0.22139391 -0.2116593 -0.22060318 -0.03142809 -0.013093341 -0.06284475
-0.10353933 -0.24209455 -0.17747436 -0.16970561 -0.27479154 -0.21817309 -0.034697 -0.06380664
-0.07868369 -0.20030117 -0.2941004 -0.12829997 -0.12943053 -0.3068772 -0.12614906 0.18612267
0.20337372 0.057327412 -0.058753233 0.0841429 0.10193123 0.008937082 0.0039524827 -0.020482315
-0.04978358 0.18284816 0.12809996 -0.020574858 -0.046943963 -0.052722413 -0.013436137 -0.07270852
0.021512276 0.1254637 -0.08436964 -0.04310869 0.17178094 0.20052494 0.09279982 -0.0643344
-0.08382689 -0.00831428 -0.12283522 0.18366165 0.162871 0.09022176 0.13116005 0.20610674
0.0045769224 -0.062226024 -0.10156562 -0.0029357017 -0.19043344 -0.14386253 -0.07154288 0.023610469
0.21261507 -0.034233153 0.11843211 0.025685338 0.078145504 -0.0526464 -0.050217293 0.18846866
0.18217012 0.103566855 0.049476545 -0.03814166 0.1602254 0.111907914 -0.07127724 -0.05022605
-0.07461738 0.028006159 0.010545858 -0.06325969 -0.009437978 0.010235433 0.07964885 0.09390155
0.18021758 0.19357091 0.02500062 0.025911935 -0.052408375 -0.12967418 0.16451456 0.08496517
0.21349207 0.14627199 0.18167187 0.042762112 0.059083264 -0.03533678 0.20886138 -0.08602659
0.15030362 -0.008694807 0.07813247 0.1363159 0.2203916 0.18578295 -0.011399644 -0.006108943
-0.055168506 0.002488555 0.11009461 -0.06473466 0.15283202 0.15685618 0.16062188 0.110894404
-0.021855159 -0.0136455195 -0.056854647 0.088228144 0.04140429 0.011363791 0.02553951 0.11457834
0.17485261 0.1932998 0.11829485 0.012664751 0.04012174 -0.13024722 0.039692268 0.2310817
0.09233878 -0.117599234 0.05992387 0.0029622011 0.0071965065 0.12921475 0.1514789 0.18250427

decoder.4.bias f4 [3]
00000000: 308e c9be ec62 36be a219 80be
-0.39366293 -0.17811173 -0.25019556
