results/BaseCAE.pth (torch, 749823 bytes, 12 tensors)

encoder.0.weight f4 [32, 3, 3, 3]
0	0x3e4046af	0.18776964
1	0xbd8c7fae	-0.068602905
2	0xbd4c50be	-0.04988169
3	0x3d5f636f	0.054538187
4	0x3dcac516	0.099008724
5	0x3d9789a9	0.073993035
6	0x3e7883db	0.24269049
7	0xbe122f51	-0.14275862
8	0xbdc01e4c	-0.09380779
9	0xbcf40640	-0.029788136
10	0x3dc6f6a0	0.09715009
11	0xbe070d20	-0.131886
12	0xbd017a23	-0.03161062
13	0xbd2201e7	-0.039552595
14	0xbd96be71	-0.073605426
15	0x3e288a46	0.16458997
16	0xbccbb78c	-0.024867795
17	0xbd85398b	-0.06505116
18	0x3dda793d	0.106676556
19	0xbdf5be6c	-0.11999211
20	0x3d0e875e	0.034797065
21	0x3bc18212	0.005905398
22	0x3d747f08	0.05969146
23	0xbe10df73	-0.14147739
24	0x3de10d83	0.10988905
25	0xbd97d964	-0.07414511
26	0x3de4011a	0.111330226
27	0xbceed823	-0.029155796
28	0xbdfd38a7	-0.12364321
29	0x3e2b8ade	0.16752192
30	0x3e2dc562	0.16969827
31	0xbdf72cb3	-0.120690726
32	0x3d8f0ff4	0.06985465
33	0xbd9b860e	-0.07593928
34	0x3e375038	0.17901695
35	0xbe2e02b0	-0.16993213
36	0x3b07720e	0.0020667347
37	0x3d35bd21	0.04436982
38	0x3d0157b3	0.031577777
39	0x3d4992f9	0.04921243
40	0xbdbc6215	-0.09198395
41	0x3cb234ce	0.021753695
42	0x3c521891	0.01282324
43	0x3e0524d8	0.13002336
44	0x3e3ff1df	0.1874461
45	0x3df74473	0.120736025
46	0xbe18ec52	-0.14933899
47	0x3d5e147c	0.054218754
48	0x3c4ab8bf	0.012373148
49	0x3e1ebb6f	0.15501188
50	0xbe037a53	-0.12839632
51	0x3e09effa	0.1347045
52	0x3d991be4	0.07476023
53	0x3e047628	0.12935698
54	0xbdc2eb54	-0.095175415
55	0x3d707e54	0.058714226
56	0xbda5167a	-0.08060928
57	0xbe386c05	-0.18009956
58	0x3d836b69	0.06416971
59	0x3e30cd89	0.17265905
60	0x3b6a10a5	0.0035715487
61	0xbd3f3838	-0.046684474
62	0x3d9ce648	0.0766111
63	0x3e096384	0.13416868
64	0xbe2f5f18	-0.17126119
65	0x3dd609c9	0.10451085
66	0x3bcdbd19	0.0062786457
67	0x3d476ecb	0.048689645
68	0x3d61c3e2	0.05511845
69	0xb85a26a2	-5.201123e-05
70	0xbdaebfee	-0.085327014
71	0xbdad9c71	-0.084771045
72	0xbc827a93	-0.015927589
73	0x3e1c7d5b	0.15282194
74	0x3e223cb8	0.15843475
75	0xbe011a3c	-0.12607664
76	0xbdc234fe	-0.09482764
77	0xbe1d53c5	-0.15363987
78	0x3da38c13	0.079857014
79	0xbe0b73c6	-0.13618383
80	0xbddf3389	-0.108985014
81	0x3d0e92c8	0.03480795
82	0xbcd742c8	-0.026276961
83	0xbd209c30	-0.039211452
84	0x3e312677	0.1729983
85	0xbe25ddca	-0.16197887
86	0x3bf8db00	0.007594466
87	0x3b9d7cc0	0.004806131
88	0xbd4c2e80	-0.049849033
89	0x3e1a3775	0.15060218
90	0x3d555c6c	0.052090093
91	0xbcc62618	-0.024188086
92	0x3e29a859	0.16568126
93	0xbe18b256	-0.1491178
94	0x3e24eae3	0.16105227
95	0xbdc47614	-0.09592834
96	0x3e3596bf	0.17733286
97	0x3e2d7b07	0.16941462
98	0xbe1414e1	-0.1446109
99	0xbe0b02ae	-0.13575241
100	0xbc611190	-0.013737097
101	0xbe1303e4	-0.14356953
102	0xbd9772f6	-0.07394974
103	0xbda942bd	-0.082646824
104	0xbe0fb8d9	-0.14035358
105	0xbe008f76	-0.12554726
106	0xbe2c053b	-0.1679887
107	0xbe372290	-0.17884278
108	0x3ce6b243	0.028161174
109	0xbcec2efe	-0.028831001
110	0x3d68e643	0.05686022
111	0xbdea7d82	-0.1144972
112	0x3d4f7551	0.05064899
113	0xbcbbfb93	-0.022947108
114	0xbd799a5f	-0.060938235
115	0x3df158c9	0.117845125
116	0xbd7d23c6	-0.061801694
117	0xbdd0b288	-0.10190302
118	0xbe17d13d	-0.14825912
119	0x3db528ee	0.08845697
120	0xbdb0dffc	-0.08636472
121	0xbd5ea8bb	-0.054360133
122	0x3c29ee49	0.010371753
123	0xbda78938	-0.08180469
124	0x3d62c5fe	0.0553646
125	0xbd2521bc	-0.040315375
126	0xbcbf67c8	-0.023364916
127	0x3e0c616e	0.13709041
128	0xbe382b50	-0.17985272
129	0xbe2999c2	-0.1656256
130	0xbdca7473	-0.09885492
131	0x3d3901f0	0.045167863
132	0x3dcaf8ab	0.09910711
133	0x3ced02ce	0.028932001
134	0xbe3da621	-0.18520404
135	0xbbd567ed	-0.006512633
136	0xbe146da4	-0.1449495
137	0x3d4d7474	0.050159886
138	0x3cc33d60	0.023832977
139	0x3d7df01a	0.061996557
140	0x3c828795	0.015933791
141	0x396a18c3	0.00022325203
142	0x3e14360d	0.14473744
143	0x3e155b1b	0.14585535
144	0xbe3eaafe	-0.18619916
145	0x3de78081	0.11303807
146	0x3b865cf0	0.0041004345
147	0x3da30f44	0.07961896
148	0xbd856ef9	-0.06515307
149	0x3da7346d	0.08164296
150	0xbe0834ab	-0.13301341
151	0xbda88ad9	-0.08229608
152	0xbe0659ad	-0.13120146
153	0xbd2b8c82	-0.041882046
154	0xbe12a11d	-0.14319272
155	0x3dc4264c	0.09577617
156	0x3da3fbc7	0.08007007
157	0x3c25283f	0.010080396
158	0x3e4e19e3	0.20127062
159	0x3e4829f1	0.1954725
160	0x3de6d062	0.112702146
161	0x3e48d5e6	0.19612846
162	0x3e3b8a60	0.18314505
163	0xbc32a9fa	-0.010904783
164	0x3e0bb122	0.1364179
165	0xbddeede9	-0.108852215
166	0x3d230014	0.039794996
167	0x3e4bded9	0.19909228
168	0xbdd8d96b	-0.10588344
169	0x3e118e6e	0.14214489
170	0x3d14c9f3	0.036325406
171	0xbe4aed2d	-0.19817038
172	0x3c2966bd	0.010339436
173	0x3b2d7275	0.0026465927
174	0xbd7b65bb	-0.061376315
175	0x3e04a599	0.12953795
176	0xbe2706ef	-0.16311239
177	0x3e20e53b	0.15712444
178	0x3dcd4c85	0.100243606
179	0x3e04fa06	0.12986001
180	0x3df71e08	0.12066275
181	0xbd4f3c41	-0.050594572
182	0x3e2d79e7	0.16941033
183	0xbdc54127	-0.096315674
184	0xbe3b10a7	-0.18268071
185	0xbca8b209	-0.020592706
186	0xbe233b6b	-0.15940635
187	0xbe176f8b	-0.14788644
188	0x3e26688f	0.16250823
189	0x3c6600d6	0.014038285
190	0xbce25551	-0.027628573
191	0xbd15b4f6	-0.03654953
192	0x3e45327b	0.19257538
193	0xbe23e484	-0.1600514
194	0x3da2df27	0.07952719
195	0x3e41d4b8	0.18928802
196	0xbdbf4694	-0.093396336
197	0xba9e6fca	-0.0012087759
198	0x3d3fb764	0.046805754
199	0xbdc89676	-0.09794323
200	0x3dc82cfa	0.097742036
201	0xbd837723	-0.06419208
202	0x3d1284a5	0.03577103
203	0x3e155438	0.14582908
204	0x3e326f1c	0.17425197
205	0xbddd8063	-0.108155034
206	0x3d98b822	0.074569955
207	0xbe144c07	-0.14482127
208	0xbdd5f511	-0.10447133
209	0xbe04f28f	-0.12983154
210	0x3bbbaf69	0.0057276976
211	0x3dd80a62	0.10548855
212	0xbe12eddb	-0.14348547
213	0x3d39733a	0.045275904
214	0x3dddd927	0.10832434
215	0xbd102fa2	-0.035201676
216	0x3e225c13	0.15855436
217	0x3e2ddd62	0.16978982
218	0x3e126a13	0.14298277
219	0xbcea68f3	-0.028614497
220	0xbc4a8685	-0.0123611735
221	0x3d13888d	0.036018897
222	0x3dac83b5	0.084235586
223	0xbdff1c7f	-0.12456607
224	0x3d27090d	0.040780116
225	0x3deb4cdc	0.11489269
226	0x3dc70241	0.09717227
227	0xbe3cbcc8	-0.1843139
228	0xbd164e50	-0.03669578
229	0xbe2ca009	-0.16857924
230	0xbe0caeff	-0.1373863
231	0x3d1a6150	0.03769046
232	0xbda508da	-0.08058329
233	0xbe3bffca	-0.18359295
234	0x3c9babaf	0.019002764
235	0x3e038561	0.12843849
236	0xbdfee677	-0.124463014
237	0x3cf6e567	0.030138684
238	0x3e38d391	0.18049456
239	0xbd53ff3f	-0.051757094
240	0xbde33fbf	-0.11096143
241	0x3d39b0a0	0.04533446
242	0x3cc4876f	0.023990361
243	0xbe07ddbe	-0.13268182
244	0x3d39c7d2	0.04535658
245	0x3e256079	0.16150083
246	0x3d1a4d6a	0.037671484
247	0x3bcd2a89	0.006261174
248	0xbe332756	-0.17495474
249	0xbda26817	-0.0793001
250	0xbd9f6e75	-0.0778474
251	0x3df8429b	0.12122079
252	0x3e0fe9e2	0.14054063
253	0x3e23f17b	0.16010086
254	0x3ca6416d	0.02029487
255	0xbde828ce	-0.11335908

encoder.0.bias f4 [32]
0	0xbc4b798f	-0.012419119
1	0xbaeb9658	-0.0017973883
2	0x3d64e6e7	0.055884268
3	0xbc25d3b0	-0.010121271
4	0x3e4acb6d	0.19804163
5	0xbde6963a	-0.11259122
6	0xb98683a4	-0.00025656552
7	0x3c303053	0.010753709
8	0x3e27f3b5	0.1640156
9	0xbe05e832	-0.13076857
10	0x3dfb9d36	0.12285845
11	0xbe39c949	-0.1814319
12	0x3b5e42b6	0.0033914275
13	0x3e15a231	0.14612652
14	0xbe41d10e	-0.18927404
15	0xbd756765	-0.059913058
16	0x3dcbc50c	0.09949693
17	0xbcdba8e9	-0.026813941
18	0xbcac1229	-0.021004753
19	0x3d34f98b	0.044183295
20	0x3cb84f6d	0.02249881
21	0x3e5441ba	0.20728198
22	0x3e0d8c55	0.13823064
23	0x3e00d7c3	0.12582307
24	0xbe43d596	-0.19124445
25	0x3dfbc7dc	0.122939795
26	0x3e2b44f7	0.16725527
27	0xbe19cc16	-0.15019259
28	0x3e1ca0d6	0.15295729
29	0xbd94970b	-0.07255372
30	0xbbc2606f	-0.005931906
31	0x3dee2d1b	0.11629697

encoder.2.weight f4 [64, 32, 3, 3]
0	0x3d365189	0.04451135
1	0xbd1c6d0c	-0.038189933
2	0xbc79f300	-0.01525569
3	0xbd1735e4	-0.03691663
4	0x3d69ebdf	0.05710971
5	0xbd5a189f	-0.053246137
6	0xbd44da7e	-0.048059933
7	0x3ac38e00	0.0014919639
8	0xbbd67670	-0.0065448806
9	0xbc6a40d8	-0.0142976865
10	0xbd2e0c4d	-0.0424922
11	0x3d2ba95b	0.041909557
12	0x3c43dd04	0.01195455
13	0x3d1e0037	0.038574424
14	0xbc765458	-0.015034758
15	0xbc6ca440	-0.014443457
16	0x3c39897c	0.011324283
17	0xbd68a1c2	-0.05679489
18	0xbcd25438	-0.025674924
19	0x3d56cb93	0.052440237
20	0x3d235913	0.03987987
21	0x3d52e119	0.0514842
22	0x3c6b204c	0.014350962
23	0xbba24968	-0.0049525984
24	0x3d542113	0.051789355
25	0xbd5b94dc	-0.05360876
26	0x3d4115dd	0.04713999
27	0xbbd087f8	-0.006363865
28	0xba356580	-0.0006919727
29	0xbcf41634	-0.029795744
30	0xbd356e4b	-0.044294637
31	0xbd0683e7	-0.032840636
32	0x3d4c0065	0.049805064
33	0xbd3d6ca8	-0.0462462
34	0xbcf54d50	-0.029944092
35	0xbcf19e18	-0.02949433
36	0x3cb1bf96	0.0216978
37	0xbd6708b9	-0.056404803
38	0xbd01d43c	-0.031696543
39	0xbd25b68a	-0.040457286
40	0x3cd70606	0.02624799
41	0xbcb9e528	-0.022692278
42	0xbd6708d6	-0.05640491
43	0xbc8e309e	-0.017357167
44	0xbbf6e0b8	-0.007534113
45	0xbd56df8c	-0.052459285
46	0x3d325a45	0.04354312
47	0xbd58619b	-0.05282746
48	0x3d40d305	0.047076244
49	0xbca56402	-0.020189289
50	0xbd1449b6	-0.03620311
51	0x3cd0df56	0.02549712
52	0x3c9499da	0.018139768
53	0x3d4719a5	0.04860844
54	0x3cbf5726	0.023356985
55	0xbca5ccde	-0.02023929
56	0x3b7b1bd0	0.0038316138
57	0x3cf8c24e	0.03036609
58	0xbca9b804	-0.020717628
59	0x3c59dc84	0.013297204
60	0x3b550670	0.0032505058
61	0x3ca6baba	0.02035271
62	0xbcb97238	-0.022637472
63	0x3cc994f2	0.024607155
64	0xbd4b8e40	-0.049696207
65	0xbd4cf976	-0.050042592
66	0xbd3aae63	-0.045576464
67	0x3d364d03	0.044507038
68	0xbcc3ff00	-0.023925304
69	0xbc5b5800	-0.01338768
70	0xbc2ce130	-0.010551736
71	0x3d46c4db	0.04852758
72	0xbd5a432c	-0.053286716
73	0xbb5b1470	-0.003342893
74	0xbccdc054	-0.025116123
75	0x3d1ecb2f	0.03876799
76	0xbd5ecdea	-0.054395594
77	0xbd3d00b6	-0.046143256
78	0x3c28f2dc	0.010311808
79	0xbbb5eea8	-0.0055521317
80	0x3d6ca2fb	0.057772618
81	0x3c0184b4	0.007905174
82	0xbc414a38	-0.01179748
83	0x3d3233ad	0.043506313
84	0xbd02cb55	-0.031932194
85	0xbd2c8016	-0.04211434
86	0xbca1c4d0	-0.019747168
87	0xbd69b0ac	-0.057053253
88	0xbcde97c0	-0.02717197
89	0xba4f1bc0	-0.00079005584
90	0xbd1bd9eb	-0.03804962
91	0xbd48d6aa	-0.049032845
92	0x3ccf8146	0.025330197
93	0xbd3207ab	-0.043464344
94	0x3d01f1fb	0.03172491
95	0xbc6898f8	-0.014196627
96	0xbd22790c	-0.03966622
97	0x3cc13636	0.02358542
98	0x3ba5d5c8	0.005060885
99	0xbc1269ac	-0.008936327
100	0xbd12146d	-0.03566401
101	0xbcdb3826	-0.026760172
102	0xbcb2b790	-0.021816045
103	0xbd181366	-0.037127875
104	0xbcaedd4c	-0.021345757
105	0x3d41d095	0.04731806
106	0x3cc6197e	0.024182077
107	0xbc875a72	-0.01652262
108	0xb8514c00	-4.9900264e-05
109	0xbd514fe6	-0.051101588
110	0xbd0a01c6	-0.033693098
111	0x3ca52c52	0.020162735
112	0x3d1dca41	0.038522962
113	0x3d5c3e67	0.05377045
114	0x3d1c478b	0.038154166
115	0xbd4c8dc8	-0.0499399
116	0xbd12a348	-0.03580025
117	0xbd39ce45	-0.04536273
118	0xbb10fe30	-0.0022124164
119	0x3c9360ee	0.017990556
120	0xbd5bd415	-0.053669054
121	0x3bdb7a68	0.0066979416
122	0x3d623d4f	0.05523425
123	0x3c9682ba	0.018372882
124	0x3d5409e3	0.05176724
125	0xbc8b20e8	-0.016983464
126	0xbc8c0b10	-0.017095119
127	0xbcfd8170	-0.03094551
128	0xbbe566f0	-0.0070007965
129	0x3ab46c40	0.0013765171
130	0xbc0d5298	-0.008625649
131	0x3d4c40e1	0.04986656
132	0xbd386e12	-0.045026846
133	0xb961be00	-0.00021528453
134	0x3c029efc	0.007972475
135	0x3c80edb6	0.01573835
136	0x3d644997	0.055734243
137	0xbd2c632b	-0.04208676
138	0x3c2ddbec	0.0106115155
139	0xbd223fca	-0.039611615
140	0x3d618a5b	0.055063587
141	0x3caa51aa	0.020790894
142	0xbbc11310	-0.005892165
143	0x3d62836d	0.05530112
144	0xbbc14718	-0.0058983676
145	0x3cd59952	0.026074085
146	0x3cd66216	0.026169818
147	0x3adc4cc0	0.0016807541
148	0x3c7a0264	0.015259359
149	0x3d46788b	0.048454802
150	0xbd60f08a	-0.054916896
151	0x3cb0550a	0.021524925
152	0x3d196673	0.03745122
153	0xbc2c5c2c	-0.010520022
154	0x3a882a80	0.0010388643
155	0xbd0b7775	-0.03404947
156	0xbd3538a1	-0.04424346
157	0xbb5843a0	-0.0032999292
158	0xbd177155	-0.036973316
159	0x3d59e11b	0.053193193
160	0x3d65aff1	0.056075994
161	0xbd26cdea	-0.04072372
162	0x3d61b471	0.055103723
163	0x3d2c57f3	0.042076062
164	0x3d3fd049	0.046829496
165	0x3c4ae554	0.012383778
166	0x3c32ff34	0.010925103
167	0xbd21c686	-0.039495967
168	0xbd26e7d6	-0.04074844
169	0x3cabb812	0.020961795
170	0xbc98fe00	-0.018675804
171	0xbc299578	-0.0103505775
172	0xbcb2d696	-0.021830838
173	0xbbecf3e0	-0.0072312206
174	0xbd370ab1	-0.04468793
175	0xbd170328	-0.036868244
176	0x3ccc5a52	0.024945412
177	0x3af83e80	0.0018939525
178	0xbca7d5b2	-0.02048764
179	0xbd3631c0	-0.04448104
180	0xbce82f75	-0.028342942
181	0x3c81da52	0.015851174
182	0xbccbf3bc	-0.024896495
183	0x3ce37452	0.027765427
184	0x3c1cf9b4	0.009581018
185	0xbaeb0ac0	-0.0017932281
186	0x3d0554d3	0.032551598
187	0xbcc95798	-0.0245779
188	0xbbb01638	-0.0053737424
189	0x3c416fe4	0.011806462
190	0xbd6b09eb	-0.057382505
191	0xbbd057a8	-0.0063581057
192	0x3d4ce5fb	0.050024014
193	0x3d0330e1	0.032029036
194	0xbc391a4c	-0.011297774
195	0x3b392b00	0.002825439
196	0xbd00f7a8	-0.031486183
197	0x3d08a6ef	0.033362325
198	0xbcdbe2c8	-0.026841536
199	0x3cde98fe	0.027172562
200	0x3c8a463e	0.016879197
201	0xbbe247e8	-0.0069055445
202	0x3ce511b6	0.027962547
203	0x3c4dd524	0.012563024
204	0xbd2b0356	-0.04175123
205	0x3bc98788	0.00615019
206	0xbd1fd841	-0.039024595
207	0xbd6be61a	-0.05759249
208	0x3bc41a88	0.005984608
209	0x3c7d886c	0.01547442
210	0xbca8f48e	-0.020624425
211	0xbd375aa8	-0.04476419
212	0xbc721048	-0.01477439
213	0xbcfa02b2	-0.030518863
214	0xbd43cef0	-0.047804773
215	0x3d0d038b	0.034427207
216	0xbd2c3951	-0.04204685
217	0x3d5be049	0.053680692
218	0x3d05397d	0.03252553
219	0x3d2ae45d	0.04172169
220	0x3ca55716	0.020183127
221	0xbd34d5b3	-0.044149112
222	0x3caa7eae	0.020812359
223	0x3c4d73c4	0.012539808
224	0xbd2b007e	-0.041748516
225	0xbd0a80cd	-0.03381424
226	0x3d60a3a7	0.05484357
227	0xbcef6065	-0.02922077
228	0xbcac1d40	-0.021010041
229	0xbc5cd80c	-0.013479244
230	0x3ca40642	0.020022515
231	0xbd33e8f9	-0.043923352
232	0xbcc23bcc	-0.023710154
233	0x3c8f0cde	0.01746219
234	0x3c7e5174	0.01552235
235	0xbd3253ab	-0.043536823
236	0xbd077265	-0.03306808
237	0x3d39164b	0.045187276
238	0xbcb40940	-0.021977067
239	0x3c96cea6	0.018409085
240	0x3d49843d	0.049198378
241	0xbd16dc0f	-0.036830958
242	0x3ce54faa	0.027992088
243	0x3c83d932	0.016094778
244	0x3c3a1654	0.0113578625
245	0xbd6d4f6f	-0.057937082
246	0x3b4fdac0	0.0031716079
247	0xbd4ae493	-0.04953439
248	0xbc813320	-0.015771449
249	0xbd0e42d6	-0.03473171
250	0x3c89fd32	0.016844366
251	0xbcf73853	-0.030178225
252	0x3b34b710	0.0027574934
253	0x3c5ac82c	0.013353389
254	0x3c760a1c	0.015017059
255	0xbcc4fb12	-0.0240455

encoder.2.bias f4 [64]
0	0xbd556fe3	-0.052108657
1	0xbd008f0b	-0.031386416
2	0x3cb1f74e	0.02172437
3	0x3d00da16	0.031457983
4	0x3d817e57	0.063229255
5	0x3d970597	0.07374113
6	0x3d62d61c	0.05537997
7	0xbd550093	-0.0520025
8	0x3c93fbf4	0.018064477
9	0xbc322f70	-0.010875568
10	0x3d9c7fc0	0.07641554
11	0xbc8a5257	-0.016884966
12	0xbd84bd31	-0.06481398
13	0xbc9091d7	-0.017647667
14	0xbce9754a	-0.02849831
15	0x3cc94254	0.02456776
16	0xbbc53513	-0.00601829
17	0xbcd6d9dc	-0.02622693
18	0x3cd69102	0.026192192
19	0x3d93de8d	0.072201826
20	0x3b2e62c6	0.0026609167
21	0x3d1d7212	0.038438864
22	0xbd233fc7	-0.039855745
23	0xbd6c2fa0	-0.057662606
24	0x3d2ffb5b	0.04296432
25	0xbd621b74	-0.055201963
26	0x3d0ce983	0.03440238
27	0x3b5fd516	0.0034154109
28	0xbc22ef5d	-0.009944764
29	0x3d909b24	0.07060841
30	0xbd9130d8	-0.07089394
31	0x3d1f3752	0.038871117
32	0xbd1f0dac	-0.038831398
33	0xbc0c4f06	-0.0085637625
34	0x3b61ceda	0.0034455569
35	0xbd1edb16	-0.038783155
36	0xbd574e22	-0.052564748
37	0x3d9ae5af	0.0756334
38	0x3d31c7cc	0.04340343
39	0x3db19c87	0.08672433
40	0x3d3ccaa5	0.046091694
41	0xbd405a13	-0.0469609
42	0x3c88d919	0.016705083
43	0x3ce15ea9	0.027510958
44	0x3d94e0d0	0.07269442
45	0x3c2021a2	0.009773644
46	0xbd1118ee	-0.035424165
47	0xbc1e2ce6	-0.009654259
48	0x3ba9f65f	0.0051868404
49	0xbcb7ac14	-0.02242092
50	0x3d368d4f	0.044568356
51	0x3cd010da	0.02539866
52	0x3d39e433	0.045383643
53	0x3d14b78e	0.036307864
54	0xbd35d89d	-0.04439603
55	0x3b74b06c	0.00373366
56	0x3cac76b9	0.021052705
57	0x3d94c749	0.07264573
58	0xbd76282f	-0.060096916
59	0x3d94bf1c	0.07263014
60	0x3cb36c95	0.021902362
61	0xbd40e5f4	-0.0470943
62	0xbd887276	-0.06662457
63	0x3d7f29d4	0.06229575

encoder.4.weight f4 [128, 64, 3, 3]
0	0x3c40b564	0.011761997
1	0x3cc3b166	0.023888301
2	0x3d079f3f	0.033110853
3	0x3c091af0	0.008368239
4	0xbce7de2e	-0.028304186
5	0xbd059fb7	-0.03262302
6	0xbc555d3c	-0.013022717
7	0xbcb173ee	-0.021661725
8	0xbcba86f3	-0.022769427
9	0x3c3412fe	0.010990856
10	0xbab70eaa	-0.0013966162
11	0xbb07034d	-0.0020601333
12	0xbc6d1e09	-0.014472493
13	0xbd2a6984	-0.041604534
14	0xbce6590f	-0.028118638
15	0x3cea264f	0.02858272
16	0xbc3b9d31	-0.011451052
17	0x3cc44c74	0.023962237
18	0x3d3c2e43	0.045942556
19	0x3d3289a0	0.04358828
20	0x3c8943c1	0.01675594
21	0x3c830d95	0.015997687
22	0x3d0f45d2	0.034978695
23	0xbd0bcd76	-0.03413149
24	0xbc51acd5	-0.012797554
25	0xbd117e4d	-0.03552084
26	0x3a138eb5	0.000562887
27	0xbbe9c362	-0.007133887
28	0x3cc6677c	0.024219267
29	0xbccb83bb	-0.024843087
30	0xbd201148	-0.03907898
31	0xbc26b856	-0.010175785
32	0xbce2bf92	-0.027679238
33	0xbc565e02	-0.013083937
34	0x3c10f59b	0.008847619
35	0x3cb0782a	0.021541674
36	0x3d6e4518	0.05817136
37	0x3c14c199	0.00907936
38	0x3d5f960e	0.054586463
39	0x3d4e071f	0.05029976
40	0x3d264b44	0.040599123
41	0x3b8da80c	0.0043230113
42	0x3d2d0d61	0.042249087
43	0x3d3c5d52	0.045987435
44	0xbb48e4e6	-0.0030654012
45	0x3d041d80	0.032254696
46	0x3d895776	0.06706135
47	0x3d6e47ab	0.058173817
48	0x3d6d73aa	0.057971634
49	0x3c5c8387	0.013459093
50	0x3d6bca5a	0.057566024
51	0x3ce2f777	0.027705891
52	0x3d0dc194	0.03460844
53	0x3d88cdf7	0.0667991
54	0xbcb699d0	-0.02229014
55	0x3c360473	0.011109459
56	0x3d5a142b	0.05324189
57	0x3d15ec51	0.036602322
58	0x3d884c53	0.06655183
59	0x3b37dfe8	0.0028057043
60	0x3c811ad7	0.015759869
61	0x3cf65a83	0.030072456
62	0x3d3c0f46	0.045913003
63	0x3d221f18	0.039580435
64	0xbd29898a	-0.041390933
65	0xbcfa08ee	-0.030521836
66	0x3c0ee640	0.008721888
67	0x3b4ff86a	0.003173376
68	0x3cbb3cb2	0.02285609
69	0x3c889b65	0.01667566
70	0x3c127dbc	0.00894111
71	0x3d0c22ef	0.034213003
72	0xbca343e2	-0.01992983
73	0x3c904d1e	0.017614897
74	0x3b89b5e5	0.0042025917
75	0x3ceedea6	0.029158901
76	0x3d892034	0.066955954
77	0xbc51cb95	-0.012804885
78	0xbcbab4bb	-0.022791257
79	0x3bc13479	0.005896148
80	0x3c2d0a70	0.0105615705
81	0xbd006ee9	-0.031355772
82	0xbce169dc	-0.027516298
83	0x3b9d98f0	0.0048094913
84	0x3c35c031	0.011093185
85	0xbcaa8df9	-0.020819651
86	0x3d1ff78b	0.039054435
87	0xbc9c8453	-0.019106066
88	0xbcddb664	-0.02706451
89	0x3cfd2732	0.030902479
90	0xb87bde63	-6.0050177e-05
91	0x3d785268	0.060625464
92	0xbc23a5ac	-0.00998823
93	0x3d267f59	0.040648792
94	0x3d883462	0.06650616
95	0x3c838fd5	0.016059795
96	0x3c83f8de	0.01610988
97	0x3c8f50e5	0.017494628
98	0x3beb1e09	0.0071752113
99	0xbbea32b1	-0.007147156
100	0xbd0c45fd	-0.034246434
101	0xbcce22cc	-0.025163077
102	0xbcbd0f27	-0.023078514
103	0x3ccdc2a6	0.02511723
104	0x3ca28c97	0.01984243
105	0xbc52e372	-0.01287161
106	0xbc49a8e5	-0.012308334
107	0xbca6a00c	-0.020339988
108	0xbcc832c4	-0.02443827
109	0x3d073486	0.033009075
110	0xbc4c98e9	-0.0124876285
111	0x3c142669	0.009042361
112	0xbb803821	-0.003912941
113	0xbcb08035	-0.021545509
114	0x3cdcc663	0.026950067
115	0x3cd8be34	0.026457883
116	0x3ce3ea1b	0.027821591
117	0x3be9ac33	0.0071311234
118	0x3d158023	0.036499154
119	0xbc90d4cf	-0.0176796
120	0xbcb0c879	-0.021579968
121	0x3c559717	0.013036511
122	0xbbfedab0	-0.0077775344
123	0x3c8a9e7f	0.01692128
124	0x3d0d610e	0.034516387
125	0x3d16b959	0.036797855
126	0x3d2214bc	0.039570555
127	0xbcb85ae1	-0.022504272
128	0xbcc67371	-0.024224969
129	0xbc8f338d	-0.017480636
130	0xbd114ad4	-0.035471752
131	0x3cc554b1	0.024088236
132	0xbcd398ce	-0.025829699
133	0xbc9844ee	-0.018587556
134	0xbc904a22	-0.017613474
135	0xbbb98e6c	-0.00566273
136	0x3cecb25f	0.028893648
137	0x3d604ed6	0.054762684
138	0x3b0db09e	0.0021620165
139	0x3c725ec4	0.014793102
140	0x3c5a3cee	0.013320191
141	0x3d16051a	0.03662596
142	0x3ada287b	0.0016644144
143	0x3cb51bc2	0.022107963
144	0xbd0bbb21	-0.034114007
145	0xbcb6d790	-0.022319585
146	0x3b9f713d	0.004865794
147	0x3c097c26	0.008391416
148	0xbca2fcb2	-0.019895885
149	0x3c831672	0.016001914
150	0xbd0d16a9	-0.03444544
151	0xbd1c65bc	-0.03818296
152	0xbd0343cd	-0.03204708
153	0xbd1b8071	-0.03796429
154	0xbcb0fec6	-0.02160586
155	0xbd2defe1	-0.042465094
156	0x3c0f15d9	0.008733236
157	0x3ccd5404	0.025064476
158	0x3d1f5c81	0.038906578
159	0x3bff4f41	0.00779143
160	0x3d9a7e8a	0.07543667
161	0xbcc273f3	-0.02373693
162	0x3cdecb8e	0.027196672
163	0x3d24bba4	0.04021801
164	0x3d2d97c5	0.042381067
165	0x3cbf9529	0.023386555
166	0x3cd5ba48	0.026089802
167	0xbcb019f7	-0.021496756
168	0x3d908dde	0.07058309
169	0x3d05562d	0.032552887
170	0xbc9562fc	-0.018235676
171	0x3cd60f17	0.026130242
172	0x3d38fbc2	0.04516197
173	0x3cb3ae39	0.021933662
174	0xbbe68ca1	-0.0070358072
175	0x3d651303	0.055926334
176	0x3cc87f97	0.024474902
177	0x3d805291	0.06265748
178	0xbbbf8145	-0.0058442676
179	0x3c8a6b84	0.01689697
180	0xbc007213	-0.007839697
181	0x3d3ca919	0.0460597
182	0x3ca1041f	0.019655285
183	0x3ce3c74d	0.027804995
184	0x3d72eee6	0.059309863
185	0x3d80631a	0.06268902
186	0x3d96183e	0.073288426
187	0x3c953572	0.018213961
188	0x3d4e811e	0.050416104
189	0x3d525207	0.05134776
190	0x3d44bc2c	0.048031017
191	0x3d2bc81f	0.041938897
192	0x3d88fac5	0.066884555
193	0xbad81d72	-0.0016488268
194	0x3d617f2a	0.055052914
195	0x392e5c46	0.00016628308
196	0xbb7aa433	-0.0038244843
197	0x3d25ead7	0.040507164
198	0xbbbf9d41	-0.0058476035
199	0xbd0549b1	-0.03254098
200	0x3cb96c4e	0.022634652
201	0x3ca3b949	0.019985812
202	0xbc79f036	-0.015255025
203	0x3c877c2c	0.016538702
204	0x3c9e1013	0.019294774
205	0x3a6962ef	0.0008902987
206	0x3d2730da	0.040818073
207	0xbc5b0595	-0.01336803
208	0xbcdad5b1	-0.026713224
209	0x3cbf8bb7	0.02338205
210	0x3bde5ba6	0.0067858277
211	0x3981840e	0.00024703186
212	0x3cecb385	0.028894195
213	0x3c881c2c	0.016614996
214	0x3b103fbf	0.0022010652
215	0x3c019f61	0.007911534
216	0x3d3fa0ea	0.04678432
217	0xbcac5c08	-0.021039978
218	0x3d01d585	0.03169777
219	0x3b951cf1	0.004550569
220	0x3d80cb9f	0.06288838
221	0xbc790c34	-0.015200663
222	0x3d6a4a67	0.05719986
223	0x3d80ddf2	0.06292333
224	0x3c1431fb	0.009045119
225	0x3b5f1386	0.0034038736
226	0xbd214cc5	-0.039379854
227	0x3d126a23	0.03574575
228	0xbd251060	-0.04029882
229	0xbca46aa6	-0.020070385
230	0x3d229769	0.039695177
231	0xbd208a72	-0.03919453
232	0xbc74b857	-0.014936528
233	0xbbc998df	-0.006152257
234	0x3d384388	0.044986278
235	0xbb63ba22	-0.0034748395
236	0x3d15d5eb	0.03658096
237	0x3c1e4d9d	0.009662059
238	0x3ceea7e2	0.029132787
239	0x3cf17353	0.029473936
240	0x3a9aa3ee	0.0011798122
241	0x3d8eb1b8	0.06967491
242	0xbc1c0b36	-0.009524157
243	0x3c92b1f5	0.017907122
244	0xbcadf2dc	-0.021233968
245	0xbcbe0cc7	-0.023199452
246	0x3b252e26	0.0025204509
247	0x3d07c9be	0.03315138
248	0xbcc44688	-0.023959413
249	0x3cce775b	0.025203397
250	0xbb0caee7	-0.0021466555
251	0x3d24c159	0.040223453
252	0x3ca7ec7d	0.020498509
253	0xbc22330a	-0.009899864
254	0xbcc1674e	-0.02360883
255	0x3c08ef82	0.008357884

encoder.4.bias f4 [128]
0	0x3d314bee	0.043285303
1	0x3ab955b2	0.0014139919
2	0x3cf24168	0.029572204
3	0xbbf32cf0	-0.0074211285
4	0x3beddd7f	0.0072590704
5	0xbd0cc221	-0.034364823
6	0x3d75fe3c	0.06005691
7	0xbc469b91	-0.012122051
8	0x3bdc69d9	0.006726485
9	0xbc953d15	-0.018217603
10	0xbc54c8d2	-0.012987332
11	0xbc879f07	-0.016555322
12	0xbccc298b	-0.024922153
13	0xbd148d09	-0.036267314
14	0xbc9cd6b5	-0.019145349
15	0xbce4244e	-0.027849343
16	0x3cd984a5	0.026552508
17	0x3cb596d8	0.022166654
18	0x3c5da8b4	0.0135289915
19	0xba9575bc	-0.0011402885
20	0xbca986d9	-0.020694183
21	0x3d825b6b	0.06365093
22	0xbb18f931	-0.002334189
23	0xbbb25b6a	-0.0054430263
24	0xbca1523a	-0.019692529
25	0xbc9e80d0	-0.019348532
26	0xbd5ee427	-0.0544168
27	0x3c9a83ad	0.018861616
28	0x3c7734dd	0.015088287
29	0xbd073b9c	-0.033015832
30	0xbcc5d6b4	-0.02415023
31	0xbc4de67a	-0.012567157
32	0xbd1dbb83	-0.038508903
33	0x3c02a92d	0.007974905
34	0x3c08008c	0.008300912
35	0x3d5ab70e	0.05339723
36	0xbd14d125	-0.03633227
37	0xbcd3dcb7	-0.025862081
38	0xbcecf806	-0.02892686
39	0xbd1aa79f	-0.037757512
40	0xbca86798	-0.02055721
41	0x3cad92e9	0.021188216
42	0x3c254b6e	0.010088785
43	0xbc89dcd6	-0.016828936
44	0xbbd67e4d	-0.006545818
45	0x3c8e92b3	0.017403936
46	0xbce2749f	-0.0276435
47	0x3b0b17cf	0.0021223908
48	0xbc98eb39	-0.01866685
49	0x3d25ce4c	0.040479943
50	0x3cb259d3	0.021771347
51	0x3cb8e348	0.022569314
52	0xbc098ad6	-0.0083949175
53	0xbc0dd4d7	-0.008656702
54	0xbc85f1f5	-0.016350726
55	0x3c122095	0.008918901
56	0x3c5f58cd	0.013632012
57	0xbd3a12d8	-0.045428127
58	0xbb2e7741	-0.0026621374
59	0x3d057863	0.032585513
60	0xbc97aa5e	-0.018513855
61	0xbd053f38	-0.032530993
62	0x3d1f0961	0.038827304
63	0xbcd718a7	-0.026256872
64	0x3c720f48	0.014774151
65	0x3d75e83a	0.06003592
66	0xbd7cd4cb	-0.061726373
67	0xbc40223c	-0.011726912
68	0xbd74db2b	-0.059779327
69	0x3c5e165d	0.0135551365
70	0x3beefc6d	0.007293275
71	0x3cc98ff8	0.024604782
72	0xbce396eb	-0.027781924
73	0x3b0eaf1e	0.0021771858
74	0x3bf1674f	0.0073670517
75	0x3d260f53	0.040541958
76	0x3d7fbced	0.062436033
77	0x3cd53733	0.026027298
78	0xbd4c0a42	-0.04981447
79	0xbccb53a7	-0.024820162
80	0x3cef8782	0.02923942
81	0xba6e80ec	-0.00090981903
82	0xbd018596	-0.031621538
83	0xbc4eac07	-0.012614257
84	0xbbf0fc8b	-0.007354324
85	0x3c4132c1	0.011791886
86	0x3d62c3a0	0.055362344
87	0x3c56a66c	0.0131012015
88	0x3d66d667	0.056356814
89	0xbcb31d10	-0.021864444
90	0x3aff8fb2	0.0019497781
91	0xbd0ef9d2	-0.034906216
92	0x3d2ee1f6	0.042695962
93	0x3d2a34d3	0.041554283
94	0xb96c6204	-0.00022543228
95	0x3d71e07d	0.05905198
96	0xbcc3abdd	-0.023885662
97	0x3b9c0652	0.0047614956
98	0x3c96dea7	0.018416716
99	0xbbe3c0a3	-0.0069504543
100	0x3d58cd45	0.052930135
101	0x3c0db77b	0.008649702
102	0xbd19e1ac	-0.037568733
103	0x3cd92cc9	0.026510613
104	0x3d03a7de	0.032142513
105	0x3c98909c	0.018623643
106	0xbd372229	-0.044710312
107	0x3d23e174	0.04000993
108	0x3d6a33e7	0.057178404
109	0x3bbd7aee	0.0057824766
110	0xbcdcb1a5	-0.026940176
111	0xbd4d778b	-0.050162833
112	0xbd38874e	-0.04505091
113	0x3cbb7df5	0.02288721
114	0xbc0a2150	-0.008430794
115	0x3cf43713	0.029811418
116	0x3a9ff2cc	0.0012203096
117	0x3d796ada	0.060892917
118	0x3ce756d6	0.028239649
119	0x3d0ebf2e	0.034850292
120	0xbb9594bb	-0.004564849
121	0xbd4d4447	-0.050113942
122	0x3d4beec3	0.049788248
123	0x39641129	0.00021750167
124	0x3d869d6d	0.06572995
125	0x3cb93ab2	0.022610996
126	0x3d523c44	0.051327005
127	0x3d67b8c4	0.05657269

decoder.0.weight f4 [128, 64, 3, 3]
0	0xbd2a93bb	-0.041644793
1	0x3c7ab0e3	0.015300962
2	0xbc4de19d	-0.012565997
3	0xbc042de2	-0.00806758
4	0x3cc051a8	0.023476437
5	0x3d65ec26	0.05613341
6	0xbc79d2e3	-0.015248033
7	0x3d149145	0.036271352
8	0xbcd31cda	-0.025770593
9	0x3c8964b0	0.016771644
10	0xbd25a87a	-0.040443875
11	0xbbcc6378	-0.0062374435
12	0xbd86e42c	-0.06586489
13	0xbd17506e	-0.036941938
14	0xbc21170b	-0.009832154
15	0x3ba38238	0.0049898885
16	0x3c968288	0.018372789
17	0x3c630640	0.013856471
18	0xbcaec314	-0.021333255
19	0xbd0254de	-0.031819217
20	0x3c2f5d4f	0.010703399
21	0x3caf34c0	0.021387458
22	0x3d6f48e5	0.058419127
23	0x3d18c9e5	0.037301917
24	0x3d098e44	0.03358294
25	0xbb16f29b	-0.0023032788
26	0xbc220f60	-0.009891361
27	0xbc25ea3e	-0.0101266485
28	0xbcc6e962	-0.024281207
29	0xbc125869	-0.008932211
30	0xbd7a6d16	-0.06113919
31	0x3c22b298	0.009930275
32	0x3c132095	0.008979936
33	0xbd065df6	-0.032804452
34	0xbd3ae963	-0.04563273
35	0xbcd37069	-0.025810437
36	0x3b817571	0.0039507677
37	0x3c0a8202	0.008453848
38	0xbd129899	-0.03579006
39	0xbd02b417	-0.03191003
40	0xbd4d6fa2	-0.05015529
41	0xbc503544	-0.012708012
42	0xbd4d26a0	-0.050085664
43	0x3be6bc7b	0.0070415116
44	0xbd724f74	-0.059157804
45	0xbd35cbde	-0.044383876
46	0x3c2a17d6	0.0103816595
47	0xbb89fa78	-0.0042107664
48	0x3c67c4b6	0.014146021
49	0x3d8b08a6	0.06788759
50	0xbd01fe2a	-0.03173653
51	0x3cabf2a5	0.020989725
52	0x3c881297	0.016610427
53	0xbb70f459	-0.0036766736
54	0xbcada93d	-0.021198863
55	0xbcf26d6b	-0.02959319
56	0xbd62b7fe	-0.05535125
57	0x3be91864	0.0071135033
58	0xbd305382	-0.04304839
59	0x3cb3f240	0.0219661
60	0xbc435f16	-0.011924526
61	0xbd1f3d93	-0.03887708
62	0xbd1ff27f	-0.03904962
63	0xbcf21040	-0.029548764
64	0xbc5cf7c1	-0.0134868035
65	0x3cec1356	0.028817814
66	0xbb28232e	-0.0025655734
67	0x3da0c689	0.078503676
68	0x3d0f4721	0.034979943
69	0x3d137e94	0.036009386
70	0xbcc1566e	-0.023600783
71	0x3cde6cd0	0.027151495
72	0x3cf33257	0.02968709
73	0xbceaeaea	-0.028676469
74	0xbb9a6853	-0.0047121434
75	0x3d38a439	0.04507849
76	0x3d847640	0.06467867
77	0x3b6a0d2d	0.003571342
78	0xbd1a3536	-0.037648402
79	0xbcdd33a9	-0.027002173
80	0x3cd2b3de	0.025720533
81	0xbd5261c5	-0.05136277
82	0xbcaec276	-0.02133296
83	0xbc672991	-0.014109031
84	0xbc84d8bd	-0.01621663
85	0xbd213a23	-0.039362084
86	0xbcac6ac5	-0.021047005
87	0x3d449b05	0.0479994
88	0xbc779d56	-0.015113195
89	0x3d222fbe	0.03959631
90	0x3d27f3fa	0.04100416
91	0x3cc10909	0.023563879
92	0x3ad38918	0.001613888
93	0xbc9a48c0	-0.018833518
94	0xbc19ad48	-0.009379692
95	0xbd0fafb8	-0.035079688
96	0xbb49cd02	-0.003079236
97	0xbbd05987	-0.0063583287
98	0xbc8cfccd	-0.017210389
99	0xbcfa6ca2	-0.030569378
100	0xbd024f14	-0.031813696
101	0xbc5a1089	-0.013309606
102	0x3c4d0a2f	0.012514635
103	0xbc9e3647	-0.01931299
104	0x3c74353c	0.01490527
105	0xbca8f7ce	-0.020625975
106	0xbbbb2225	-0.0057108575
107	0x3c8fac43	0.017538195
108	0x3c721382	0.014775159
109	0x3ce55b63	0.027997678
110	0xbd769b2f	-0.06020659
111	0xbce6fe71	-0.028197499
112	0x3cd213eb	0.025644263
113	0xbcfe4898	-0.031040475
114	0xbd292300	-0.041293144
115	0xbd2091da	-0.039201595
116	0x39480a7e	0.00019077395
117	0x3ac3b53c	0.0014931331
118	0xbd7dc0b9	-0.061951373
119	0xbcfe8d21	-0.031073155
120	0x3cc024c9	0.02345504
121	0xbd7b25a1	-0.061315183
122	0xbcacbf1e	-0.021087226
123	0xbc04fc7f	-0.00811684
124	0xbd2a3054	-0.041549996
125	0xbb0b3041	-0.0021238478
126	0x3c4a6691	0.012353555
127	0xbd3beef7	-0.04588219
128	0xbc61872a	-0.013765136
129	0xbd667cf0	-0.056271493
130	0xbd4da9b3	-0.050210666
131	0xbd7ec6ac	-0.062201187
132	0xbd82e343	-0.06391003
133	0xbc709991	-0.014685051
134	0xbc1d0943	-0.009584728
135	0xbd174ff2	-0.036941476
136	0x3cd0ee7f	0.025504349
137	0x3d3138b5	0.04326697
138	0x3d6d9165	0.057999987
139	0x3d324bbd	0.04352926
140	0x3d78edb9	0.060773585
141	0xbb716ce8	-0.0036838595
142	0x3c9f3e7b	0.019438973
143	0xbc93b732	-0.01803169
144	0xbb6d225c	-0.003618381
145	0x3d5f509c	0.054520234
146	0x3cf40ce7	0.029791309
147	0x3d064b2f	0.032786544
148	0x3d3a5c10	0.045497954
149	0x3cd5c434	0.026094534
150	0x3c151028	0.00909809
151	0x3c00e0a1	0.007866056
152	0xbc199f26	-0.009376323
153	0xbcbb5779	-0.022868859
154	0xbd2e64de	-0.042576663
155	0xbd264f9e	-0.040603273
156	0xbd49c7f8	-0.04926297
157	0xbc96ed59	-0.018423723
158	0xbd8147b5	-0.06312505
159	0xbd54fc0a	-0.051998176
160	0xbd84e064	-0.064881116
161	0xbb8fcdf2	-0.0043885643
162	0x3b041613	0.0020154759
163	0xbd72939d	-0.059222806
164	0x3b8dcc70	0.0043273494
165	0xbba319a9	-0.004977424
166	0xbbdf21c9	-0.0068094474
167	0xbcd01e01	-0.025404932
168	0xbd1cd286	-0.03828671
169	0xbd62ef3d	-0.055403937
170	0xbd021491	-0.031757895
171	0xbd29cf80	-0.041457653
172	0xbc811690	-0.015757829
173	0x3c620a2c	0.0137963705
174	0x3c84ec16	0.016225856
175	0xbd2a2a8c	-0.041544482
176	0xbd1f7402	-0.038928993
177	0xbc3911e7	-0.011295772
178	0x3c777eb1	0.015105889
179	0xbb2a8574	-0.0026019486
180	0xbd4b14ec	-0.0495805
181	0xbc3bab4c	-0.011454415
182	0xbc55e5a6	-0.013055241
183	0x3b9a64d5	0.004711727
184	0xbd14f4ee	-0.036366396
185	0xbcd3bd65	-0.025847146
186	0x3ca03e37	0.019560916
187	0xbbfb2561	-0.007664368
188	0x3bd9d7b1	0.006648027
189	0xbd42ed87	-0.047589805
190	0x3c31637e	0.010826943
191	0xbd38b1b5	-0.04509135
192	0x3ae6b43f	0.0017601325
193	0x39b8f14c	0.00035274995
194	0xbd1b94b3	-0.037983608
195	0x3c12f1ad	0.008968753
196	0x3b9a911f	0.004717007
197	0xbd1c0bbe	-0.038097136
198	0x3a312538	0.000675756
199	0xbc10f145	-0.008846586
200	0x3ca1a95d	0.019734079
201	0x3c299866	0.010351276
202	0x3c6f2bdf	0.014597862
203	0xbd1ab8b1	-0.03777379
204	0xbcf51b3f	-0.029920219
205	0xbce82b4c	-0.028340958
206	0x3cb378ff	0.021908281
207	0xbd3a6356	-0.04550489
208	0xbc598dc8	-0.013278432
209	0x3cae551d	0.02128082
210	0xbc967107	-0.018364443
211	0xbc141f9a	-0.0090407375
212	0xbcc93325	-0.02456052
213	0xbcd542d3	-0.02603284
214	0xbca99676	-0.020701628
215	0xbc467ab6	-0.0121142175
216	0xbd91ae8a	-0.07113369
217	0xbad12747	-0.001595714
218	0xbd1d56be	-0.038412802
219	0xbd5ac576	-0.05341097
220	0x3c46def8	0.012138121
221	0x3c699e05	0.014258866
222	0xbc65a305	-0.014015918
223	0xbb9d8401	-0.004806996
224	0xbd4068e2	-0.046975024
225	0xbd1626da	-0.036658145
226	0xbcb9bce0	-0.02267307
227	0xbcd77dbb	-0.02630507
228	0xbca9f334	-0.020745851
229	0x3c479705	0.012182002
230	0x3c44d607	0.012013919
231	0xbd6f48bb	-0.05841897
232	0xbd648526	-0.055791043
233	0xbc944e90	-0.018103868
234	0xbd801fce	-0.06256066
235	0xbd07e582	-0.03317786
236	0xbc6f0066	-0.014587497
237	0x3d17f307	0.037097003
238	0x3be1de16	0.00689293
239	0x3d1bf6d8	0.038077205
240	0xbd4c6007	-0.049896266
241	0x3cce8d1a	0.025213767
242	0xbc3219ff	-0.010870456
243	0xbd513b02	-0.051081665
244	0xbd55cf7a	-0.05219982
245	0xbcb750e9	-0.022377448
246	0xbd9307a7	-0.07179194
247	0x3ce18c0a	0.027532596
248	0x3dab2e84	0.083584815
249	0xbd3bbbfd	-0.045833576
250	0x3d6abbab	0.05730788
251	0x3c61f440	0.013791144
252	0xbd05d063	-0.032669436
253	0x3cbc287f	0.022968529
254	0xbc876edd	-0.016532356
255	0xbcfb0868	-0.030643657

decoder.0.bias f4 [64]
0	0x3d92689d	0.0714886
1	0x3b7f8e10	0.0038994588
2	0x3d1fa191	0.03897244
3	0xbbb97be8	-0.0056605227
4	0xbccbd7ad	-0.024883116
5	0x3c0020f7	0.007820359
6	0xbd877f35	-0.0661606
7	0x3cdd86ff	0.02704191
8	0x3d2c50da	0.042069294
9	0xbc7f7d4e	-0.01559384
10	0x3ca21b1d	0.01978832
11	0x3cfda3be	0.030961867
12	0xbcbf3fad	-0.023345793
13	0xbd012122	-0.03152574
14	0xbc841e47	-0.016127719
15	0x3d85169b	0.06498452
16	0x3d4f8cb5	0.050671298
17	0x3bbb49ee	0.0057156
18	0xbcb19ac2	-0.02168024
19	0xbbdf4fdd	-0.0068149404
20	0xbcada957	-0.021198912
21	0xbca64215	-0.020295182
22	0xbd8590a2	-0.06521727
23	0xbd3bf542	-0.045888193
24	0x3c47f412	0.012204187
25	0x3c4d04bf	0.012513339
26	0xbc03a1e9	-0.008034208
27	0xbc732e30	-0.014842555
28	0xbd0fe7c4	-0.03513314
29	0xbc1e7fbb	-0.009674008
30	0x3d82698c	0.06367788
31	0x3d9303d5	0.07178465
32	0xbc5309f7	-0.012880794
33	0x3d1ff1f2	0.039049096
34	0xbd8082cb	-0.06274947
35	0x3c38cefc	0.011279818
36	0x3cd65276	0.026162367
37	0xbc7dcd3d	-0.015490827
38	0x3c677e2e	0.014129205
39	0xbdc79cd0	-0.097467065
40	0x3cd2cc55	0.025732199
41	0x3c17dee4	0.00926945
42	0xbc9b4d7f	-0.018957851
43	0x3d3b8261	0.045778636
44	0xbd69ab34	-0.057048038
45	0x3c38c73a	0.011277968
46	0x3c269ac0	0.010168731
47	0x3c2da024	0.0105972625
48	0x3bce3e6f	0.0062940638
49	0xbbe414f4	-0.0069605056
50	0x3d84e685	0.064892806
51	0xbcb02752	-0.021503124
52	0xbd02b60a	-0.031911887
53	0xbbb04e0b	-0.005380397
54	0x3cc0b102	0.023521904
55	0xbc01f185	-0.007931118
56	0xbd2811f5	-0.04103275
57	0x3c99ee77	0.018790467
58	0x3c387674	0.01125871
59	0xbd34a7f3	-0.04410548
60	0x3d170682	0.03687144
61	0x3c88cd1f	0.016699372
62	0xbc984e9f	-0.018592177
63	0x3d75dc3d	0.06002449

decoder.2.weight f4 [64, 32, 3, 3]
0	0xbd4773a9	-0.048694286
1	0x3c1a0a7a	0.009401912
2	0xbd16a8d3	-0.036782097
3	0xbcfbb10c	-0.030724071
4	0xbaf51321	-0.0018697717
5	0x3d1bf4fb	0.03807543
6	0xbd733fa2	-0.059386857
7	0xbc84f785	-0.016231308
8	0x3d23ab07	0.039958026
9	0xbc1702af	-0.009216948
10	0xbc8008e9	-0.015629249
11	0x3b8db586	0.004324618
12	0xbd3beb87	-0.045878913
13	0xbd014044	-0.03155543
14	0x3cbfd3b0	0.02341637
15	0x3d1737b7	0.03691837
16	0xbc259a9c	-0.0101076625
17	0x3d227016	0.039657675
18	0x3c2321c5	0.009956782
19	0x3d1d318a	0.038377322
20	0xbc096ccf	-0.008387758
21	0x3ce3e6b3	0.027819967
22	0x3d8bd29d	0.06827281
23	0x3da4eacb	0.08052596
24	0xbd07799d	-0.033074964
25	0x3cbec54b	0.023287436
26	0xbd2acdf9	-0.041700337
27	0xbc426891	-0.011865751
28	0x3d2deb0b	0.042460483
29	0x3d356a76	0.044290982
30	0xbcd4f908	-0.025997654
31	0x3b0c9cc0	0.0021455735
32	0xbd4da8c5	-0.05020978
33	0x3c8c831e	0.017152365
34	0xbca4afa7	-0.020103289
35	0xbd16d9ed	-0.036828924
36	0xbd7d3d4b	-0.06182603
37	0xbdb177d7	-0.08665436
38	0xbce2a857	-0.027668161
39	0x3c69815b	0.014252032
40	0x3ce0e987	0.027455105
41	0x3c9c3184	0.01906658
42	0x3c155160	0.00911364
43	0x3cebb345	0.028772006
44	0x3d310107	0.04321387
45	0xbbc5a033	-0.00603106
46	0x3d5bc1a0	0.053651452
47	0xba2f34ee	-0.00066836074
48	0x3ca1478e	0.01968744
49	0x3d04f674	0.0324616
50	0xb9373550	-0.000174721
51	0x3c9ec151	0.01937929
52	0x3b6dfd59	0.0036314337
53	0xbc2375f1	-0.00997685
54	0x3c060ad8	0.008181296
55	0x3d1c80e5	0.03820886
56	0xbbae3948	-0.005316887
57	0x3d7e18ec	0.062035486
58	0x3d88f671	0.0668763
59	0x3dbece82	0.09316732
60	0xbd0bdfcd	-0.03414898
61	0x3d248bbf	0.040172335
62	0x3c9de97f	0.019276379
63	0xbca65067	-0.02030201
64	0x3ca398f3	0.019970393
65	0x3b9a7648	0.0047138073
66	0xbd2838a1	-0.04106963
67	0xbbac8e09	-0.0052659553
68	0x3d3036ff	0.0430212
69	0x3d0059d5	0.03133567
70	0x3ca1eccf	0.01976624
71	0x3cbb2767	0.022845937
72	0xbd1d4493	-0.038395476
73	0xbcf14afe	-0.029454704
74	0x3c8141f0	0.015778512
75	0x3d89f05d	0.06735299
76	0x3d319258	0.043352455
77	0xbb9be9ec	-0.0047581103
78	0xbd6dc73c	-0.058051333
79	0x3d0d1f2a	0.03445355
80	0x3d5cb4c4	0.05388333
81	0x3c90baae	0.01766714
82	0xbcbfed20	-0.0234285
83	0x3cac6af5	0.021047095
84	0x3c96a7ec	0.018390618
85	0x3d231340	0.03981328
86	0x3d2b14b3	0.041767787
87	0x3caaca97	0.020848555
88	0xbac334ab	-0.0014893016
89	0x3da6a786	0.08137421
90	0xbd74ff85	-0.059813995
91	0x3d12e86e	0.035866193
92	0xbce0339f	-0.027368365
93	0x3d14e348	0.036349565
94	0x3c0d6992	0.008631127
95	0x3d46c891	0.04853112
96	0xbd21fa3b	-0.03954528
97	0x3d30747a	0.04307983
98	0xbd31b6b3	-0.043387126
99	0xbd1881ab	-0.037233036
100	0x3d45a733	0.048255157
101	0xbd1c22aa	-0.038118996
102	0x3d6ce657	0.057836857
103	0xbb8460cc	-0.0040398594
104	0xbaeec8fa	-0.0018217855
105	0x3ab5c074	0.001386656
106	0x3d8aa34c	0.06769428
107	0xbd0f106e	-0.034927778
108	0xbb64b906	-0.0034900322
109	0xbd34a157	-0.04409918
110	0xbd1f4629	-0.03888527
111	0xbc41af38	-0.011821561
112	0x3c83a335	0.016069034
113	0x3c30eda0	0.010798842
114	0x3d0be41d	0.034153093
115	0x3d905c4d	0.07048855
116	0x3cad7635	0.02117453
117	0xbd1642c5	-0.03668477
118	0x3d630723	0.055426728
119	0x3d22de68	0.039762884
120	0xbc37c270	-0.011215791
121	0xbc69950d	-0.014256728
122	0x3da2be9d	0.07946513
123	0xbd3bcfa5	-0.045852322
124	0xbd26a904	-0.04068853
125	0xbcda0edf	-0.02661842
126	0x3b485375	0.0030567322
127	0x3c28a286	0.010292655
128	0xbc01782d	-0.007902187
129	0xbd820ce9	-0.06350119
130	0xbcdf9dc3	-0.027296906
131	0x3d3c171a	0.04592047
132	0x3ba47975	0.0050193616
133	0x3d08cd67	0.033399012
134	0x3ce59f48	0.028030053
135	0xbd5b0bb0	-0.053477943
136	0x3cd9a875	0.026569584
137	0xbcc6a79e	-0.024249848
138	0x3d342f7d	0.0439906
139	0x3cc88894	0.024479188
140	0xbcadb19f	-0.02120286
141	0xbd653906	-0.055962585
142	0xbd1b81be	-0.03796553
143	0xbd9180f0	-0.07104671
144	0xbcb2d44f	-0.021829752
145	0x3d2abfc6	0.041686796
146	0xbd1927c1	-0.037391428
147	0x3d1404bd	0.03613733
148	0x3c59f0fe	0.013302086
149	0xbc3caa43	-0.011515203
150	0x3d192302	0.0373869
151	0xbd1a7495	-0.037708838
152	0xbc587da7	-0.013213552
153	0xbd6ddd1f	-0.058072206
154	0x3d00104d	0.031265546
155	0xbcf5299c	-0.029927067
156	0xbd0ce06e	-0.03439372
157	0xbd64d3ca	-0.05586604
158	0x3d48d73a	0.04903338
159	0xbd553743	-0.052054655
160	0xbc222908	-0.009897478
161	0x3d7b6aa2	0.06138099
162	0xbcafb615	-0.021449128
163	0x3a2c5cbc	0.0006575098
164	0xbb69bab9	-0.0035664274
165	0xbc852794	-0.016254224
166	0x3c8e2d45	0.01735557
167	0x3d51ef59	0.05125365
168	0xbd390f17	-0.045180406
169	0xbce0e30e	-0.027452018
170	0xbccd9c00	-0.0250988
171	0xbd5ab39f	-0.053393956
172	0x3bb18290	0.0054171756
173	0x3ca09ef5	0.019607047
174	0xbb68a91c	-0.0035501188
175	0x3cda75da	0.026667524
176	0x3d706194	0.058686808
177	0xbcc7b362	-0.024377529
178	0x3cf3a9bb	0.02974402
179	0xbd34df6c	-0.044158384
180	0xbd525b3f	-0.05135655
181	0x3d1fb778	0.03899333
182	0xbd375ddf	-0.044767257
183	0xbda5751b	-0.08078977
184	0x3af75007	0.0018868454
185	0x3cef9100	0.029243946
186	0x3b9de6a9	0.0048187566
187	0xbcd7dde5	-0.026350925
188	0x3ba74b8e	0.0051054424
189	0x3d12a1ab	0.03579871
190	0xbd397ec2	-0.0452869
191	0xbd1c847a	-0.038212277
192	0x3c68e797	0.014215372
193	0x3c266610	0.0101561695
194	0xbc9fefe9	-0.019523578
195	0xbb4086ad	-0.0029377148
196	0x3d2cefb7	0.042220797
197	0x3cf4532a	0.029824812
198	0xbc4648ab	-0.012102286
199	0x3d00ce57	0.03144678
200	0xbc532a0b	-0.012888442
201	0x3d18f8a4	0.037346497
202	0x3c766adc	0.015040126
203	0x3d3b141a	0.045673467
204	0xbd6ee60c	-0.05832486
205	0xbcfa9c73	-0.030592179
206	0x3de4c7a3	0.1117089
207	0xbd0efeb9	-0.03491089
208	0xbd06afab	-0.032882374
209	0xbd08e72c	-0.033423588
210	0xbd1762c1	-0.036959413
211	0xbdbb2b3f	-0.09139108
212	0xbd32dea8	-0.043669373
213	0x3bb78ea7	0.0056017223
214	0xbd90d01f	-0.07070946
215	0x3d482d2d	0.048871208
216	0xbb5fc180	-0.0034142435
217	0x3d0bc605	0.034124393
218	0x3b40586a	0.0029349574
219	0x3b94d4dc	0.0045419764
220	0x3cff20ec	0.031143628
221	0xbb3197a3	-0.002709844
222	0xbd2f578d	-0.042808104
223	0x3d0bd5d6	0.034139477
224	0x3b98483d	0.0046472833
225	0x3be89bac	0.0070986357
226	0xbd663aac	-0.056208298
227	0xbc51d02e	-0.012805982
228	0xbd446ca4	-0.04795517
229	0xbc14863c	-0.009065207
230	0x3d030ebd	0.031996477
231	0xbd37fd57	-0.044919338
232	0x3b18ba66	0.0023304462
233	0x3c814828	0.015781477
234	0xbcfe3088	-0.031029
235	0xbccff63d	-0.02538597
236	0x3d157a99	0.03649387
237	0x3c079a01	0.0082764635
238	0x3d164709	0.03668884
239	0xbc82edca	-0.015982527
240	0xbce885b0	-0.02838406
241	0x3c57e660	0.013177484
242	0x3d5826ce	0.052771382
243	0xbc62f951	-0.013853387
244	0x3d6c5116	0.057694517
245	0x3d3e009d	0.046387304
246	0x3d629e81	0.055326942
247	0x3bbd5b2d	0.0057786913
248	0x3d8d45f6	0.068981096
249	0x3cce2cb5	0.025167802
250	0x3b6ecf75	0.0036439572
251	0x3c9d2ec7	0.019187344
252	0x3d4d3182	0.050096042
253	0x3d19fa30	0.037592113
254	0xbcf180f3	-0.029480433
255	0x3d62b6ab	0.055349987

decoder.2.bias f4 [32]
0	0xbd4e25e0	-0.05032909
1	0xbc310346	-0.010804003
2	0x3cbcfb71	0.023069115
3	0x3cf98dad	0.030463064
4	0xbcecf98a	-0.028927583
5	0x3c8673ab	0.016412577
6	0x3d0e3126	0.03471484
7	0x3cc588d7	0.024113102
8	0xba482b21	-0.0007635821
9	0x3cb91d66	0.022597026
10	0x3c081cc4	0.0083076395
11	0xbc15b98a	-0.009138474
12	0x3d160a0b	0.03663067
13	0x3c03ad0c	0.008036863
14	0x3c2cd5d2	0.010549026
15	0xbc416470	-0.011803731
16	0x3d889998	0.06669921
17	0xbd0779b7	-0.03307506
18	0x3c948793	0.018131053
19	0x3d4fa64e	0.05069571
20	0xbd8c0f21	-0.06838823
21	0x3d0ed35c	0.034869537
22	0xbce9c3e2	-0.028535787
23	0xbe134995	-0.14383538
24	0x3cca787c	0.024715655
25	0xbae08b7d	-0.0017131414
26	0xbcd7fa75	-0.026364544
27	0xbc280fc4	-0.010257665
28	0x3bae1e4c	0.0053136703
29	0x3d441f3a	0.047881342
30	0x3da03811	0.07823194
31	0x3d83fe5a	0.06444998

decoder.4.weight f4 [32, 3, 3, 3]
0	0xbcc45da0	-0.023970425
1	0xbd443e9c	-0.04791127
2	0xbd933724	-0.071882516
3	0xbe0b5458	-0.13606393
4	0xbdb3c3a9	-0.087775536
5	0xbdc586ec	-0.09644875
6	0xbd9a943c	-0.07547805
7	0xbe491093	-0.19635229
8	0x3dc55d7a	0.0963697
9	0x3ced52ce	0.028970148
10	0xbd73e693	-0.059546065
11	0x3e0583d9	0.13038577
12	0xbe44d225	-0.19220789
13	0xbe362484	-0.17787367
14	0x3ce2d2a3	0.02768833
15	0x3da089ab	0.07838758
16	0xbb4abbb2	-0.003093463
17	0x3e3122b9	0.17298402
18	0x3e1808ac	0.14847058
19	0x3dd75987	0.10515123
20	0xbda5c372	-0.08093919
21	0x3b923665	0.0044620507
22	0x3c94d196	0.018166345
23	0xbdf24b4a	-0.118307665
24	0x3df0999e	0.1174805
25	0xbd50b4d6	-0.05095371
26	0x3c73f0cd	0.014888954
27	0x3b106f02	0.0022038822
28	0x3e0dd07d	0.13849063
29	0x3d321310	0.04347521
30	0x3d404375	0.046939332
31	0xbb833950	-0.004004635
32	0xbdf89c5a	-0.12139197
33	0x3d43a904	0.047768608
34	0xba51f0e9	-0.00080086157
35	0x3e15026c	0.14551705
36	0x3cfde7e8	0.03099437
37	0xbceb2b89	-0.028707283
38	0x3d01740a	0.031604804
39	0x3dd332b3	0.103124045
40	0xbdfedbaf	-0.12444245
41	0xbc35862d	-0.011079353
42	0xbc123e5d	-0.008926001
43	0x3e12e57a	0.14345351
44	0x3dcf4b9e	0.10121845
45	0x3d83f1e7	0.064426236
46	0xbd5767c0	-0.052589178
47	0x3e3e77a4	0.18600327
48	0x3e0db4a9	0.13838448
49	0x3e1b7714	0.15182143
50	0x3ddd6345	0.1080995
51	0xbe2c9fb4	-0.16857797
52	0xbe1bf4f9	-0.15230168
53	0xbe1da44e	-0.15394709
54	0xbdfbc56b	-0.12293514
55	0x3e1ac605	0.15114601
56	0x3dee8432	0.11646308
57	0xbe0716c3	-0.13192277
58	0x3da561c5	0.08075289
59	0xbc2bf302	-0.010494949
60	0x3d987233	0.07443657
61	0xbd048ab1	-0.03235883
62	0xbd9b07d2	-0.07569851
63	0x3e258d6e	0.16167232
64	0xbc141303	-0.009037736
65	0x3e1d9b0e	0.1539118
66	0x3cac6e1f	0.021048604
67	0xbcad655d	-0.021166498
68	0xbe124959	-0.14285792
69	0xbda50832	-0.08058204
70	0xbe5a6571	-0.2132776
71	0x3e3a9579	0.18221082
72	0x3e0e8dee	0.1392133
73	0xbda18ebf	-0.07888555
74	0x3b8bba79	0.0042641726
75	0xbe2f1e24	-0.17101341
76	0xbe462bb2	-0.19352606
77	0xbd98c74d	-0.074598886
78	0x3daf93a1	0.0857308
79	0xbe439a97	-0.1910194
80	0x3df554e1	0.1197908
81	0x3e395602	0.18099216
82	0xbdb64f5d	-0.08901856
83	0xbd2f545e	-0.04280507
84	0xbdc95242	-0.098301426
85	0xbca1ff14	-0.019774951
86	0x3e201487	0.1563283
87	0x3e2eac4b	0.17057912
88	0x3d5e22e8	0.054232508
89	0x3d789069	0.060684595
90	0x3d98bb44	0.07457593
91	0x3cedb81d	0.029018456
92	0x3e0cedbb	0.13762562
93	0x3e323ebf	0.17406748
94	0xbbbf5c7d	-0.005839883
95	0xbd192157	-0.03738531
96	0xbd7ea2c8	-0.06216696
97	0x3de9bffa	0.1141357
98	0xbca0b9ba	-0.019619811
99	0x3e2357fa	0.15951529
100	0x3dce0fb0	0.10061586
101	0xbdea72d5	-0.11447684
102	0xbe005962	-0.12534097
103	0xbe17114f	-0.14752696
104	0x3bd68cf4	0.0065475646
105	0xbda6142d	-0.08109317
106	0xbe26f72f	-0.1630523
107	0xbd1b4c9c	-0.037914857
108	0xbde8072f	-0.11329495
109	0x3b47c6e7	0.0030483545
110	0xbe1d28fb	-0.15347664
111	0x3c2f1611	0.010686413
112	0x3d295eb8	0.041350096
113	0xbe689b1d	-0.22715421
114	0x3c73c2c6	0.014877981
115	0xbd0447d1	-0.032295052
116	0xbdb9b936	-0.09068529
117	0x3aafcedf	0.0013413093
118	0x3bcce1c9	0.0062525016
119	0xbb73b1e1	-0.0037184882
120	0x3ba2f788	0.0049733557
121	0x3ad78d06	0.0016445227
122	0xbdfa47fb	-0.122207604
123	0x3de90df7	0.11379617
124	0x3e20e120	0.15710878
125	0x3dd250ff	0.10269355
126	0xbe00a262	-0.12561944
127	0x3e476390	0.19471574
128	0xbe2201d0	-0.15821004
129	0xbe164c7b	-0.14677612
130	0x3b5ab887	0.0033374147
131	0xbdce3a64	-0.10069731
132	0x3ce5e8f0	0.028065175
133	0x3d247760	0.040152907
134	0x3bd59937	0.006518509
135	0xbe2442d0	-0.16041112
136	0xbe4e334a	-0.20136753
137	0xbd632a64	-0.05546035
138	0x3d615188	0.055009395
139	0xbd81b4cd	-0.06333313
140	0x3dbdb5a7	0.09263163
141	0xbd2a4394	-0.041568354
142	0x3d915a38	0.07097286
143	0xbe4fe01b	-0.20300333
144	0xbdb98277	-0.09058087
145	0xbcf32b3a	-0.029683698
146	0xbe36edaa	-0.17864099
147	0xbe23ea70	-0.160074
148	0xbe0831a3	-0.13300185
149	0xbd26e007	-0.040740993
150	0xbcd0c762	-0.025485698
151	0xbc399d86	-0.01132906
152	0xbe28b102	-0.16473773
153	0x3d8c4fc1	0.06851149
154	0xbcfbcefd	-0.030738348
155	0x3e049715	0.12948258
156	0x3c841176	0.016121607
157	0x3d9fec3c	0.0780873
158	0x3dc7f752	0.097639695
159	0xbe329e7b	-0.17443268
160	0xbe0fd009	-0.14044203
161	0xbcd31e4b	-0.02577128
162	0x3ddf058a	0.10889728
163	0xbd74f654	-0.05980523
164	0x3ccb539b	0.02482014
165	0x3e384936	0.17996678
166	0x3e4d077f	0.20022391
167	0x3e006c3d	0.1254129
168	0xbd5f39b4	-0.05449839
169	0x3d4a697d	0.049417008
170	0xbd657a98	-0.056025118
171	0x3df0e13c	0.1176171
172	0x3e3714f3	0.17879085
173	0x3dfaf774	0.12254229
174	0x3d980dd5	0.07424513
175	0x3deb8631	0.11500204
176	0x3e2c19a3	0.16806655
177	0xbdb63a49	-0.08897836
178	0xbdc73934	-0.097277075
179	0x3dac4717	0.08411997
180	0xbb2edaa5	-0.0026680615
181	0xbddf3ae9	-0.10899908
182	0xbe0076fb	-0.12545387
183	0x3daeea47	0.085407786
184	0x3e811250	0.25209284
185	0x3e49e893	0.19717626
186	0x3d5bf662	0.053701766
187	0x3be4ef13	0.0069865077
188	0x3de4056b	0.11133846
189	0x3e184006	0.14868173
190	0x3de1bd9e	0.11022495
191	0x3c9192f6	0.017770272
192	0x3d253f59	0.040343616
193	0x3c4bebb3	0.012446332
194	0x3e22d76b	0.15902488
195	0x3e0239c4	0.12717348
196	0xbdef454e	-0.11683141
197	0x3e2573ac	0.16157407
198	0xbcb8b42e	-0.022546854
199	0xbd903367	-0.07041054
200	0x3df7c57b	0.12098213
201	0x3e0c9325	0.13728006
202	0xbdb2b3c6	-0.08725695
203	0x3e3f0d2f	0.18657373
204	0x3cd5af60	0.026084602
205	0x3c890136	0.01672421
206	0xbe234467	-0.15944062
207	0x3d12a44a	0.03580121
208	0xbc0d692c	-0.008631032
209	0x3e169d16	0.14708361
210	0xbdc10c71	-0.09426201
211	0x3e56f881	0.20993234
212	0xbd1a501f	-0.037674066
213	0xbd67b451	-0.056568448
214	0x3d296151	0.041352574
215	0xbe1168f3	-0.14200191
216	0xbdd9bcfe	-0.106317505
217	0x3df6f569	0.12058527
218	0x3e3dc64b	0.18532674
219	0x3dcd4e10	0.10024655
220	0x3a5c0da5	0.0008394367
221	0xbd278002	-0.040893562
222	0xbcc5a741	-0.024127604
223	0x3b84f395	0.0040573576
224	0x3dfc3348	0.123144686
225	0x3e26d2d5	0.16291364
226	0x3e2e96a9	0.1704966
227	0x3d9d1345	0.07669691
228	0xbdf1061c	-0.117687434
229	0xbde5ece3	-0.11226823
230	0xbc55e2b5	-0.013054539
231	0xbd272883	-0.04081012
232	0x3e325c40	0.17418003
233	0x3dd02c0d	0.10164652
234	0xbe1e5adf	-0.15464352
235	0x3e23f2f1	0.16010644
236	0x3aa18364	0.0012322483
237	0x3e015522	0.12630132
238	0x3c866080	0.016403437
239	0x3e35e52d	0.17763205
240	0x3d7ff3c4	0.062488332
241	0x3e4e796f	0.2016351
242	0xbd87449b	-0.06604882
243	0xbdaace23	-0.08340099
244	0xbd8ff778	-0.07029623
245	0x3cc6ac98	0.024252221
246	0x3d1de14d	0.03854494
247	0x3e279c77	0.1636828
248	0x3c03cbb3	0.008044171
249	0x3e20537e	0.1565685
250	0x3e3b7b2e	0.18308708
251	0x3d387888	0.045036823
252	0x3e30a881	0.17251779
253	0x3d31af95	0.04338034
254	0xbd0794a6	-0.033100747
255	0x3e0e50b2	0.1389797

decoder.4.bias f4 [3]
0	0xbd8725a1	-0.06598974
1	0x3c4fb60b	0.01267768
2	0x3dd4717a	0.103732064
