results/BaseCAE_Adam_best.pth (torch, 750579 bytes, 12 tensors)

encoder.0.weight f4 [32, 3, 3, 3]
0	0xbdf510cd	-0.11966095
1	0x3c6fbca6	0.01463238
2	0xbe392686	-0.18081102
3	0x3dfb58a3	0.122727655
4	0x3d5c7a64	0.05382766
5	0xbdba7e7f	-0.091061585
6	0xbcc1ebcb	-0.023672005
7	0xbdbd3153	-0.092379235
8	0xbdb822ac	-0.08990988
9	0x3e23968a	0.15975395
10	0xbe39590e	-0.18100378
11	0xbd2b00d9	-0.041748855
12	0x3d5f1350	0.054461777
13	0x3e01fc92	0.12694004
14	0xbe288fb7	-0.16461073
15	0xbdb7aef2	-0.08968915
16	0xbd5e4267	-0.054262545
17	0x3e290f40	0.16509724
18	0x3d1ee05f	0.038788196
19	0xbcd41d2e	-0.02589282
20	0x3d194243	0.037416708
21	0xbe3a5163	-0.18195109
22	0x3e2a92ba	0.16657534
23	0xbe02a54c	-0.12758368
24	0x3e31d5b6	0.1736668
25	0x3e1a28eb	0.15054671
26	0x3dc202ce	0.09473191
27	0x3d9c3c32	0.07628669
28	0x3c329d70	0.010901794
29	0x3c59c510	0.013291612
30	0xbdda2e18	-0.10653323
31	0x3c0067a0	0.007837206
32	0xbdc268cf	-0.09492647
33	0xbddf75a2	-0.109111086
34	0xbe23c508	-0.1599313
35	0xbdab01b4	-0.08349934
36	0xbe2d4842	-0.16922095
37	0x3d599760	0.053122878
38	0x3d96839a	0.0734932
39	0x3de72a6a	0.11287387
40	0x3e3996e1	0.18123962
41	0xbde6df84	-0.11273101
42	0x3e390779	0.18069257
43	0xbe2dd687	-0.16976367
44	0xbe25b643	-0.16182809
45	0xbc7df380	-0.015499949
46	0x3d4744c0	0.04864955
47	0xbe21b876	-0.15793023
48	0xbe020723	-0.12698035
49	0x3cafbd30	0.021452516
50	0xbe0a64ca	-0.1351501
51	0xbe0e53d0	-0.1389916
52	0x3d050de8	0.032483965
53	0xbde95a5c	-0.11394188
54	0xbe047bf1	-0.12937905
55	0x3d78de42	0.060758837
56	0x3e1a9423	0.15095572
57	0x3e3d98ee	0.1851537
58	0x3e0777b6	0.1322926
59	0xbde36ba3	-0.111045144
60	0x3e040b19	0.12894858
61	0x3e5a29e8	0.21305048
62	0x3cf2f656	0.029658478
63	0x3e2f2109	0.17102446
64	0x3e2723de	0.16322276
65	0xbe16cee3	-0.14727359
66	0x3e36bd0c	0.17845553
67	0xbdce9574	-0.100871
68	0xbe13c9c8	-0.14432442
69	0x3cfd0029	0.030883865
70	0x3dc19df4	0.09453955
71	0xbde38b7f	-0.11110591
72	0x3e430dfa	0.190483
73	0x3de226fe	0.110425934
74	0x3da7a77c	0.08186242
75	0xbd9fefec	-0.07809433
76	0x3e59e950	0.21280408
77	0xb8b80404	-8.774552e-05
78	0xbd78eee4	-0.0607747
79	0xbc755ea4	-0.014976177
80	0x3e01a7d1	0.12661673
81	0xbe2091c6	-0.15680608
82	0x3e3dbaeb	0.18528335
83	0x3d815afe	0.063161835
84	0xbe19511a	-0.14972344
85	0xbda5b4a1	-0.08091093
86	0x3dd99dbe	0.1062579
87	0xbde81866	-0.11332779
88	0xbe03db8b	-0.12876718
89	0x3e232aee	0.15934345
90	0x3d88df4b	0.06683215
91	0xbe4067f3	-0.18789653
92	0xbe40ba34	-0.18821031
93	0xbe1f44f1	-0.15553643
94	0x3e17eb71	0.14835908
95	0x3b377bc9	0.0027997366
96	0xbe403202	-0.18769076
97	0xbde57a60	-0.11204982
98	0x3e0eeca5	0.1395746
99	0xbe225e1e	-0.15856215
100	0xbce2fc27	-0.027708126
101	0xbcbc5de6	-0.022993993
102	0xbdb18a83	-0.08668997
103	0x3e1c5563	0.15266947
104	0xbc0a1a0a	-0.00842906
105	0xbe178506	-0.14796838
106	0xbda93d7f	-0.082636826
107	0xbe3f9f04	-0.18713003
108	0x3d92f7f5	0.071762
109	0x3e3fc5c4	0.18727785
110	0xbde307e1	-0.11085487
111	0x395e636e	0.0002120861
112	0xbe1aea73	-0.15128498
113	0xbdbbdadd	-0.09172604
114	0x3e4022e7	0.18763314
115	0x3e004a7b	0.12528412
116	0x3dd85ee2	0.105649725
117	0xbcd5b071	-0.02608511
118	0x3ca6057b	0.020266285
119	0xbde71a5c	-0.112843245
120	0x3d9ea1b7	0.077456884
121	0xbe353620	-0.17696428
122	0x3e2b7020	0.16741991
123	0xbe22219d	-0.15833135
124	0x3db6d78f	0.08927833
125	0xbdeba615	-0.11506287
126	0x3dc5d163	0.09659078
127	0xbce268e0	-0.027637899
128	0x3ce483df	0.027894912
129	0x3df23f4a	0.11828478
130	0x3e066319	0.1312374
131	0xbe1fda57	-0.15610634
132	0xbde7fd99	-0.11327667
133	0xbcc598a5	-0.024120638
134	0xbdac4ddc	-0.08413288
135	0x3e18e4bd	0.14931007
136	0xbc95c6d6	-0.018283289
137	0x3e3d67b3	0.1849659
138	0x3e24c8b0	0.16092181
139	0x3d535d29	0.051602516
140	0x3e4ec66d	0.20192881
141	0xbd1afa68	-0.037836462
142	0xbb72cc0b	-0.0037047889
143	0xbd34daf9	-0.04415414
144	0xbcba4402	-0.022737507
145	0x3e26fe75	0.16308005
146	0xbb35b753	-0.0027727678
147	0xbe257f24	-0.16161782
148	0x3b85e522	0.0040861527
149	0x3e2c54f8	0.16829288
150	0xbdd4cc3a	-0.103905156
151	0x3ca2abbb	0.019857278
152	0x3e2124db	0.15736715
153	0xbdaa97c3	-0.083297275
154	0x3e3b9d31	0.18321683
155	0x3ce37020	0.027763426
156	0xbdc55d82	-0.09636976
157	0xbdedd5ec	-0.11613068
158	0x3e38dbd0	0.18052602
159	0xbdbe1449	-0.09281213
160	0xbd8c2864	-0.068436414
161	0x3df3dc95	0.11907307
162	0xbd3bc85d	-0.04584538
163	0xbc0bd2fa	-0.008534187
164	0x3dfb195d	0.12260697
165	0xbe310d4d	-0.1729023
166	0x3cc40f4a	0.023933072
167	0xbdacfdbb	-0.08446833
168	0x3e2d45c8	0.1692115
169	0xbd9a9995	-0.07548825
170	0x3e4ac608	0.19802105
171	0x3e068629	0.13137116
172	0x3e03ca84	0.12870222
173	0x3e0937e3	0.13400225
174	0xbde669f0	-0.11250675
175	0x3da10492	0.078622
176	0x3e0e1126	0.13873729
177	0x3e46917b	0.19391434
178	0x3dc976d5	0.098371185
179	0xbcf43e0d	-0.029814744
180	0x3d212b49	0.03934792
181	0x3d931866	0.07182388
182	0xbe2169e7	-0.15763055
183	0x3e136e13	0.14397459
184	0x3e47dee2	0.19518617
185	0x3c074aa5	0.008257543
186	0xbdf42b60	-0.119223356
187	0xbb1cd108	-0.0023928303
188	0x39c33c88	0.00037238398
189	0xbe3948e8	-0.18094218
190	0xbdd5f75e	-0.10447572
191	0x3e23a3a2	0.1598039
192	0x3c45968f	0.012059822
193	0x3ddb257b	0.10700508
194	0xbd13a4be	-0.036045782
195	0x3cd6b67b	0.02621006
196	0x3e478c37	0.19487081
197	0xbe2533ca	-0.16133037
198	0xbe3b7307	-0.18305598
199	0x3d597d59	0.053098056
200	0x3b473464	0.0030396217
201	0x3db50fde	0.08840917
202	0x3e0f2dcc	0.13982314
203	0x3daee2d9	0.085393615
204	0xbd8580d4	-0.06518713
205	0xbe232764	-0.15932995
206	0x3d0d838c	0.03454928
207	0x3ac19190	0.0014768112
208	0xbd3c46cf	-0.045965966
209	0x3dbe9c77	0.09307187
210	0xbe114b3a	-0.14188853
211	0x3cfb261b	0.030657819
212	0xbde0a4b1	-0.109689124
213	0x3d99b6c5	0.07505564
214	0xbd61d867	-0.055138018
215	0x3e073c06	0.13206491
216	0x3cb9efeb	0.02269741
217	0x3c85b656	0.016322296
218	0x3d4f7fc1	0.050658945
219	0xbda234ff	-0.079202645
220	0x3db634d3	0.08896794
221	0xbd3a2f3d	-0.045455206
222	0x3e4c71ef	0.19965337
223	0x3cf5bd4d	0.029997492
224	0x3e3f8e29	0.18706574
225	0x3b85d74d	0.0040845037
226	0x3e556100	0.20837784
227	0xbe2df129	-0.16986527
228	0x3e45b730	0.19308162
229	0xbe2afd17	-0.16698109
230	0xbcf2ce53	-0.029639399
231	0x3df622ed	0.1201838
232	0x3db466db	0.088086806
233	0x3dee424f	0.11633741
234	0x3dc37ff7	0.09545892
235	0x3e48da6c	0.19614571
236	0xbe0bbfa8	-0.1364733
237	0x3d7aaf9e	0.061202638
238	0xbde05c6a	-0.109551266
239	0x3e464e05	0.193657
240	0xbc5142ab	-0.012772243
241	0x3e14bce2	0.14525178
242	0xbd9ec79f	-0.077529185
243	0x3e054376	0.13014016
244	0x3e2df87f	0.16989325
245	0x3d674cb7	0.056469645
246	0x3df666cc	0.12031326
247	0xbb9d5bf6	-0.0048022224
248	0xbe1841c1	-0.14868833
249	0x3e3a61c0	0.18201351
250	0x3e380aa2	0.17972806
251	0xbd84f39b	-0.064917766
252	0x3e14ef20	0.14544344
253	0xbe2a1e31	-0.1661308
254	0x3c9a56b5	0.018840173
255	0x3e341f8e	0.17590162

encoder.0.bias f4 [32]
0	0x3e06d5f5	0.13167556
1	0xbe31fd2e	-0.17381737
2	0x3e40fbc1	0.18846036
3	0xbdc77e62	-0.097409025
4	0x3d43adbe	0.047773115
5	0x3e02f3e4	0.1278835
6	0xbe1fcf81	-0.156065
7	0x3e33b9a2	0.17551282
8	0x3d30a705	0.043128032
9	0xbe100a69	-0.14066471
10	0xbd9601af	-0.0732454
11	0xbd2f1048	-0.042740136
12	0xbe11baa4	-0.14231354
13	0xbd4e43f8	-0.05035779
14	0x3c4cbc83	0.012496117
15	0x3d505f3f	0.050872084
16	0x3e4e56b4	0.20150262
17	0xbcc1c7a9	-0.023654776
18	0x3e05e17b	0.13074295
19	0x3c4838c5	0.012220566
20	0x3e0ed076	0.13946709
21	0xbdbeb64d	-0.09312115
22	0xbd849e7c	-0.06475541
23	0xbe10c90b	-0.14139192
24	0xbdcd10b9	-0.10012955
25	0x3e48c749	0.19607271
26	0x3e007bc9	0.1254722
27	0x3d4e7b54	0.050410584
28	0xbdb34110	-0.08752644
29	0xbe233e75	-0.15941794
30	0x3c763473	0.015027153
31	0x3d767763	0.06017245

encoder.2.weight f4 [64, 32, 3, 3]
0	0x3d0cf28f	0.03441101
1	0xbd53e2c7	-0.051729944
2	0xbd1bd4aa	-0.03804461
3	0x3d1e6065	0.038666148
4	0xbcae415e	-0.021271404
5	0xbd1c4c7e	-0.038158886
6	0xbc025879	-0.007955664
7	0xbd69e3bc	-0.05710195
8	0xbcd738d3	-0.026272213
9	0xbd2062ec	-0.03915684
10	0xbd0a8e06	-0.03382685
11	0x3d47baf7	0.048762288
12	0xbd514543	-0.051091444
13	0xbd28091d	-0.041024316
14	0x3d687ff3	0.056762647
15	0xbd56191f	-0.05227005
16	0xbd21887b	-0.0394368
17	0xbcdcc136	-0.026947599
18	0xbd3edb58	-0.0465959
19	0x3d0eaa44	0.034830347
20	0xbd414bd3	-0.047191452
21	0x3d349780	0.044089794
22	0x3c8364c4	0.01603926
23	0xbc9619bd	-0.01832282
24	0x3d5871f0	0.052843034
25	0x3a0b1ad4	0.0005306427
26	0xbba859c8	-0.005137656
27	0x3d50da63	0.05098952
28	0xbcb718c0	-0.022350669
29	0xbbd9030a	-0.0066226767
30	0xbd56d989	-0.05245355
31	0xbd320ce7	-0.043469336
32	0xbc0fa0a4	-0.008766327
33	0x3c4f561c	0.012654807
34	0xbcc23dea	-0.023711164
35	0xbd3e9876	-0.046532117
36	0xbd1b49f4	-0.037912324
37	0xbc544171	-0.012955056
38	0xbd056df6	-0.03257557
39	0x3c3d75c9	0.011563727
40	0xbcc5ad6b	-0.024130544
41	0x3ca53319	0.020165967
42	0x3d4cd3eb	0.05000679
43	0xbd54eb9b	-0.051982503
44	0x3b1cf819	0.0023951589
45	0x3d109537	0.035298552
46	0x3d844dbf	0.064601414
47	0x3d3168e7	0.043312933
48	0xbc3f2423	-0.0116663305
49	0xbc0dcf49	-0.008655378
50	0xbbbffe68	-0.005859185
51	0x3d32085b	0.043465
52	0x3c90e916	0.017689269
53	0x3cabe84d	0.020984793
54	0xbb17adc6	-0.0023144349
55	0x3cd537e8	0.026027635
56	0xbc85d019	-0.01633458
57	0xbc1d8305	-0.009613757
58	0x3d52539a	0.05134926
59	0xbc690f1a	-0.014224792
60	0x3d363856	0.04448732
61	0xbd080bbe	-0.033214323
62	0xbc962f56	-0.018333118
63	0x3ada007e	0.0016632227
64	0xbd040c0f	-0.032238062
65	0x3ce738a4	0.02822525
66	0xbcd63214	-0.026146926
67	0xbd2990bf	-0.041397806
68	0xbceb77b5	-0.028743604
69	0x3cbbfe1e	0.022948321
70	0x3cdfb2bd	0.027306909
71	0xbd3a32eb	-0.045458715
72	0x3ced7ce2	0.028990213
73	0x3d612ac0	0.05497241
74	0x3d03fd0d	0.03222375
75	0x3d29ad4e	0.04142504
76	0x3d65c798	0.05609855
77	0xbd20f142	-0.03929258
78	0xbc8e55a4	-0.017374821
79	0xbbf4f25c	-0.0074751806
80	0x3c7ca84c	0.0154209845
81	0xbd3634d3	-0.04448397
82	0x3c1cb2a2	0.009564074
83	0x3cf4d311	0.0298858
84	0x3cd3d865	0.02586002
85	0xbb440b39	-0.0029913916
86	0xbb9b2723	-0.00473489
87	0x3d6e8e3a	0.058241107
88	0x3d89352a	0.06699593
89	0x3cc2e076	0.023788672
90	0x3c40dac2	0.011770906
91	0x3bb2e253	0.005459109
92	0xbc9e82da	-0.019349504
93	0x3d6862b0	0.05673474
94	0x390064a6	0.00012244526
95	0xbd1204a5	-0.03564896
96	0x3cea9877	0.028637154
97	0xbd10115b	-0.0351728
98	0xbce69e41	-0.028151633
99	0xbce37962	-0.02776784
100	0xbd00a9dd	-0.031411994
101	0x3c39b3cb	0.01133437
102	0x3cd0aa5f	0.025471864
103	0xbd8126a7	-0.063062005
104	0x3d6ae2dc	0.057345256
105	0xbc7e402b	-0.0155182285
106	0xbb2d449f	-0.0026438606
107	0xbd0ffe82	-0.035154827
108	0x3bcf1778	0.0063199364
109	0x3bee7578	0.007277187
110	0x3b1b5b40	0.0023705512
111	0xbd0df966	-0.034661673
112	0x3c7a98a4	0.015295181
113	0xbcbdee26	-0.023184847
114	0x3cedb5da	0.029017378
115	0xbbf2e2d8	-0.007412296
116	0xbb006400	-0.0019590855
117	0xbd203798	-0.03911552
118	0x3d076a25	0.03306021
119	0x3ca67250	0.02031818
120	0x3cd48e85	0.025946865
121	0x3d1ed4fa	0.03877733
122	0xbc5f111a	-0.013614917
123	0x3c94ada7	0.01814921
124	0x3d93132e	0.071813926
125	0x3d09cfd9	0.033645485
126	0xbc86afb5	-0.016441206
127	0xbd308d0e	-0.04310327
128	0x3c5f0b6d	0.013613564
129	0xbccc103f	-0.02491009
130	0xbcb54e17	-0.022131963
131	0x3d4be232	0.049776264
132	0x3b0b90dc	0.002129606
133	0xbd00ec39	-0.03147528
134	0x3d39ea4d	0.045389462
135	0xbd4ee873	-0.05051465
136	0x3d33fcb1	0.043942157
137	0xbc2f064a	-0.010682652
138	0xbd2ac3ff	-0.041690823
139	0x3d1fc312	0.039004393
140	0x3d0228ba	0.03177712
141	0xbd8a183e	-0.06742905
142	0xbc941d13	-0.01808027
143	0xbd05ce58	-0.032667488
144	0xbbfc1bc5	-0.00769374
145	0x3d36ea46	0.044657014
146	0x3d080a84	0.033213153
147	0xbc660223	-0.014038595
148	0xbd8a9568	-0.06766778
149	0x3d399fc5	0.045318384
150	0xbc9bea60	-0.019032657
151	0xba062af2	-0.00051180937
152	0x3b849bea	0.0040469067
153	0x3cde0fe1	0.027107181
154	0xbc8fde49	-0.017562049
155	0xbd3f067e	-0.04663705
156	0x3ba3456d	0.0049826414
157	0x3d61ac19	0.055095766
158	0xbd2b5c16	-0.041835867
159	0xbcedafe1	-0.02901453
160	0x3c256075	0.010093798
161	0x3ca5b8ad	0.020229662
162	0xbc73290f	-0.014841332
163	0xbba07f79	-0.0048980084
164	0xbcf457e4	-0.029827066
165	0xbd79dee6	-0.06100359
166	0x3cf73be6	0.030179929
167	0xbd44d101	-0.048050884
168	0xbd1a78bc	-0.037712798
169	0xbd4b7d34	-0.04967995
170	0x3cc63e4a	0.024199624
171	0xbb5ac1dd	-0.0033379712
172	0xbc630a89	-0.013857492
173	0x3c93dd74	0.018049933
174	0xbd652b25	-0.05594935
175	0xbd1b95a3	-0.0379845
176	0x3c3263a9	0.010888019
177	0x3ca569dd	0.020192081
178	0x3c748239	0.014923626
179	0xbd31af80	-0.04338026
180	0x3d290efd	0.04127406
181	0xbd563e4a	-0.052305497
182	0x3c92c1ad	0.017914617
183	0xbd8303ca	-0.06397207
184	0xbd36c70c	-0.04462342
185	0x3c902a13	0.017598188
186	0xbc759bae	-0.01499073
187	0x3d2f5cc0	0.042813063
188	0x3d21225d	0.039339412
189	0x3d69dbbb	0.057094317
190	0xbd69a8a5	-0.057045598
191	0xbd380a61	-0.044931773
192	0x3cd9ddb8	0.026594982
193	0x3c8485c2	0.016177062
194	0x3d699f1e	0.05703651
195	0x3d3e3419	0.046436403
196	0x3d0f7abb	0.035029154
197	0x3cc26762	0.023730937
198	0x3d0b022e	0.033937626
199	0x3c6a51e8	0.0143017545
200	0x3c8fd24f	0.017556338
201	0x3ce87e9e	0.028380688
202	0xbcfe09ae	-0.031010475
203	0x3d69cd70	0.057080686
204	0xbc176edc	-0.0092427395
205	0x3d8dafc8	0.06918293
206	0xbb99fae7	-0.0046990993
207	0xbd609abe	-0.054835074
208	0x3cabe0de	0.020981248
209	0xbc91e208	-0.017807975
210	0x3cf9ab56	0.030477207
211	0xbd510724	-0.0510322
212	0xbd06ddd4	-0.032926396
213	0xbca75f88	-0.020431295
214	0xbca1e1b0	-0.019760936
215	0x3d3cf893	0.046135496
216	0xbc420e5b	-0.011844243
217	0xbb996b4e	-0.004681981
218	0xbc8d9976	-0.01728509
219	0x3cff2e65	0.031150052
220	0x3baa99ff	0.005206346
221	0x3d13a9bd	0.036050547
222	0x3c20f6a2	0.009824427
223	0x3973f846	0.00023266775
224	0x3be896a4	0.007098036
225	0x3ca54d1c	0.02017837
226	0xbc536f24	-0.012904916
227	0x3d28ddf6	0.041227303
228	0x3d031ecc	0.032011792
229	0x3c9e6a20	0.019337714
230	0xbc490042	-0.012268128
231	0x3c8c161f	0.017100392
232	0xbb557a39	-0.003257407
233	0x3c776601	0.015100003
234	0xbb6b2cca	-0.003588485
235	0xbb90930c	-0.0044120606
236	0x3c3ab909	0.011396655
237	0xbc8aad00	-0.016928196
238	0xbd55710b	-0.05210976
239	0xbd5d2e18	-0.053999037
240	0x3cfa6291	0.030564578
241	0xbc9001c3	-0.017578965
242	0xbd10ce49	-0.03535298
243	0xbd5fb162	-0.054612525
244	0x3d633690	0.055471957
245	0x3c22029b	0.0098883165
246	0xbca4697f	-0.020069836
247	0x3d0bec24	0.034160748
248	0x3c929af4	0.017896153
249	0xbc2d0c9c	-0.010562088
250	0xbcf8d8f3	-0.030376887
251	0xbd156eea	-0.03648273
252	0x3cc5fe68	0.024169162
253	0x3c7a2e81	0.015269876
254	0x3c9ae813	0.01890949
255	0x3d404f6b	0.04695074

encoder.2.bias f4 [64]
0	0xbd4a4172	-0.04937882
1	0xbd32f9b2	-0.04369516
2	0x3dae155e	0.08500169
3	0xbca42136	-0.020035367
4	0x3cef5735	0.029216388
5	0x3ca874d8	0.020563528
6	0xbcda1dc2	-0.026625518
7	0x3b1c2060	0.0023823008
8	0x3cdee339	0.027207958
9	0x3d9c1417	0.07621019
10	0x3d2f585a	0.042808868
11	0x3cbe3e40	0.023223042
12	0xbd0ad09e	-0.03389036
13	0x3b8aa196	0.0042306883
14	0x3d60d774	0.054892972
15	0x3d805ed6	0.062680885
16	0xbbb8e582	-0.005642594
17	0x3d124f5a	0.035720207
18	0xbd4cced1	-0.050001923
19	0xbccb227b	-0.024796715
20	0x3d9d6152	0.07684578
21	0x3d5d22ad	0.053988148
22	0xbd28101e	-0.041030996
23	0xbd525a07	-0.051355388
24	0xbd14a8c8	-0.036293775
25	0x3d17a8c4	0.03702618
26	0xbd4f6ab8	-0.050638884
27	0x3bd2b786	0.006430569
28	0x3c826c1d	0.015920693
29	0xbd78ca22	-0.060739644
30	0x3c917232	0.017754648
31	0xbcaaa6cd	-0.02083149
32	0xbd83bea9	-0.0643285
33	0x3c1a15bf	0.009404599
34	0xbd5e344f	-0.054249104
35	0x3b35e507	0.002775492
36	0xbcb5f004	-0.022209175
37	0xbd4ca94e	-0.04996615
38	0xbd4f225b	-0.050569873
39	0x3da095b3	0.07841053
40	0xbb2c08d4	-0.002625038
41	0xbd173a9d	-0.036921132
42	0xbcce985f	-0.02521914
43	0xbcc0b41f	-0.023523388
44	0x3d889127	0.066683106
45	0x3c46e9f8	0.012140743
46	0xbc5ee0db	-0.013603414
47	0xbcf4a1e2	-0.029862348
48	0xbc135b1b	-0.008993889
49	0x3cbf5196	0.023354333
50	0x3d98d9d1	0.0746342
51	0xbc81ee3a	-0.015860666
52	0xbcd4e039	-0.025985824
53	0xbd667a9a	-0.056269266
54	0x3d850ca3	0.06496551
55	0x3d36844a	0.044559754
56	0x3bfba5b4	0.0076796655
57	0x3b7cfcd8	0.0038602855
58	0xbd1b5c5e	-0.037929885
59	0xbcc4a196	-0.024002831
60	0x3ce88d88	0.0283878
61	0x3cf0c5fd	0.029391283
62	0x3cddcf7c	0.027076475
63	0xbd573be2	-0.052547343

encoder.4.weight f4 [128, 64, 3, 3]
0	0x3c7b1fa0	0.015327364
1	0x3c0ae9a5	0.008478557
2	0xbc8df9ac	-0.017330967
3	0x3d1945da	0.03742013
4	0x3c9e9ebc	0.0193628
5	0xbccee3f5	-0.025255183
6	0x3d290137	0.041260924
7	0xbce06d7d	-0.027395958
8	0xbca58e65	-0.0202095
9	0xbc6486a3	-0.0139481155
10	0x3c1ec52c	0.009690564
11	0x3b7d399b	0.0038639072
12	0x3d23423c	0.039858088
13	0x3d5f3df6	0.05450245
14	0x3b6567e1	0.0035004544
15	0x3d11917f	0.035539147
16	0x3c9a782b	0.018856129
17	0x3bdd6de0	0.006757483
18	0x3d7b4bc8	0.061351568
19	0x3b12721c	0.0022345847
20	0xbc945b7f	-0.018110035
21	0x3daf4448	0.085579455
22	0x39ec4a2e	0.00045068696
23	0x3c20f238	0.009823374
24	0x3d70766a	0.05870668
25	0x3d75b86a	0.059990324
26	0xbc01e3de	-0.007927863
27	0x3d336468	0.043796927
28	0xbc9268aa	-0.017872173
29	0xbc204793	-0.00978269
30	0xbcc527f5	-0.024066905
31	0xbb780b59	-0.003784856
32	0x3c28a788	0.010293849
33	0x3cb1a5c1	0.021685483
34	0x3d3d3b52	0.04619915
35	0x3d393e42	0.04522539
36	0xbb2e0bb1	-0.0026557262
37	0x3d05f550	0.03270465
38	0x3c247d7e	0.010039685
39	0x3d064d9a	0.03278885
40	0xbb84b0b4	-0.004049385
41	0xbce64e69	-0.02811356
42	0x39fe0979	0.00048453713
43	0xbcaaf231	-0.020867439
44	0xbc6ed489	-0.0145770395
45	0xbced4d9e	-0.028967675
46	0xbcf08eb5	-0.029364923
47	0xbcbaea72	-0.02281687
48	0x3c6685b6	0.014069965
49	0x3d1da5d3	0.03848822
50	0x3b83bcf4	0.0040203277
51	0x3c4ede33	0.012626219
52	0x3d573f93	0.052550863
53	0x3d5f13ce	0.054462247
54	0x3d30e1d3	0.043184113
55	0xbc81e650	-0.015856892
56	0xbc2ffee8	-0.010741927
57	0xbc084db4	-0.008319307
58	0xbc862708	-0.016376033
59	0xbca962e7	-0.020677043
60	0xbac818e0	-0.0015266202
61	0xbc572b86	-0.013132935
62	0xbbc87851	-0.0061178585
63	0xbc4ccca6	-0.012499964
64	0x3c034704	0.008012537
65	0xbd23d14b	-0.03999452
66	0x3af7b6a0	0.0018899031
67	0x3d08be6d	0.03338473
68	0x3c49e6b0	0.012323067
69	0x3d20ca0d	0.03925519
70	0x3ba40fe0	0.0050067753
71	0xbb78fbb0	-0.0037991814
72	0xbcd561ae	-0.026047554
73	0x3c35a8e3	0.011087629
74	0x3d2fef51	0.04295284
75	0xbc19296d	-0.009348256
76	0xbc9d211d	-0.019180829
77	0x3c527308	0.012844808
78	0xbc35ae02	-0.01108885
79	0xbc9ce9bf	-0.019154428
80	0x3c9cd792	0.01914576
81	0xbcdc46b3	-0.02688918
82	0xbce791c1	-0.028267743
83	0xbbdc7b16	-0.00672854
84	0x38bd927a	9.039506e-05
85	0xbd47e36a	-0.048800863
86	0xbc92c19c	-0.017914586
87	0xb9cc396e	-0.000389527
88	0xbc47cef0	-0.012195334
89	0xbd07b14a	-0.03312806
90	0x3cecf78c	0.028926633
91	0xbcc0d866	-0.023540687
92	0x3cef6679	0.029223667
93	0x3cadb7fa	0.02120589
94	0x3d347e6d	0.04406588
95	0x3c54959f	0.012975126
96	0x3cc7843f	0.024355052
97	0x3c8a98fc	0.016918652
98	0xbc0603fa	-0.008179659
99	0xbb142a9d	-0.0022608407
100	0x3bcab001	0.006185532
101	0x3c37828c	0.011200558
102	0x3c83d1cf	0.016091255
103	0xbce1262d	-0.027484024
104	0x3d3be706	0.045874618
105	0x3cfb7c94	0.030699052
106	0xbc84377e	-0.016139742
107	0x3cd135a5	0.025538275
108	0xbc092395	-0.0083703
109	0xbc8774a6	-0.016535114
110	0x3d129d98	0.035794824
111	0x3ba1b1bd	0.004934518
112	0x3cf04cf6	0.029333573
113	0xbc5c3365	-0.013439988
114	0x3d22ce3e	0.03974747
115	0xbacc9d92	-0.0015610924
116	0xbd0872c6	-0.03331258
117	0x3d0e0069	0.03466836
118	0xbc0fe8cb	-0.0087835295
119	0x3d029d04	0.031888023
120	0x3c852b93	0.01625613
121	0x3ca36366	0.019944858
122	0x3b3b7e85	0.0028609347
123	0xbaa79a80	-0.0012787133
124	0xbcee7614	-0.029109038
125	0x3c90a49a	0.017656613
126	0x3d1e7553	0.038686108
127	0x3a0ed04d	0.00054479094
128	0x3d5febd6	0.05466827
129	0x3d9d3c57	0.076775245
130	0x3bfe2a88	0.007756535
131	0x3cbfd3c1	0.023416402
132	0x3d93d688	0.07218653
133	0xbaed130a	-0.0018087339
134	0x3cbf86ad	0.023379648
135	0xbc38ca14	-0.011278648
136	0xbd50aa6a	-0.05094377
137	0xbc7bcc5c	-0.015368547
138	0x3cab3974	0.02090142
139	0xbd3ca2c8	-0.046053678
140	0xbd46b834	-0.048515514
141	0xbc06181b	-0.008184458
142	0xbd3423b8	-0.043979377
143	0x3cbad3fb	0.022806158
144	0x3b8dcaac	0.004327139
145	0xbab59f21	-0.0013856628
146	0x3c85c5b8	0.016329631
147	0x3d0aeb18	0.03391561
148	0x3b10a97d	0.002207368
149	0xbd1c382d	-0.03813951
150	0xbd053593	-0.032521795
151	0x3cec19e3	0.028820937
152	0xbabc1120	-0.0014348365
153	0xbcb69d11	-0.022291692
154	0x3d4102c6	0.047121786
155	0x3d249ab8	0.040186614
156	0xbc85589e	-0.016277608
157	0x3d3d85c9	0.046270166
158	0xbccc466e	-0.024935927
159	0x3c9fefc3	0.019523507
160	0xbc28a4b2	-0.010293173
161	0xbc2f352c	-0.0106938295
162	0x3ce6d124	0.028175898
163	0x3d231ee4	0.03982438
164	0xbced47c7	-0.02896489
165	0x3cf54865	0.029941747
166	0x3d6f8284	0.05847408
167	0x3b8c54c9	0.004282568
168	0x3c0ead1f	0.0087082675
169	0x3d20b4bd	0.039234865
170	0xbcc6a5b3	-0.024248933
171	0x3cd6af9d	0.026206786
172	0x3b48fa92	0.003066693
173	0xbc0ad2bc	-0.008473095
174	0x3bce3e77	0.0062940675
175	0x3d098dce	0.0335825
176	0xb66dde90	-3.54453e-06
177	0xbb991c96	-0.004672597
178	0x3caf27c2	0.021381263
179	0x3c9a1881	0.018810512
180	0xbcdde8eb	-0.027088603
181	0x3cd9b113	0.026573693
182	0xba15ae4d	-0.0005709872
183	0xbd39b114	-0.04533489
184	0xbca29c2b	-0.019849857
185	0xbd31e17d	-0.043427933
186	0x3cfab1d5	0.030602375
187	0x3c88661b	0.01665025
188	0xbca81a65	-0.020520398
189	0x3bc73e12	0.0060803974
190	0x3d4877ee	0.0489425
191	0x3c7c43da	0.015397036
192	0x3c3c7bec	0.011504155
193	0xbc06f2c4	-0.008236591
194	0x3d1cfdf8	0.03832814
195	0x3c79bcf2	0.015242802
196	0x3cc6d455	0.02427117
197	0xbcc790ee	-0.0243611
198	0x3d10b926	0.03533282
199	0x3d1711d3	0.036882233
200	0x3d2ba6e6	0.041907214
201	0x3ccd5fbc	0.025070064
202	0xbcdb87cc	-0.026798151
203	0x3c1a6646	0.009423798
204	0x3d1ea037	0.03872701
205	0xbcc9c5f0	-0.024630517
206	0x3c9552e8	0.01822801
207	0xbc98ed16	-0.018667739
208	0xbc8442c6	-0.016145121
209	0xbc2b267c	-0.010446187
210	0x3afee9f2	0.0019448383
211	0x3b01dbc5	0.001981483
212	0x3b36529c	0.0027820235
213	0x3cbcc277	0.023041947
214	0x3ca7cc22	0.02048308
215	0x3c626021	0.013816864
216	0x3b1bab9e	0.0023753415
217	0xbc5c1e46	-0.013434952
218	0x3cc6b683	0.02425695
219	0xbc0fbd2f	-0.008773132
220	0xbc975436	-0.018472772
221	0xbc3769bb	-0.011194642
222	0xbbbf8a07	-0.0058453116
223	0x3c6ee4ed	0.014580947
224	0x3d2987bf	0.041389223
225	0x3c801998	0.015637204
226	0xbb2ce86a	-0.0026383647
227	0x3cdf17bb	0.027232995
228	0xbc0f0be2	-0.00873086
229	0x3c7eb430	0.01554589
230	0x3d226171	0.03964371
231	0xbcd5cff1	-0.02610013
232	0xbc908a4d	-0.017644072
233	0x3d022a71	0.031778757
234	0xbb7f20e9	-0.0038929528
235	0x3ca9838f	0.020692615
236	0x3c290818	0.010316871
237	0xbd3257aa	-0.043540634
238	0x3d18f047	0.03733852
239	0x3cdb4079	0.026764141
240	0xbb75003e	-0.0037384178
241	0xbca011cd	-0.019539738
242	0xbac29ddb	-0.001484807
243	0xbb06da43	-0.0020576871
244	0x3cb4b9be	0.022061225
245	0x3d266a1c	0.040628538
246	0x3cca80b7	0.02471958
247	0x3ca96f3d	0.020682925
248	0xbca18545	-0.019716868
249	0x3ce94877	0.028476937
250	0xbc174bb4	-0.009234358
251	0x3b4bf750	0.0031122752
252	0x3d0b59b5	0.0340211
253	0x3c5b1726	0.013372218
254	0x3d3c3cfe	0.045956604
255	0x3d4cb145	0.049973745

encoder.4.bias f4 [128]
0	0x3ce7b422	0.028284136
1	0xbcf94332	-0.030427549
2	0xbd01d5df	-0.031698104
3	0xbd281ee3	-0.04104508
4	0xbb632d80	-0.0034664571
5	0x3ce4611a	0.027878333
6	0x3cfc7ca4	0.030821152
7	0xbd0e55b6	-0.03474971
8	0x3a4fef85	0.00079321145
9	0xbb276859	-0.0025544374
10	0xbc97faa6	-0.018552136
11	0xbc9d333e	-0.019189473
12	0xbcf63d9a	-0.03005867
13	0x3d52f5f2	0.051504083
14	0x3cef649c	0.029222779
15	0xb85e0f58	-5.2943215e-05
16	0x3d3f802b	0.04675309
17	0x3b87b89b	0.0041418797
18	0x3c877f49	0.016540186
19	0x3c89a4ce	0.016802218
20	0x3d046417	0.032322016
21	0xbd21d70f	-0.039511736
22	0x3c1521a8	0.009102263
23	0x3d1c6194	0.038178995
24	0xbc51b351	-0.0127991
25	0x3cb1e422	0.021715228
26	0x3cdc326b	0.02687951
27	0xbc33d8a4	-0.010976944
28	0xbd3c2e6c	-0.04594271
29	0x3ce4536e	0.027871814
30	0xbb3871f3	-0.002814409
31	0x3ce80394	0.028322019
32	0xbc7ec5ba	-0.015550071
33	0x3d4cf753	0.050040554
34	0x3d72bef5	0.059264142
35	0x3cde7ed6	0.02716009
36	0xbc808994	-0.015690602
37	0x3b628b51	0.0034567902
38	0xbc0b3c54	-0.00849827
39	0x3d68a0a1	0.056793813
40	0xbc96cdaa	-0.018408615
41	0x3d65c377	0.056094613
42	0x3d83571a	0.06413098
43	0xbd24007e	-0.040039532
44	0x3d6f998b	0.05849604
45	0x3bd48e12	0.0064866627
46	0x3ccec19d	0.025238806
47	0xbc7834ed	-0.015149337
48	0xbbc7cef8	-0.0060976706
49	0x3c751a8b	0.014959942
50	0xbce8a580	-0.028399229
51	0xbc8b2367	-0.016984655
52	0xbc1eede8	-0.009700276
53	0xbc815f33	-0.015792465
54	0xbcb1c284	-0.021699198
55	0x3d35deb3	0.044401836
56	0xbc79117a	-0.015201921
57	0x3d0943dc	0.03351198
58	0x3be910bd	0.007112591
59	0x3c71d97b	0.014761324
60	0x3d170de4	0.03687848
61	0x3d76f7f0	0.060295045
62	0x3ca9ad8b	0.020712635
63	0x3d15dc0c	0.036586806
64	0x3d2d8aa4	0.042368546
65	0x3d80a181	0.062808044
66	0x3ce44aa9	0.027867632
67	0xbcbd1fcb	-0.02308645
68	0x3c1493c5	0.009068434
69	0x3c424cc5	0.011859124
70	0x3c05aa0e	0.00815822
71	0x3d6b886a	0.05750314
72	0xb9b422d5	-0.00034358227
73	0x3cf87e11	0.03033355
74	0x3d758998	0.059945673
75	0x3c2d32e2	0.010571213
76	0xbcd43752	-0.025905285
77	0xbb9c2a33	-0.0047657727
78	0x3d6dbe55	0.058042843
79	0xbcfbac9d	-0.030721957
80	0x3b0d218e	0.0021534893
81	0xbc7106df	-0.014711111
82	0x3d401c26	0.046901844
83	0x3d75a28a	0.059969462
84	0xbcdbd761	-0.0268361
85	0x3c1d954a	0.009618113
86	0x3cc8bae8	0.024503186
87	0x3bbd2e02	0.005773307
88	0x3d05edb2	0.032697387
89	0xbc4c00bb	-0.012451346
90	0x3cdf7424	0.02727706
91	0xbbc4feec	-0.0060118344
92	0x3cb135e1	0.021632137
93	0xbd1f9505	-0.038960475
94	0x3c8c7a2e	0.017148104
95	0xbd0b061e	-0.03394138
96	0x3bd5364a	0.006506716
97	0xbccb4213	-0.02481178
98	0xbca2b2aa	-0.019860584
99	0xbcd9938a	-0.02655961
100	0xbc8546bb	-0.016269078
101	0xbc903b18	-0.017606303
102	0x3d8fc6a3	0.07020309
103	0xbb6e76a3	-0.003638663
104	0xbcec3075	-0.0288317
105	0xba53d187	-0.0008080233
106	0x3a9e8c85	0.0012096321
107	0xbd2c5fc4	-0.042083517
108	0xbd1bde27	-0.038053658
109	0x3cd2978f	0.025707034
110	0x3ce1dcb5	0.027571062
111	0xbb70eff4	-0.0036764117
112	0xbc9755e7	-0.018473579
113	0x3d5679cd	0.052362252
114	0xbc9681bf	-0.018372415
115	0x3b61ca91	0.0034453014
116	0x3ce21fd9	0.027603077
117	0x3c9bc175	0.019013146
118	0xbbe064d3	-0.0068479567
119	0x3a07e0c3	0.00051833334
120	0x3c2e8fda	0.010654414
121	0x3d1131c6	0.03544786
122	0xbce2575f	-0.027629552
123	0xbcb4f90b	-0.02209141
124	0x3c1bc109	0.009506472
125	0x3d085381	0.03328276
126	0xbcadae91	-0.021201404
127	0xbd171162	-0.036881812

decoder.0.weight f4 [128, 64, 3, 3]
0	0x3caff70b	0.021480104
1	0x3c098fdd	0.008396116
2	0x3d178cf5	0.03699966
3	0x3cef3d7b	0.02920412
4	0xbcb30d5c	-0.021856956
5	0xbcb5bae0	-0.022183836
6	0xbcd960e8	-0.026535466
7	0x3cb8fb5e	0.022580799
8	0x3d0bd360	0.03413713
9	0x3cb1feed	0.021728003
10	0x3c04c61b	0.008103873
11	0x3c50fbd0	0.012755349
12	0xbc8031df	-0.01564878
13	0x3cf9664e	0.03044429
14	0x3ce3764c	0.02776637
15	0x3d2a371a	0.041556455
16	0x3c762945	0.015024488
17	0x3bdee627	0.0068023386
18	0xbceb858e	-0.028750207
19	0x3d13e357	0.03610548
20	0xbcebd591	-0.02878836
21	0xbca823f6	-0.02052496
22	0xbbb4f716	-0.005522619
23	0xbc72fbbd	-0.014830527
24	0x3ce35e76	0.027755003
25	0x3908a359	0.00013030822
26	0x3d13d60d	0.036092807
27	0xbc0f188e	-0.008733882
28	0xbcc852b8	-0.024453506
29	0xbd025423	-0.03181852
30	0xbc901383	-0.017587429
31	0xbc3875e7	-0.011258579
32	0x3c5ae834	0.013361026
33	0xbd3161dd	-0.04330622
34	0xbc30d01d	-0.010791806
35	0x3c16eded	0.009211999
36	0xbd51c130	-0.05120963
37	0xbc57a613	-0.013162154
38	0x3cb88c03	0.0225277
39	0x3d238be4	0.039928332
40	0xbc8eb8f7	-0.017422182
41	0xbd09111a	-0.033463575
42	0x3c64c411	0.0139627615
43	0x3afb0cd3	0.0019153602
44	0x3cd7d8a1	0.026348414
45	0xbcba9d96	-0.022780221
46	0x3a35a558	0.000692924
47	0x3c6e8e7e	0.01456034
48	0x3bec7be6	0.0072169183
49	0x3cbfcd44	0.023413308
50	0x3c917aea	0.017758805
51	0x3c4aa6b4	0.012368847
52	0xbca81483	-0.020517593
53	0xbc04232a	-0.008065024
54	0x3c04da23	0.0081086485
55	0xba8048b5	-0.0009787293
56	0x3a787ac2	0.00094787416
57	0x3c43aa15	0.011942406
58	0xbd3700ce	-0.0446785
59	0xbc3b528e	-0.011433257
60	0xbc5b0bbc	-0.013369497
61	0xbc9197e5	-0.017772624
62	0xbbe66150	-0.0070306435
63	0xbc301a76	-0.010748496
64	0x3cb5ed81	0.022207977
65	0x3c4364b8	0.011925869
66	0xbbcccdf4	-0.0062501375
67	0x3c10f0a3	0.008846435
68	0xbce62f87	-0.028098835
69	0xbd07d98f	-0.033166464
70	0xb9cd2048	-0.00039124698
71	0xbd265971	-0.04061264
72	0xbd35d3e7	-0.04439154
73	0x3cfbf08b	0.030754348
74	0x3bfd6d57	0.0077339816
75	0x3cda03a6	0.026613068
76	0x3cdeb17e	0.027184244
77	0xbcb6b144	-0.022301324
78	0x3ca309b9	0.019902097
79	0xbc4f7a81	-0.012663485
80	0xbd03f212	-0.032213278
81	0xba827bb2	-0.0009955077
82	0x3c1468e1	0.009058208
83	0x3b2a64c0	0.0025999993
84	0x3cd94aef	0.026524989
85	0xbc3b981a	-0.011449838
86	0x3ced8deb	0.028998336
87	0x3c909a72	0.01765177
88	0x3cc640a5	0.024200747
89	0xbd1177f1	-0.035514776
90	0xbc390f6a	-0.011295179
91	0x3cd93e49	0.026518958
92	0xbcaea483	-0.02131868
93	0x3c6cc250	0.014450625
94	0x3d643384	0.05571319
95	0x3cefae1f	0.029257832
96	0xbc8bd3c0	-0.017068744
97	0xbb05d22a	-0.0020419457
98	0x3c564d92	0.013080018
99	0x3b977386	0.0046219258
100	0xbcd3b99f	-0.025845347
101	0xbcf4c5aa	-0.02987941
102	0x3c13b77e	0.009015916
103	0x3d1e6901	0.03867436
104	0xbd125466	-0.03572502
105	0xbcac0e85	-0.021003017
106	0xbc81680b	-0.015796682
107	0xbc958252	-0.018250618
108	0xbd0cf887	-0.0344167
109	0xbd264ee2	-0.040602572
110	0xbc251048	-0.0100746825
111	0xbc6ab6fb	-0.0143258525
112	0x3d159214	0.036516264
113	0x3c3b38f3	0.011427152
114	0x3cefbc6c	0.029264651
115	0xbc610e20	-0.013736278
116	0xbc99ff4c	-0.018798493
117	0xbcc8c706	-0.024508964
118	0x3c20280d	0.009775174
119	0x3c955532	0.0182291
120	0x3d10e669	0.035375986
121	0xbcbeac11	-0.023275407
122	0xbce1e56f	-0.027575223
123	0xbbda49ff	-0.006661653
124	0x3c8cfc98	0.01721029
125	0x3b4bcdfd	0.003109812
126	0x3ccb9a69	0.024853902
127	0xbd2d613b	-0.042329054
128	0xbd11f534	-0.035634235
129	0x3cdfef34	0.02733574
130	0x3d12d265	0.03584518
131	0x3ccf41c4	0.025299914
132	0x3cd8f04d	0.026481772
133	0xbcfc4e2b	-0.030798992
134	0xbd2f704d	-0.042831708
135	0x3d10bfb0	0.035339057
136	0x3d4a4523	0.04938234
137	0x3d20656e	0.03915923
138	0xbc949480	-0.018137217
139	0xbcb3a482	-0.02192903
140	0x3d2b50b7	0.041825023
141	0x3d0120bb	0.031525355
142	0x3ba70329	0.0050968123
143	0x3d429301	0.047503475
144	0xbc591c67	-0.013251401
145	0x3d2829a7	0.041055348
146	0x3ae204f5	0.0017243909
147	0xbd04fa95	-0.032465536
148	0xbd058eaa	-0.03260676
149	0x3cbc0f66	0.022956561
150	0x3a7f2c7e	0.0009734108
151	0xbc8f5f5c	-0.017501526
152	0xbd111d68	-0.035428435
153	0x3bee4b23	0.0072721406
154	0xbaaccc52	-0.0013183451
155	0xbc4e29c6	-0.012583202
156	0x33e13600	1.04872015e-07
157	0x3c8b417e	0.016999003
158	0x3d4471b0	0.047959983
159	0x3d2816d5	0.0410374
160	0x3b2846e4	0.002567702
161	0x3d03a114	0.032136038
162	0x3d14c950	0.0363248
163	0xbd19221d	-0.03738605
164	0x3cdbcf30	0.026832193
165	0x3cdd8270	0.027039737
166	0xbd123c06	-0.035701774
167	0x3ceafb09	0.028684156
168	0xbd10fbe6	-0.03539648
169	0x3c3918ea	0.011297444
170	0x3cc2ae2f	0.023764698
171	0x3c7e9884	0.015539292
172	0x3c8b4a34	0.017003156
173	0xbb895a4e	-0.0041916734
174	0x3d22d8a2	0.03975738
175	0x3c236a92	0.009974139
176	0x3d07a0cd	0.033112336
177	0xbc707cf5	-0.01467823
178	0x3c3b4dc4	0.011432115
179	0xbc885668	-0.016642764
180	0xbc2e8e9f	-0.010654121
181	0x3be4cbf3	0.0069823205
182	0x3cc06f26	0.0234905
183	0xbcb8fa94	-0.022580422
184	0xbc17961b	-0.0092520965
185	0x3d2ba9ae	0.041909866
186	0xbcead71a	-0.028667022
187	0xbcfaaf44	-0.030601151
188	0x3d3acf39	0.04560778
189	0xbcb90898	-0.022587106
190	0x3b9a0157	0.0046998668
191	0x3d24ed11	0.040265147
192	0x3adc25ba	0.0016795911
193	0x3d1411e6	0.03614988
194	0x3c520194	0.012817759
195	0xbd4a9a93	-0.04946382
196	0xbc0b1e40	-0.008491099
197	0x3d301e2c	0.042997524
198	0x3cee3606	0.029078495
199	0xbd759936	-0.059960566
200	0xbc8f8462	-0.01751918
201	0xbcdaf025	-0.026725838
202	0x3c839ef0	0.016066998
203	0xbcc31a89	-0.023816364
204	0x3c477fa5	0.012176429
205	0x3c7092a5	0.0146834
206	0x3d23395d	0.039849628
207	0xbd532317	-0.051547136
208	0xbc7e6866	-0.01552782
209	0xbcb40099	-0.021972941
210	0x3c8515ee	0.016245808
211	0xbca7b509	-0.020472066
212	0x3c23a7d5	0.009988745
213	0xbd102993	-0.0351959
214	0xbc09d78f	-0.00841321
215	0xbbd68282	-0.0065463195
216	0x3d087ef3	0.033324193
217	0xbd00dbd6	-0.031459652
218	0xbcaf55f6	-0.021403294
219	0xb9696386	-0.00022257687
220	0xbd1a48a0	-0.037666917
221	0x3cb3f680	0.021968126
222	0xbcb9f3c5	-0.022699246
223	0x3c2091a0	0.009800345
224	0xbc98dc72	-0.018659804
225	0x3d04cb2d	0.032420326
226	0xbc3286d2	-0.0108964015
227	0x3ce5822c	0.028016172
228	0xbc9d4da0	-0.019202054
229	0x3d44258e	0.047887377
230	0xbc151889	-0.009100088
231	0x3b675428	0.0035297964
232	0x3c88a50f	0.016680269
233	0xbb0179ed	-0.0019756511
234	0xbc862b34	-0.016378023
235	0x3d2fe22c	0.042940304
236	0x3c02a207	0.007973201
237	0x3b6c95a4	0.0036099935
238	0xbd11bfe5	-0.035583396
239	0x3d5882aa	0.052858986
240	0xbcb443fe	-0.022005077
241	0x3d59ec58	0.05320391
242	0x3b8c8254	0.0042879973
243	0x3c74579a	0.014913464
244	0x3ce3ab15	0.02779154
245	0x3cd550ea	0.02603956
246	0x3ce22dbe	0.027609702
247	0x3cebf22d	0.028802002
248	0x3c21e2e9	0.00988076
249	0x3ca3bf06	0.019988548
250	0xbd2405c3	-0.040044557
251	0x3c4cbd85	0.012496357
252	0xbc775201	-0.015095235
253	0xbcc6231f	-0.024186669
254	0x3c75a558	0.014993034
255	0xbcca034e	-0.024659779

decoder.0.bias f4 [64]
0	0xbd30ec0a	-0.043193854
1	0x3ca75e8a	0.020430822
2	0x3d062984	0.032754436
3	0x3d0fbb2b	0.035090607
4	0x3c827264	0.015923686
5	0x3d60b413	0.054859232
6	0x3cd33a14	0.02578453
7	0x3d6faaf4	0.058512643
8	0xbcb1b53f	-0.02169287
9	0x3ce2db07	0.027692331
10	0x3aa4d560	0.0012575798
11	0xbd2be8bf	-0.04197001
12	0xbd0d1303	-0.03444196
13	0xba8cf29b	-0.0010753454
14	0xbb81dcb8	-0.0039630793
15	0xbb7d8eb5	-0.0038689796
16	0x3b149804	0.0022673616
17	0x3d2e08b3	0.042488765
18	0x3c858a23	0.01630122
19	0x3b0a12bb	0.0021068293
20	0xbb71e6f1	-0.0036911333
21	0xba25a4ee	-0.0006318827
22	0xbc3e94f2	-0.011632191
23	0x3cd7bad1	0.026334198
24	0xbd2420c2	-0.040070303
25	0xbc8ba624	-0.017046995
26	0xbd140a50	-0.036142647
27	0xbc021c87	-0.007941372
28	0xbcacafce	-0.021079924
29	0xbc22220d	-0.009895814
30	0xbbf1f136	-0.007383491
31	0x3c33095b	0.0109275235
32	0xbc7195d2	-0.014745193
33	0x3b6ffebd	0.0036620342
34	0xbc8f9de8	-0.01753135
35	0xbd2fb437	-0.042896476
36	0x3b79f5f7	0.0038140991
37	0xbcc97c58	-0.024595425
38	0xbb713c5f	-0.0036809666
39	0xbd014df2	-0.031568475
40	0xbcfba769	-0.030719476
41	0x3d4dc978	0.050240964
42	0xbd234371	-0.03985924
43	0xbd40c676	-0.047064267
44	0xbba6b226	-0.005087155
45	0xbc4b5918	-0.012411378
46	0xbab1bb1c	-0.0013559791
47	0xbca87439	-0.020563232
48	0x3c546ff1	0.012966142
49	0xbcc27c34	-0.023740865
50	0x3d5c957b	0.053853493
51	0x3c6d3f33	0.0144804
52	0x3d7bb223	0.06144918
53	0x3d0b8591	0.034062926
54	0xbc90f4de	-0.017694887
55	0x3d590bb3	0.052989673
56	0x3b7b8b0d	0.0038382441
57	0x3d6bc39c	0.057559595
58	0xbc3df472	-0.011593925
59	0xbcc20b30	-0.023686975
60	0xbc1fb180	-0.009746909
61	0xbc868ad9	-0.01642363
62	0xbd20e8bf	-0.039284464
63	0x3ce6a9ff	0.028157232

decoder.2.weight f4 [64, 32, 3, 3]
0	0x3d8509ad	0.06495986
1	0xbc8c5856	-0.017131966
2	0xbd677e50	-0.056516945
3	0xbc87eadc	-0.016591482
4	0xbc915d09	-0.017744558
5	0xbd045d40	-0.032315493
6	0xbd2522e0	-0.040316463
7	0x3ca76ec1	0.020438554
8	0x3d519c7e	0.051174633
9	0x3d34528a	0.044024028
10	0xbcf142a8	-0.02945073
11	0x3c304b19	0.010760092
12	0x3cda7081	0.026664974
13	0x3d244da8	0.04011312
14	0x3ce3791e	0.027767714
15	0x3bdcb8f3	0.006735915
16	0x3d53383c	0.0515673
17	0x3c13baa1	0.009016664
18	0x3d3e8496	0.046513163
19	0x3d03005e	0.031982772
20	0xbd7e3cb7	-0.06206962
21	0xbbab66bf	-0.005230754
22	0xbca0d14f	-0.019631056
23	0x3d252f6c	0.04032843
24	0x3d0b10d1	0.033951584
25	0xbd465959	-0.048425052
26	0x3d50aaf4	0.050944284
27	0x3c8b8b0f	0.017034082
28	0x3d018e87	0.031630065
29	0xbbf3228a	-0.007419889
30	0x3d456090	0.048187792
31	0xbd164641	-0.036688093
32	0x3d6f266c	0.05838625
33	0xbc0ebdda	-0.008712256
34	0x3d5212e3	0.051287543
35	0x3d5f37cd	0.054496575
36	0xbca601ab	-0.020264467
37	0xbd4662e4	-0.048434153
38	0xbbbe4bec	-0.0058073904
39	0xbb31ca3a	-0.0027128593
40	0x3d38787b	0.045036774
41	0x3c84f087	0.016227974
42	0xbc47463f	-0.012162744
43	0xbd353879	-0.04424331
44	0x3c166933	0.009180355
45	0x3d1164f3	0.035496663
46	0xbba6e798	-0.005093526
47	0x3d68d795	0.05684622
48	0x3d2f1895	0.042748053
49	0x3d89dba5	0.06731347
50	0x3ce480c7	0.027893437
51	0xbbb18170	-0.0054170415
52	0x3d078bed	0.033092428
53	0xbce5e18e	-0.028061654
54	0x3c4102c4	0.0117804445
55	0x3ca257dc	0.019817285
56	0x3c0c0dd9	0.008548223
57	0xbbcbae3e	-0.0062158396
58	0x3cdd5aab	0.027020773
59	0x3d34fed0	0.04418832
60	0x3a1b48f1	0.000592365
61	0x3d1a8293	0.03772218
62	0xbd36cdb6	-0.044629775
63	0xbc1c491b	-0.009538914
64	0xbc953ba2	-0.018216912
65	0xbc9a2819	-0.018817948
66	0x3ce08257	0.0274059
67	0xbc7a77e1	-0.01528737
68	0xbd4b1c89	-0.04958776
69	0x3ca58645	0.020205626
70	0xbd26739b	-0.040637594
71	0xbc93ba89	-0.018033283
72	0x37e57321	2.7352538e-05
73	0x3cf7c00e	0.030242946
74	0xbd3addef	-0.04562181
75	0x3bbe27a2	0.0058030644
76	0xbd9016cb	-0.070355974
77	0xbc1dcc8f	-0.00963129
78	0x3ba04e08	0.0048921145
79	0xbd4d21e7	-0.05008116
80	0xbd262013	-0.040557932
81	0xbd26fa49	-0.040766034
82	0xbcd1551b	-0.025553277
83	0xbccb11f7	-0.02478884
84	0xbd7ba11e	-0.06143295
85	0x3a43e240	0.00074723735
86	0x3d4f9d4c	0.05068712
87	0xbc25113b	-0.010074909
88	0x3cf5561b	0.029948285
89	0xbbc1813b	-0.005905298
90	0x3c953874	0.018215396
91	0xbc9fd9e4	-0.019513078
92	0x3b1bd024	0.0023775185
93	0x3d29e6b9	0.0414798
94	0x3d27166a	0.04079286
95	0x3d1b35f9	0.03789327
96	0x3d10b6cc	0.03533058
97	0xbd1fe7e2	-0.0390395
98	0xbd183f89	-0.037169967
99	0x3c203d41	0.009780229
100	0x3cb6c0f4	0.022308804
101	0xb9d06070	-0.00039744703
102	0xbcbb64aa	-0.022875149
103	0xbd6e07ff	-0.058113094
104	0xbbf28562	-0.0074011544
105	0x3c834bc4	0.016027339
106	0x3caa29f9	0.020771967
107	0x3b0fc5a7	0.0021937878
108	0x3ceb600b	0.02873232
109	0xbd164be2	-0.03669346
110	0xbd2e7158	-0.04258856
111	0xbc832154	-0.016007103
112	0xbc8aef8a	-0.016959924
113	0x3bf99fb5	0.0076179155
114	0x3d5cd7b2	0.05391664
115	0x3d76614a	0.060151376
116	0x3c5c921a	0.013462568
117	0x3c3e13b8	0.011601381
118	0xbd6a3b07	-0.0571852
119	0x3c395764	0.011312339
120	0xbd312a5c	-0.043253288
121	0xbd2b9651	-0.0418914
122	0x3ce50fbc	0.027961604
123	0xbd113818	-0.035453886
124	0x3d48f646	0.04906299
125	0xbc558184	-0.013031367
126	0x3cc57610	0.024104148
127	0xbc993212	-0.018700633
128	0xbd66bef8	-0.056334466
129	0xbb98a1ab	-0.004657944
130	0xbd053c86	-0.032528423
131	0x3ccf9c79	0.025343167
132	0xbd150611	-0.03638274
133	0x3cd9105f	0.026497064
134	0x3c09fab9	0.008421593
135	0x3d1a64bd	0.037693728
136	0x3d07d4a1	0.033161763
137	0x3b89d271	0.004205995
138	0xbd23dae3	-0.04000367
139	0x3ccdb9fa	0.025113095
140	0x3d8ac740	0.06776285
141	0xbd61c891	-0.055122916
142	0xbd0167f4	-0.031593278
143	0x3d5aac9f	0.05338728
144	0x3c15b62c	0.009137671
145	0x3d1219ca	0.035669126
146	0xbd634d94	-0.055493906
147	0x3bf36006	0.0074272184
148	0xbc2768fd	-0.010217902
149	0x3ccbf523	0.024897164
150	0x3cb7213a	0.02235471
151	0xbd8008ea	-0.062517
152	0x3d45fdc6	0.04833772
153	0xbd2273b6	-0.03966113
154	0xbd1fb511	-0.038991038
155	0x3cada85e	0.021198448
156	0xbd211c45	-0.0393336
157	0x3c8310e4	0.015999265
158	0x3ccdd8be	0.025127765
159	0xbd84196c	-0.06450161
160	0xbd37ede9	-0.044904623
161	0x3d1d48b4	0.038399413
162	0x3c5050ef	0.012714609
163	0x3d22876e	0.039679937
164	0x3d22c086	0.039734386
165	0x3bda6b24	0.006665604
166	0x3d03a5f1	0.032140676
167	0xbcc4602e	-0.023971643
168	0xbcf90c3f	-0.030401347
169	0x3d591e1c	0.05300723
170	0xbd7b9c5a	-0.061428405
171	0xbd0b0db3	-0.03394861
172	0xbd0a40dd	-0.033753265
173	0x3cdd3618	0.027003333
174	0x3b4688bc	0.0030293902
175	0xbc9fc8cf	-0.019504933
176	0xbd5c2871	-0.053749505
177	0x3cbe43c2	0.023225669
178	0xbc9477bf	-0.018123506
179	0x3c136f2b	0.0089986725
180	0x3d4127d9	0.047157142
181	0x3afc86fe	0.0019266305
182	0x3caf4f8b	0.021400234
183	0x3bbc7085	0.005750718
184	0x3cbec32b	0.023286423
185	0x3d575ce5	0.052578826
186	0x39e494fa	0.00043598545
187	0xbb5e553d	-0.0033925318
188	0xbca51dc7	-0.0201558
189	0xbbb15101	-0.0054112677
190	0xbd032695	-0.032019217
191	0x3d3f8d5f	0.04676568
192	0x39c4a934	0.000375101
193	0x3bf1568c	0.0073650535
194	0x3c65d9cf	0.01402898
195	0x3d734048	0.059387475
196	0x3d2eaddd	0.042646278
197	0xbcdfd959	-0.02732532
198	0xbd4d0111	-0.050049845
199	0xbb072b2e	-0.0020625102
200	0xbc9639cd	-0.018338108
201	0x3ce82bbe	0.02834117
202	0xbd3dfe94	-0.046385363
203	0xbb4a5ee7	-0.003087932
204	0xbcac6f02	-0.021049026
205	0x3c4bf2a9	0.012447991
206	0x3d05cbd8	0.032665104
207	0xbb668c2a	-0.003517876
208	0x3d16cb33	0.03681488
209	0xbd52a218	-0.051424116
210	0xbc4bfe62	-0.012450786
211	0x3b39e585	0.0028365564
212	0xbcdad64b	-0.026713511
213	0x3d75757d	0.0599265
214	0x3d23b07c	0.03996323
215	0x3d079a0f	0.033105906
216	0xba5e8bc8	-0.0008489457
217	0xbd50a2d5	-0.05093654
218	0x3cceae45	0.025229583
219	0xbbc7576a	-0.0060834186
220	0xbcfa2506	-0.030535232
221	0x3c1ed870	0.009695157
222	0x3c2bae5f	0.010478585
223	0x3d57d887	0.05269673
224	0xbd58a985	-0.05289604
225	0xbcbbfab3	-0.022946691
226	0x3cacfea7	0.021117521
227	0xbd0e18be	-0.034691565
228	0xbcaaf64e	-0.0208694
229	0x3d10dd59	0.035367344
230	0xbd0e38b6	-0.034722053
231	0xbb98d16c	-0.004663637
232	0xbc65105d	-0.013980952
233	0xbcf87395	-0.030328551
234	0x3d2ad11c	0.04170333
235	0xb9ae0b34	-0.00033196213
236	0x3ca58dd7	0.020209236
237	0x3b3d96f3	0.0028929084
238	0xbd06b89e	-0.03289091
239	0x3d9610fa	0.07327457
240	0xbd138e15	-0.03602417
241	0x3d1ed41a	0.038776495
242	0x3d869e68	0.06573182
243	0xbd213194	-0.039353922
244	0xbd69e613	-0.05710418
245	0xbc703a8e	-0.014662398
246	0xbd154043	-0.036438238
247	0xbcf55c43	-0.02995122
248	0xbd54900f	-0.051895197
249	0xbc7dc512	-0.01548888
250	0x3c92410e	0.017853286
251	0xbbdc0f15	-0.006715665
252	0xbd2bcc3a	-0.041942813
253	0x3d3e7000	0.04649353
254	0xbd3f2371	-0.04666466
255	0xbcd206ec	-0.025638066

decoder.2.bias f4 [32]
0	0x3d86efb0	0.065886855
1	0xbc98e936	-0.018665891
2	0xbbe6a25b	-0.0070383972
3	0x3d5e7997	0.054315176
4	0x3d791861	0.060814265
5	0xbc757846	-0.014982289
6	0x3d635c55	0.055507977
7	0xbcf648b3	-0.030063963
8	0x3d61fcaf	0.05517262
9	0xbd1b186c	-0.037865087
10	0x3d2ecd60	0.04267633
11	0xbc4f05a5	-0.012635623
12	0xbc79c1d9	-0.015243971
13	0xbd44acdc	-0.048016414
14	0xbc9604b5	-0.018312791
15	0x3d026b00	0.031840324
16	0x3d05d49a	0.032673456
17	0x3d98fbb8	0.074698865
18	0xbd1d84ae	-0.03845661
19	0xbc407082	-0.011745574
20	0xbd0e0926	-0.034676693
21	0xbc156ef0	-0.009120688
22	0xbbdd499b	-0.006753159
23	0xbcec842b	-0.028871616
24	0x3d1698f7	0.036766972
25	0xbc57d5d2	-0.013173537
26	0x3d19ace8	0.037518412
27	0xbcc9941b	-0.024606755
28	0xbcc258ca	-0.023723979
29	0xbd08553c	-0.03328441
30	0xbcb346da	-0.02188437
31	0xbc526945	-0.012842481

decoder.4.weight f4 [32, 3, 3, 3]
0	0xbc69a681	-0.014260889
1	0xbd952bfc	-0.0728378
2	0xbd49a477	-0.04922911
3	0x3c00b190	0.007854834
4	0xbcafd0c5	-0.021461854
5	0xbdf5571a	-0.11979504
6	0x3dc2e5be	0.09516476
7	0xbe3dd2d2	-0.18537453
8	0xbc716fc8	-0.014736123
9	0xbdf8fc06	-0.12157445
10	0x3d180d7e	0.037122242
11	0x3d91a5ed	0.07111726
12	0xbe093cfc	-0.1340217
13	0x3de1af98	0.1101982
14	0xbe334738	-0.17507637
15	0xbdc8a284	-0.097966224
16	0xbdb64efc	-0.08901784
17	0x3dc843ce	0.09778558
18	0x3e081f66	0.13293228
19	0xbe3d9a43	-0.18515877
20	0xbd00c0d0	-0.03143388
21	0xbe2f21f1	-0.17102791
22	0xbe38db62	-0.18052438
23	0xbdc08279	-0.09399886
24	0xbe54b20c	-0.20771044
25	0x3d593337	0.053027358
26	0xbe4a5946	-0.19760618
27	0x3e47e5fd	0.19521327
28	0x3e26525a	0.16242352
29	0x3e298ce9	0.16557659
30	0xbe0db48d	-0.13838406
31	0xbd58bfde	-0.052917354
32	0x3e2dde09	0.16979231
33	0xbe12a868	-0.14322054
34	0xbe05da69	-0.13071598
35	0x3e314c59	0.1731428
36	0x3d70e4d8	0.058811992
37	0x3d265eec	0.04061787
38	0x3e2d2607	0.16909038
39	0xbdcdafae	-0.10043274
40	0x3e4f40b1	0.20239522
41	0xbd11b46d	-0.035572458
42	0x3dc3088b	0.09523114
43	0x3d8bd2d0	0.06827319
44	0x3cdcd27b	0.026955834
45	0xbe265760	-0.16244268
46	0x3e0adeae	0.13561508
47	0x3dd5a792	0.10432352
48	0x3e294bd2	0.1653283
49	0x3e1c72db	0.15278189
50	0x3da1b7ff	0.078964226
51	0x3dcccf81	0.10000516
52	0x3d8d396d	0.06895719
53	0x3d349ffb	0.04409788
54	0x3d9f6f47	0.07784896
55	0xbd82fb60	-0.06395602
56	0x3e06d5e0	0.13167524
57	0x3dfda4a6	0.1238492
58	0xbe0767a2	-0.13223127
59	0xbe453cb4	-0.19261438
60	0xbe3de4fb	-0.1854438
61	0x3cd34fec	0.025794946
62	0xbe4f6fdd	-0.20257516
63	0x3dbe4d28	0.0929206
64	0xbdffaff8	-0.12484735
65	0xbe3de132	-0.18542936
66	0xbe0d27f8	-0.13784778
67	0xbd4056f4	-0.046957925
68	0x3df77deb	0.12084564
69	0xbd044150	-0.03228885
70	0xbe138899	-0.14407577
71	0x3e0431e5	0.12909658
72	0xbc863c5f	-0.016386209
73	0x3d1d93dd	0.03847109
74	0x3d7a9bed	0.06118386
75	0xbd351958	-0.044213623
76	0xbdd1df5f	-0.10247683
77	0x3e3b171d	0.18270536
78	0x3dcb96f6	0.09940903
79	0xbd6d8c3e	-0.057995073
80	0xbd9eb0d3	-0.0774857
81	0x3e221d51	0.15831496
82	0x3e201458	0.1563276
83	0xbddab65e	-0.10679315
84	0x3e33f581	0.17574121
85	0x3aa832ba	0.00128325
86	0x3dd03384	0.10166076
87	0xbd85fa8f	-0.06541931
88	0x3e206b1c	0.15665859
89	0x3e2e6654	0.17031223
90	0xbe07a69f	-0.13247155
91	0xbc92a898	-0.017902657
92	0xbe360413	-0.17774992
93	0x3d669c92	0.05630166
94	0xbe4b9b42	-0.19883445
95	0x3db19188	0.08670336
96	0x3e2cd9e8	0.1688
97	0xbd08e556	-0.033421837
98	0xbc45de82	-0.012076976
99	0xbdb21387	-0.08695131
100	0x3e374045	0.1789561
101	0xbd984e24	-0.07436779
102	0x3df88b2f	0.12135922
103	0x3d7a942f	0.061176475
104	0x3d1d4473	0.038395356
105	0xbe1c8c4c	-0.15287894
106	0xbdf0f0c5	-0.11764673
107	0xbd826cf2	-0.06368436
108	0xbe0e65c9	-0.13906015
109	0xbceed44b	-0.029153964
110	0x3dc7d9ac	0.097583145
111	0x3d1a66d8	0.037695736
112	0xbe410eaa	-0.1885325
113	0xbd28b1f4	-0.041185334
114	0x3ce6106c	0.028084002
115	0xbc68fcc1	-0.0142204175
116	0x3ce7f5d5	0.028315464
117	0x3d01ee8d	0.03172164
118	0x3d3a61d0	0.045503438
119	0xbde22776	-0.11042683
120	0x3ad3cd14	0.001615914
121	0xbdd962f6	-0.106145784
122	0xbdd554f4	-0.10416594
123	0xbdc0b745	-0.09409956
124	0x3d9c3d55	0.07628886
125	0xbcefd782	-0.029277567
126	0x3b19f574	0.0023492249
127	0xbd9dab38	-0.07698673
128	0x3e1b4e42	0.15166572
129	0xbdf4948e	-0.11942397
130	0x3d5ef7bb	0.054435473
131	0xbdfa3349	-0.12216813
132	0x3d3c7be1	0.046016578
133	0xbe19c73a	-0.15017405
134	0x3dfec847	0.124405436
135	0x3cc5999a	0.024121094
136	0x3d5c4113	0.053772997
137	0x3db43910	0.08799946
138	0x3cf83b0e	0.030301597
139	0x3d0149a3	0.031564366
140	0xbdbda8e9	-0.09260733
141	0x3e2e6107	0.170292
142	0x3d83578c	0.064131826
143	0x3bc29c0a	0.0059390115
144	0xbdcea304	-0.100896865
145	0xbe12931f	-0.14313935
146	0x3de41a0a	0.11137779
147	0x3d4130ac	0.047165558
148	0xbdb0029d	-0.085942484
149	0x3c8c2a31	0.017109962
150	0x3e25714b	0.16156499
151	0xbcfec503	-0.031099802
152	0x3dfa3218	0.12216586
153	0x3e507bd4	0.20359737
154	0xbcd5f711	-0.026118787
155	0x3d3f0653	0.04663689
156	0xbceca8f6	-0.02888916
157	0x3e1f1c52	0.15538147
158	0x3e2f9366	0.17146072
159	0xbd933811	-0.07188428
160	0xbdfb9035	-0.12283365
161	0x3de0029c	0.10937998
162	0x3e15fa7a	0.1464633
163	0xbe1c9c6b	-0.15294044
164	0xbe0bafa5	-0.13641222
165	0xbdf5abf6	-0.119956896
166	0x3dcd2bab	0.10018095
167	0x3e0776fb	0.13228981
168	0xbe3f2b79	-0.18668927
169	0xbd388047	-0.04504421
170	0xbe21983d	-0.1578073
171	0x3d6e9916	0.058251463
172	0xbc38f52f	-0.011288925
173	0x3e12d839	0.14340295
174	0xbd75b4d0	-0.05998689
175	0xbda614bf	-0.08109426
176	0xbe2730c9	-0.16327204
177	0xbdfeef03	-0.124479316
178	0x3df5bcbc	0.11998889
179	0x3c23c05e	0.009994594
180	0xbcad456e	-0.02115127
181	0xbe1565c0	-0.14589596
182	0xbbe21105	-0.0068990015
183	0xbc39f53a	-0.0113499705
184	0x3d8e2fac	0.069426864
185	0x3e0d6bbe	0.13810632
186	0xbe298ef2	-0.16558436
187	0x3c464503	0.012101415
188	0xbe1fdccd	-0.15611573
189	0xbc9774f2	-0.018488381
190	0x3ad9004e	0.0016555877
191	0xbcb7eb16	-0.022450965
192	0xbdbaef3c	-0.091276616
193	0xbe01f303	-0.12690358
194	0xbd2cc468	-0.042179495
195	0x3e1fea2b	0.15616672
196	0x3d540079	0.051758263
197	0x3e15f1d9	0.14643039
198	0x3b83a169	0.0040170443
199	0xbd33ee86	-0.043928646
200	0x3e092469	0.13392796
201	0x3c639d8e	0.013892544
202	0x3e0774d1	0.13228156
203	0x3d1533c5	0.036426324
204	0xbe0858d2	-0.13315132
205	0x3e43d733	0.1912506
206	0xbe3a43af	-0.18189882
207	0x3e2da481	0.16957285
208	0xbd2f1631	-0.042745773
209	0xbd516574	-0.051122144
210	0x3c337315	0.010952731
211	0x3d82558f	0.06363975
212	0xbdc6492e	-0.09681927
213	0x3d41631b	0.047213655
214	0xbdfa338d	-0.12216864
215	0xbe3d0ba7	-0.18461476
216	0x3e097a22	0.13425496
217	0xbe5b9a31	-0.21445538
218	0xbd8e5be4	-0.069511205
219	0xbe5fcced	-0.21855517
220	0xbe53f834	-0.2070015
221	0xbb3c2bae	-0.0028712559
222	0xbdc18c80	-0.094506264
223	0xbe599dae	-0.21251556
224	0x3d293b4b	0.04131631
225	0x3d9e101c	0.07717916
226	0xbd5677ec	-0.05236046
227	0xbd47d45e	-0.048786514
228	0xbd582e73	-0.052778672
229	0xbdaa7909	-0.08323867
230	0x3dcf6b57	0.10127895
231	0x3bdb850a	0.006699209
232	0xbe41dfb0	-0.18932986
233	0xbdedf7d5	-0.11619536
234	0xbd19b5d4	-0.03752692
235	0xbd8731a3	-0.06601264
236	0xbdf54ee7	-0.1197794
237	0xbe4d7be5	-0.20066793
238	0xbe597e0f	-0.21239494
239	0xbd608030	-0.05480975
240	0x3dc66522	0.09687258
241	0xbd996a40	-0.07490969
242	0xbc3686ba	-0.01114052
243	0x3e1663be	0.14686486
244	0xbe0d9163	-0.13824992
245	0xbd985f7d	-0.07440088
246	0x3b8f1924	0.0043670107
247	0x3d7124c1	0.058872942
248	0xbd4bc7f1	-0.049751226
249	0xbe2ff112	-0.17181805
250	0x3e35b8a9	0.17746224
251	0x3d3ebd6e	0.046567373
252	0x3de925a3	0.11384132
253	0x3c9401fa	0.018067349
254	0x3d5a17bf	0.053245302
255	0xbda9b3cb	-0.08286246

decoder.4.bias f4 [3]
0	0xbe49e085	-0.19714554
1	0xbceab493	-0.028650558
2	0x3d439488	0.047749072
