results/BaseCAE_RMSProp_best.pth (torch, 750633 bytes, 12 tensors)

encoder.0.weight f4 [32, 3, 3, 3]
000000 d5 1a f2 bc 32 62 ca 3c 68 38 14 3c 3c 99 41 3e
       -0.02955381 0.024705026 0.009046651 0.1890611
000010 49 34 bb 3a cb 57 04 be 8b 61 4d 3e 00 aa 73 3d
       0.001428255 -0.12924115 0.20056741 0.059488297
000020 f7 ba 1e be 01 8b 59 3d 76 ef 22 be c0 b3 88 3d
       -0.15501009 0.05311108 -0.1591166 0.066749096
000030 0f b7 71 bd df 03 4b 3e 62 03 28 be a1 d6 ca 3d
       -0.05901247 0.19825695 -0.1640754 0.099042185
000040 0d 25 b7 3d ca 82 0d be 11 30 e2 bc b1 75 43 3e
       0.08942614 -0.13819423 -0.02761081 0.19087864
000050 05 ad 07 3d e0 1a b7 3d cb ae 82 bd 90 78 44 3d
       0.03312399 0.08940673 -0.06380995 0.04796654
000060 e7 16 2c 3d ef e0 4d 3e ed ad cc 3d 12 2b 62 3d
       0.04201403 0.20105337 0.09994111 0.055216856
000070 3c a0 37 be 87 73 8a bd 50 ec 06 bd 19 41 47 3d
       -0.17932218 -0.06760316 -0.03294021 0.048646066
000080 74 b4 d1 bc df b0 d1 bd a0 ae c8 3a c9 81 2a be
       -0.025598742 -0.102388136 0.0015310831 -0.16651072
000090 d1 f9 1d 3d ed 4a f1 bd 73 a3 17 bd cf e0 f9 bd
       0.03856832 -0.11781869 -0.03702111 -0.12201082
0000a0 08 d0 25 3e 4b 5c 1a 3d 66 e9 14 3e a0 67 df bd
       0.16192639 0.037685674 0.1454216 -0.10908437
0000b0 ac 4c 39 3e 17 a9 16 3e 51 0d 38 3e ef ce 15 3e
       0.18095654 0.1471294 0.1797383 0.1462972
0000c0 e8 05 02 bb 2d e1 42 bd d2 32 52 bd bd 16 3e 3c
       -0.0019839946 -0.047578026 -0.051317997 0.011602101
0000d0 02 12 0c be 6a cb 2d bd ed 17 08 be 16 19 81 bd
       -0.13678744 -0.04243032 -0.13290377 -0.06303613
0000e0 87 83 ec bd 75 5a 33 3e 9a 42 3b 3e f3 06 82 bd
       -0.11548524 0.17514975 0.18287125 -0.06348982
0000f0 cb 1f 39 3d 8b d9 0f 3e 4e f8 f2 3d 1f 5c 8f 3d
       0.045196336 0.1404783 0.118637666 0.069999926
000100 3b 63 67 3c e4 20 77 bd 51 46 b6 bd 0e 34 19 bd
       0.0141227795 -0.0603341 -0.089001305 -0.03740316
000110 61 5d 4e 3d 38 8b 00 3c 39 6f 16 be 2e 3c 1f 3e
       0.05038202 0.007845692 -0.14690866 0.155503
000120 de 82 8e 3d 0d 6c e8 3d 1d 38 0f 3e 0a f6 16 3e
       0.06958555 0.11348734 0.1398625 0.14742294
000130 28 0e d9 bd fa 65 24 3d a5 a6 fa 3a 26 63 3a 3e
       -0.10598403 0.040136315 0.001912315 0.18201885
000140 22 17 46 3e 5e d4 e7 bc 4d a6 93 bd 06 ec d7 3d
       0.19344762 -0.028299507 -0.07209454 0.10543065
000150 be 98 51 3d 87 3d 66 bc b6 80 3a 3d 87 31 df 3b
       0.051171057 -0.014052755 0.045532905 0.006811324
000160 14 21 8b 3d f9 1b 95 3d 32 3a 14 3e 12 5e 7e bd
       0.067934185 0.07280726 0.14475325 -0.06210143
000170 1c 7a d1 bd b5 6d 89 3c 0a e5 21 3e 3a 9e d9 bd
       -0.10228369 0.016775945 0.15810028 -0.106258824
000180 19 2e 11 3e 98 d7 1a 3e 85 a1 a5 bd 12 5f b4 bd
       0.14177741 0.15121305 -0.08087448 -0.08807196
000190 f7 40 c6 bd 9e aa 80 bc 76 ef 45 be a9 5f 37 3e
       -0.0968036 -0.015706357 -0.19329628 0.17907585
0001a0 67 44 32 3e ff 24 38 be 08 12 ff bd 84 8d 18 be
       0.17408906 -0.17982863 -0.12454611 -0.14897734
0001b0 66 0b 25 bc 40 f8 44 be 85 4a 0f 3d 10 90 80 ba
       -0.010073518 -0.19235325 0.034983177 -0.0009808559
0001c0 f6 e2 c7 bd b7 ae 5a 3d 1e 2d a5 bd ba d8 b3 3d
       -0.09760086 0.053389277 -0.08065246 0.08781572
0001d0 e4 4a 02 3e fc 0e 35 3c e7 47 3e be 5a ea 25 3e
       0.12723881 0.011050936 -0.18582116 0.1620268
0001e0 db a1 42 3d 6b c2 2a 3e b4 01 79 3c f8 9b 1d be
       0.04751764 0.16675727 0.01519816 -0.15391529
0001f0 a0 41 19 be 9a 24 39 bd 82 b4 b1 3d f2 37 bb 3d
       -0.1496644 -0.04520092 0.08677007 0.0914153
000200 ac 55 bc 3c 92 58 2e bd 25 d3 7e 3d 30 05 18 3c
       0.02299007 -0.042564936 0.062213082 0.009278581
000210 7a 91 87 bd 3c ad 9f 3d c6 63 96 bd 84 78 d1 3d
       -0.06619544 0.07796714 -0.07343249 0.10228065
000220 0c 79 fc bd e5 20 0f 3d cf c7 b8 bd a8 dd 34 bc
       -0.12327775 0.03494348 -0.090224855 -0.011039175
000230 63 d2 60 3d 52 35 17 bd 82 1d 2a 3e 66 64 a8 3d
       0.05488814 -0.036916085 0.16612819 0.082222745
000240 f4 98 3f 3e 87 9f 79 bd 16 36 d4 3a b6 ac 53 bd
       0.1871069 -0.060943153 0.0016190435 -0.05167838
000250 24 7d ac bd c7 d6 0a 3e ba 9e 48 3e 6f 9e 10 be
       -0.08422306 0.13558494 0.195918 -0.14122938
000260 76 bd 6c bd c8 4c df 3d ce 6e 42 3e f1 c6 60 3c
       -0.05779787 0.10903317 0.18987581 0.013719306
000270 9d 6a 26 3e d1 6e 0e 3e d0 e1 a3 3d 06 33 89 3d
       0.16251607 0.1390946 0.08002055 0.06699185
000280 ea 8a 12 3e 37 9c 7a 3d 6e 1d 85 bc c4 19 10 bd
       0.14310804 0.061184134 -0.016249385 -0.035180822
000290 29 b0 e0 3b df 25 3e 3d 12 97 1d 3e 05 e8 1c be
       0.0068569374 0.046422835 0.1538966 -0.15322883
0002a0 05 26 68 3d 7e d8 82 bd 24 bf 4b 3d 83 f4 0a be
       0.056676883 -0.06388949 0.049742833 -0.13569836
0002b0 9e b4 a2 3d 00 b4 11 bd bb bf 8a 3c 4f 65 20 be
       0.07944606 -0.035572052 0.016937127 -0.15663646
0002c0 7b cc 11 be 4c 9e 16 be f7 4e 91 bd a3 b5 f4 bd
       -0.1423816 -0.14708823 -0.070951395 -0.11948707
0002d0 95 7f a0 bd fb 83 23 bd ba 25 35 3e 14 39 df bc
       -0.07836834 -0.03992079 0.17690173 -0.027248897
0002e0 eb a3 b3 3c 55 39 57 bd 70 1c 8b bc 5f a9 26 3e
       0.021928748 -0.05254491 -0.016981333 0.16275547
0002f0 4e df bb bc 68 42 d9 bd 0d be a1 bd 8e 32 31 be
       -0.022933628 -0.10608369 -0.078975774 -0.17304441
000300 0c 64 9e 3d 43 e3 5b bc 65 f2 05 bd ad 82 0d be
       0.07733926 -0.013420883 -0.03270187 -0.1381938
000310 b9 e6 37 be 45 17 86 bc 46 ae 28 3e 54 e9 00 3c
       -0.17959107 -0.016368518 0.1647273 0.00786813
000320 fa e3 b2 3b 3d 02 bf 3c 84 f2 11 3e a9 0f 21 bd
       0.005459306 0.023316497 0.14252669 -0.039321575
000330 77 30 cb 3b 27 ae 81 bd 0b b8 99 3c 5b 69 2f 3e
       0.006200846 -0.06332045 0.018764516 0.17130034
000340 8e 52 fd 3d 01 8f 66 3d 95 52 17 be 12 48 47 3e
       0.12369262 0.056288723 -0.14777596 0.19461086
000350 da d3 bc 3d 6d 30 27 be aa 7c 1b 3e 16 64 0c be
       0.09220095 -0.16327067 0.15184274 -0.13710055
000360 e1 1e d7 3d 9c 37 92 bd b7 e9 77 bd 67 21 0c 3d
       0.105039366 -0.07139513 -0.060525622 0.034211542
000370 6b 46 97 bd 2b 67 32 be aa 0c c0 bd 2b c4 fc bc
       -0.07386478 -0.17422168 -0.093774155 -0.030855259
000380 2b 98 27 3e 66 75 0b bc 65 c8 e6 bd 87 8c 65 3d
       0.16366641 -0.008511877 -0.11268691 0.05604222
000390 fb 44 22 be 57 2b ea 3d 85 42 29 3e ec 7a 5c 3d
       -0.15846626 0.11434048 0.16529281 0.053828165
0003a0 14 14 af bd 8e ba 2b 3d 22 03 de bd 92 85 12 3e
       -0.085487515 0.04192596 -0.10840441 0.14308766
0003b0 f5 5f 17 3e ab 80 17 be a6 53 dc 3c 2f de c0 b9
       0.14782698 -0.14795177 0.026895355 -0.00036786633
0003c0 48 83 e4 bd 1a cb 67 3c 51 40 3d 3e db 18 05 be
       -0.111578524 0.014147544 0.18481566 -0.12997763
0003d0 eb d1 15 3d be f3 d5 3d 8b 33 a9 3d 0b e6 27 bd
       0.036577147 0.10446881 0.08261784 -0.04099087
0003e0 ba 3f 13 be 57 45 96 bd 69 c3 2f 3e 5a 0a 05 3e
       -0.14379779 -0.07337444 0.17164387 0.1299223
0003f0 96 86 b0 bd 1c 5f 44 3e 17 f9 e4 3c 9f 3c bf bd
       -0.0861942 0.19176906 0.027950807 -0.093377344

encoder.0.bias f4 [32]
000000 1e 47 3d be 98 6a a1 3d cf 48 32 bd 2d 7f 37 3e
       -0.1848416 0.07881659 -0.043526467 0.17919607
000010 0b 38 6f 3d dd fb f2 bd bf ba 29 3e 1c 7b 73 bd
       0.058403056 -0.11864445 0.16575144 -0.059443578
000020 2f 7d d0 bb f4 71 d4 bd 75 60 e0 bd e4 07 01 3d
       -0.0063625793 -0.10373297 -0.10955898 0.031501666
000030 fc 9c 24 3e c1 4f 00 3e b7 a9 b2 3d 8b 8d 51 3e
       0.1607551 0.12530424 0.08723777 0.2046415
000040 b0 cf d3 bd cf 78 47 bd 04 7b d5 3c c2 4e 00 3e
       -0.103423476 -0.048699196 0.026059635 0.12530044
000050 e3 4f ed 3d a9 cc 2f 3e e2 ef 84 bd 39 c0 e1 bd
       0.11587503 0.17167915 -0.064910665 -0.11022992
000060 ce b0 d1 bd da 0f 92 bd 76 5b 00 3e a4 72 a2 3d
       -0.10238801 -0.0713193 0.1253489 0.07932022
000070 0b 61 47 3e 52 66 11 3c 6d 47 eb 3d 6b 1c 46 3d
       0.19470613 0.008874493 0.11488233 0.048366945

encoder.2.weight f4 [64, 32, 3, 3]
000000 31 bf b7 bc f8 8c 44 3d 36 ea 0a bc 62 75 8c 3c
       -0.022430034 0.047986 -0.008478692 0.017145816
000010 b5 c5 d0 bb 5b 54 83 3d 84 d1 1b bd 8f 5f 3e 3d
       -0.0063712248 0.06412574 -0.038041607 0.04647785
000020 eb 7c 2d 3d 0b cb a3 bc ba 1a 09 bd 42 25 10 39
       0.04235546 -0.01999428 -0.033472754 0.0001374679
000030 f7 f2 16 3d e7 5d 46 bd 70 3b b5 bc f9 6b a1 bb
       0.036852803 -0.048429396 -0.022123069 -0.0049262014
000040 62 be fa 3b d8 ac 6f bd 5e d4 4a bd ab 45 3c bd
       0.00765209 -0.058514446 -0.049518935 -0.045964878
000050 fe 5b c6 3c e1 b6 04 bd 64 17 40 3d ee 89 57 3d
       0.024213787 -0.03240097 0.046897307 0.052621774
000060 e9 44 ee 3c 34 b1 25 bd 7d c1 1c bc 4c f1 65 bd
       0.029085593 -0.040452197 -0.009567616 -0.05613832
000070 fd 81 3f 3c 41 a0 bf 3c c8 92 a1 bc 9c 43 d3 3a
       0.011688706 0.023391845 -0.019723311 0.0016118172
000080 fd ce a0 3c 10 3e 0a bd 9c b3 82 bb 5b 9d 85 bc
       0.01962995 -0.033750594 -0.0039886963 -0.016310384
000090 90 09 56 bb 7c aa af bb 5c 08 5b 3c 45 4f 65 bd
       -0.0032659508 -0.0053608995 0.013368692 -0.0559838
0000a0 fe 35 19 bd 96 d3 89 bc bf 23 61 bc dc 73 2f bb
       -0.037405007 -0.016824525 -0.013741433 -0.0026771938
0000b0 0d 23 6c 3c 79 99 00 3d 37 cc 69 3d bc cc 82 3d
       0.014412654 0.031396363 0.05707952 0.06386706
0000c0 10 9b f8 3c 5d a2 38 bd e9 88 62 3d 73 72 8e 3c
       0.030347377 -0.045076717 0.05530635 0.017388558
0000d0 9e aa 98 3c a7 d7 29 bd 0e 2c 84 3c 35 d5 b1 3c
       0.018636044 -0.041465428 0.016134288 0.02170811
0000e0 4d 10 23 bc d8 a7 71 bc bf c8 44 3d 7c 3f 48 3c
       -0.009952617 -0.01474949 0.04804301 0.012222167
0000f0 a1 cc 05 3d 56 c7 42 bb ac 99 ac 3c 6c e7 16 3d
       0.032665852 -0.0029720864 0.02106937 0.036841795
000100 b6 d3 d7 bb 34 cd e7 3b a5 fb c3 3b 02 5f 4e bb
       -0.006586517 0.0070740227 0.005980926 -0.0031489735
000110 91 a3 aa 3c 83 55 d8 bc 64 3a 86 3d 3e e5 18 bd
       0.020829948 -0.026407963 0.06554106 -0.037327997
000120 c8 cb ed bb 59 0c cf bc 03 2c 52 bc 5f 27 1f bd
       -0.0072569586 -0.025274443 -0.012827876 -0.038855907
000130 4f 45 c0 bc 34 44 8f 3c 73 f6 2d bd e1 4d 1a 3d
       -0.023470549 0.017488576 -0.04247136 0.037671927
000140 5c 5d f4 3a 4a 34 67 bc 4b 32 73 bc 2d a3 85 bc
       0.0018643546 -0.014111588 -0.014843534 -0.01631316
000150 de 91 01 3d 63 97 8e 3d 2a 92 40 bd 25 71 df bc
       0.03163325 0.069624685 -0.047014393 -0.027275631
000160 17 f7 d3 bc 38 36 48 3d 73 dd 93 bc c1 34 08 3d
       -0.025874658 0.048879832 -0.018049931 0.033253435
000170 c7 dc 84 bc b0 fb 32 bd 00 57 ed 39 5d 52 30 3b
       -0.016218556 -0.04369706 0.00045268983 0.002690456
000180 44 4f fe 3a be e2 fd bc e1 8f df 3c f5 d5 0a bd
       0.0019402285 -0.030991908 0.027290286 -0.03389545
000190 50 76 bc bc 2b 02 13 3c 7d 9d 1d bd 07 b4 46 bd
       -0.023005635 0.008972685 -0.03848027 -0.04851153
0001a0 5b 9d 0a bd 27 da 0c bc 3b 95 5e ba d6 78 a8 bc
       -0.033841472 -0.008596933 -0.0008490865 -0.020565432
0001b0 46 dc 5e bd c7 65 4a bd 5a 2c ed bc 5f 9c ca 3c
       -0.054409288 -0.04941347 -0.028951813 0.024732767
0001c0 34 bb 0f bd d6 de 29 bc 14 48 40 3d b9 05 0f bc
       -0.03509064 -0.01036807 0.04694374 -0.008729392
0001d0 24 17 29 3d 33 0f 80 3d d5 a8 6a 3d 7e 01 2a bc
       0.041281834 0.06252899 0.057289917 -0.010376332
0001e0 45 77 cf bb 8a 58 74 bc 4f c8 d1 bc 06 d7 d1 3b
       -0.0063313567 -0.0149136875 -0.02560821 0.0064038066
0001f0 ac 0c 6c 3d 3c b8 08 3c b1 a5 67 3c df f9 1b 3d
       0.057629272 0.008344706 0.014138625 0.038080093
000200 ce 7b 31 bc 52 b7 58 3d f8 a3 38 3d 87 6c 8c bc
       -0.01083274 0.052909203 0.045078248 -0.017141594
000210 54 e1 40 3d 0b 3c 42 3d 37 63 29 bd f0 45 e5 bc
       0.04708989 0.047420543 -0.041354384 -0.02798745
000220 18 d0 be bc 83 11 79 3d 11 5f 61 3d 33 af 2c 3d
       -0.023292586 0.060807716 0.055022303 0.04215927
000230 65 5e c4 bc 92 7d 1f bd 6e 33 12 bd 62 25 46 bd
       -0.023970792 -0.038938113 -0.03569358 -0.048375495
000240 80 0a 2e bb 55 1e d5 bb e4 1f 81 3d 7c cd 11 3d
       -0.0026556551 -0.00650386 0.06304911 0.035596356
000250 59 63 b4 bc a1 66 10 bc 98 fb 47 3d 1e 19 09 3d
       -0.022020029 -0.008813531 0.048823923 0.03347122
000260 0d cc a0 3b 2b 33 1f bc 6f 8f 9c bc fc ee 9e 3b
       0.0049071372 -0.009716789 -0.019111363 0.0048502665
000270 29 ea 7d bc de 6c cb 3c 01 49 00 bd f2 99 c9 bb
       -0.015497723 0.024832185 -0.031319622 -0.006152385
000280 aa 43 10 3d f9 88 ad bc 76 0b 18 bd 61 f1 e1 bb
       0.03522078 -0.021183478 -0.037120305 -0.0068952297
000290 a5 e8 1a bd 29 41 1d 3d ee c5 22 3d 4d 1e 13 3d
       -0.037819523 0.03839222 0.03973954 0.03591757
0002a0 2a 1c 22 bd 10 84 73 3d 3b 85 33 3c 94 2a 67 3d
       -0.03957764 0.059452116 0.010957058 0.05643709
0002b0 b1 57 98 bc a8 28 54 bd 11 95 3f 3c 16 d9 de bc
       -0.018596502 -0.051796585 0.011693255 -0.027203124
0002c0 f1 d4 67 3d 40 ee a1 bb f0 18 29 3d ce 33 03 3c
       0.05659956 -0.0049417317 0.041283548 0.008007957
0002d0 7d 7c eb bc d7 ab ce bc 86 f5 1c 3d f3 75 d5 3c
       -0.028745884 -0.025228424 0.038320087 0.02605722
0002e0 d1 91 5c bd 71 0d 97 bc 04 b5 16 3d 25 8e 78 3d
       -0.05385 -0.018439027 0.036793724 0.060682435
0002f0 f9 77 2c 3d 8f 7d 84 bd 80 77 03 bd 90 aa fe bc
       0.042106602 -0.06469261 -0.032096386 -0.03108719
000300 e9 1a 5f bd f4 58 2f 3d dd 0c 6f bd b4 ff 85 bd
       -0.054469023 0.04280944 -0.058361877 -0.06542912
000310 74 c2 11 bd 82 58 8f bc 6a c4 a0 bc aa da 86 3d
       -0.035585836 -0.017498259 -0.019624908 0.065846756
000320 76 da 02 bd 44 d2 22 3d 7f e5 8a 3d ef 8e c3 3d
       -0.03194662 0.039751306 0.06782054 0.09548747
000330 73 63 6a 3b 7c fd 12 bc 83 61 d7 bb ff 4d 62 3d
       0.0035764843 -0.008971568 -0.0065729036 0.055250164
000340 99 13 a3 3c a7 23 30 bc 04 d2 bb bc 8e 3f 14 3b
       0.019906806 -0.010750688 -0.022927292 0.002262089
000350 6f be 2d 3c b3 0f 7c 3c 54 0e 1c bd 60 ed 93 3d
       0.010604485 0.015384602 -0.038099602 0.0722301
000360 59 ec 23 3c d1 17 d7 bb 25 0a 87 3d 8d ed df 3c
       0.01000508 -0.0065641184 0.06593732 0.027334953
000370 8c 7b 87 3d 93 24 d9 bc 2f 99 c6 3b 32 5f 2a 39
       0.066153616 -0.026506698 0.0060607414 0.00016247926
000380 0a 3a 1c 3d 71 8f 62 3d 1e 8f 2c bd 39 55 ad bc
       0.038141288 0.055312578 -0.042128675 -0.021158801
000390 1b fb 07 3d 6e 8f 59 3d 08 ec 5e 3c 1e 5f 25 3c
       0.033198457 0.0531153 0.013606079 0.0100934785
0003a0 e7 ad aa 3b 03 84 62 bc 0a 7a a7 bc 18 8c af 3c
       0.005208719 -0.013825419 -0.020443935 0.021429107
0003b0 ae 98 5c 39 17 55 31 bb e3 a3 43 bc d0 65 d0 bc
       0.00021037713 -0.0027058774 -0.011940929 -0.025439173
0003c0 4b 14 5b 3d 42 74 b7 38 76 5b 81 bc c1 2f 9d 3d
       0.05348615 8.747775e-05 -0.015790682 0.07675124
0003d0 af 6c 81 3c 9e 14 ac bc 97 b0 94 3c 54 e9 eb 3c
       0.015798895 -0.021005925 0.01815061 0.028797783
0003e0 72 81 5c 3d d4 02 72 3c 3d 03 cb bc a3 f5 26 3d
       0.053834386 0.014771182 -0.024781818 0.0407616
0003f0 01 56 a8 3c 20 4a 30 3d e0 fe 40 3d 9f be cb bc
       0.020548822 0.04303944 0.047118068 -0.024871169

encoder.2.bias f4 [64]
000000 e9 88 ac bb 6d 65 9e 3d bf 6b cf bc 20 78 7f bd
       -0.0052653444 0.07734189 -0.025319932 -0.06237042
000010 40 2c 02 3c 98 d2 1b 3d cf d9 03 bc 3a 1f bf bc
       0.00794512 0.038042635 -0.008047535 -0.02333032
000020 a3 d3 84 bc f0 4f 77 bd f5 3d c0 3c af 55 f8 3c
       -0.016214198 -0.06037897 0.023467043 0.030314295
000030 41 87 ca 3b c8 40 ed bb 25 d4 0f bd fb 0f 64 3d
       0.0061806743 -0.0072403885 -0.035114426 0.055679303
000040 11 03 5c 3d 1c 7d b4 bc 4f 4a 4c bd a9 3c 67 3d
       0.05371386 -0.022032313 -0.049875554 0.056454334
000050 52 b4 4f bd c6 7f 67 3d 31 3d df bc bd 13 63 3c
       -0.050709076 0.05651834 -0.027250858 0.013859686
000060 33 fe 9e 3b 97 e8 7b 3c ab 2e 3b bd cb 4c 66 bc
       0.0048520803 0.015375278 -0.045698803 -0.014056395
000070 8d 5f 8a 3d dc 9b 39 bd b7 90 7e bc d6 84 a7 3c
       0.06756506 -0.045314655 -0.015537432 0.020449083
000080 14 1e 19 3d 74 b4 31 bd d7 54 93 3d 26 a8 52 3d
       0.0373822 -0.043384984 0.07193916 0.05142989
000090 d3 88 16 3d 53 78 e4 3a e8 98 34 bd ab bb 2a 3d
       0.03675158 0.0017430879 -0.044091135 0.04168288
0000a0 39 07 16 bd 18 39 8c bd e1 30 05 3d 4d c6 5b 3d
       -0.03662798 -0.06846827 0.032517318 0.05365591
0000b0 1a bb 3a bc 35 f6 a3 3c bf 34 68 bc 3c e5 5a 3c
       -0.011397148 0.020014862 -0.014172732 0.013360318
0000c0 41 19 31 3d ee fc 65 bc 28 3b bb 3c a4 87 7f 3d
       0.043236975 -0.014037354 0.022855356 0.062385216
0000d0 d2 3f 55 bb 22 03 01 3c d0 0a 6d bc 55 b1 4b bc
       -0.003253926 0.007874282 -0.01446791 -0.012432416
0000e0 2f 6e f6 3c 47 40 46 3c 0a fd 1f bd d0 df 2b bd
       0.030081837 0.012100286 -0.039059676 -0.04196149
0000f0 a3 9a 00 bd 93 55 25 3c 45 00 2a 3d fb 7f c0 3c
       -0.031397473 0.010091203 0.041504163 0.023498526

encoder.4.weight f4 [128, 64, 3, 3]
000000 c0 09 31 3c 47 6f 5e bc 34 34 8c bc c4 71 b8 3c
       0.010805547 -0.013576335 -0.017114736 0.022515185
000010 4c 2d f6 bc 33 dd 2c 3a 3e 6f ce 3b 5e 6c 12 bb
       -0.030050896 0.00065942405 0.006299882 -0.0022342424
000020 74 05 5f bd 09 3a 09 3d 56 09 2d bc 93 3d 65 3d
       -0.05444856 0.033502612 -0.010561308 0.055966925
000030 67 74 67 3d 80 6c 64 3d f1 3e c7 3b a2 1e 9e 3c
       0.056507494 0.055767536 0.0060805012 0.019301716
000040 f9 2b e8 3c 42 8b a5 bc 82 9e 93 3b 4c bc 55 bb
       0.02834128 -0.020208005 0.0045049796 -0.0032613454
000050 fb 79 37 3d 54 9a 53 3c 10 83 c2 3b 50 3d 27 bb
       0.044794064 0.012915213 0.005936034 -0.0025518723
000060 46 d8 c1 3b 19 b3 95 bd 95 04 0b bc c7 0c df bc
       0.0059156744 -0.07309551 -0.008484979 -0.027227772
000070 5e 57 bd bc e1 68 16 3c 7a b6 92 bc ba 03 81 ba
       -0.023112949 0.0091802785 -0.017909277 -0.000984303
000080 f6 7e 14 bd fd 3d 5b bd f1 4c 84 bb 9a c4 4b bd
       -0.036253892 -0.053525914 -0.0040374924 -0.04974804
000090 c4 b5 a6 bc d8 d9 ee 3c 2b 34 f1 3c 48 9e 16 3c
       -0.020350344 0.02915661 0.029443821 0.009193011
0000a0 e4 70 4c bd 8b 86 51 bd b2 ff fc 3b 8b 0c 27 bb
       -0.04991235 -0.0511537 0.007720911 -0.0025489654
0000b0 98 84 9a bc 8b 8d 5d 3d 39 9e 11 3b 03 26 9f 3c
       -0.018862054 0.054090064 0.0022219552 0.019427305
0000c0 63 01 57 3d 02 8b 47 bc fa 3d 70 3d 5a b2 a1 3d
       0.052491557 -0.012179138 0.058652855 0.07895346
0000d0 36 71 6a 3d e2 01 a8 3c 7d 16 64 3c 55 b6 35 3d
       0.057236873 0.02050871 0.013921377 0.04436334
0000e0 7a b2 ad 3c ef 6e bc bc 0f 0e 1a bd 6e 08 e6 bc
       0.021203268 -0.023002116 -0.037611064 -0.028080191
0000f0 31 d8 10 bd ec ba 91 bd a0 fe d3 ba b0 f5 37 bc
       -0.035362426 -0.07115731 -0.0016173907 -0.01122801
000100 c5 b3 21 3d 14 38 15 bc 60 49 8e 3a de 3b e2 bc
       0.039478082 -0.009107608 0.0010855608 -0.027616438
000110 f7 e3 15 bd 1e 16 1d bd e0 df 6e bc 7f 07 07 3d
       -0.036594357 -0.03835117 -0.014579743 0.032966133
000120 2c 41 7d bb 25 88 e7 3c 9e 32 92 bc ad 07 38 3d
       -0.0038643582 0.028263161 -0.017846402 0.044929195
000130 70 98 dd bc bc 81 87 bb 5f 2f f3 bc fa 2a d0 3c
       -0.027050227 -0.0041353386 -0.029685674 0.025411118
000140 3e 9b 0f bd 6b bb c3 3c bb 06 9a bc 12 5c f7 bb
       -0.03506016 0.023893079 -0.018802037 -0.0075488174
000150 e1 e6 4b 3c 59 22 7a 3b e8 d5 4f bc 77 19 12 bd
       0.012445183 0.0038167445 -0.012685277 -0.035668816
000160 b1 e7 94 bd d4 45 6f bc 42 53 b8 3c ec e3 1b 3d
       -0.07270754 -0.014604051 0.022500638 0.03805916
000170 82 ce 5b 3d c2 aa d5 bc 80 c5 90 3c 02 40 89 bc
       0.053663738 -0.0260824 0.0176723 -0.016754154
000180 66 c8 7d bd 4b 77 06 bd a5 0d 93 bd e1 e4 5b 3c
       -0.061958693 -0.03282861 -0.07180337 0.013421268
000190 5e 86 0c 3d bb 36 04 3d 0b d7 80 3d 18 29 0b 3d
       0.03430783 0.032278758 0.06291016 0.033974737
0001a0 b6 bf e0 3c 5f 14 34 3d c8 1a 51 3c fd af 99 3c
       0.027435165 0.04396474 0.012762733 0.018760676
0001b0 10 79 3c 3c e7 36 b5 3b ad f8 19 3c 06 ee 70 3c
       0.011503473 0.0055302265 0.009397668 0.014705187
0001c0 9b 6e 8c 3d 4c 3e 16 3c 6a 2b 34 3b f4 ac 93 3d
       0.06857034 0.009170126 0.0027491697 0.072107226
0001d0 60 8f be 3d 6a 66 2f 3d 7c 03 24 3b a6 aa 28 3d
       0.0930469 0.04282228 0.002502649 0.041178368
0001e0 bb 48 d6 bc 3c bd 9e ba ae d5 0d 3d 20 9f 75 bd
       -0.026157727 -0.001211084 0.03462761 -0.059966207
0001f0 a2 42 24 bd 0e 49 00 bd 5a 8e f6 bc 65 11 20 bc
       -0.04010261 -0.03131967 -0.030097175 -0.009769772
000200 8e cb 19 bc 93 12 09 3d 9b d5 7d bc 28 f9 f5 bc
       -0.00938691 0.03346498 -0.015492822 -0.030026034
000210 3f e1 27 3c 2a 20 d9 bc ac 71 0c 3d 24 1a 68 3c
       0.010246574 -0.026504595 0.034288093 0.014166389
000220 e0 a8 21 3d 8b f4 86 bc 0f 24 cd 3c 2c 2e b9 3c
       0.039467692 -0.016474029 0.025041608 0.022605024
000230 5e ca 0c 3d 60 49 a1 3d d0 86 8d 3d 12 9b 99 3b
       0.03437268 0.07875323 0.06910479 0.0046876753
000240 e6 b6 50 3d 46 06 b2 3c 99 9f 13 3d 59 51 99 3c
       0.050955676 0.021731507 0.036040876 0.018715547
000250 0d df 2a 3d 15 fc 91 3d 3d 18 8f 3d 64 2a 9b 3d
       0.041716624 0.07128159 0.06987045 0.07576445
000260 e5 7e 90 3d 51 0a 31 3c 8e bb 86 3d cd da 60 3b
       0.07055453 0.010805682 0.06578742 0.0034310103
000270 3c 3c 31 3d 0e 96 f6 bb 7b d8 7d 3d 08 a5 ec bc
       0.043270335 -0.007525212 0.06197403 -0.028887287
000280 93 92 c2 bc d5 78 0f bd c1 36 c9 bc 23 d0 37 3c
       -0.023751533 -0.035027344 -0.024562242 0.011219057
000290 59 d9 4f bb 55 3f 54 bd 35 9e 0e 3b af d3 ad bc
       -0.0031715243 -0.05181821 0.002176178 -0.021219103
0002a0 db f3 e0 3b f6 f8 99 bd 4e 51 52 bd c4 47 9a bc
       0.0068650073 -0.07518189 -0.05134707 -0.018833049
0002b0 96 cc 3f bc e6 c6 39 3d 58 d2 79 3d 08 56 2d 3d
       -0.011706492 0.0453557 0.060991615 0.042318374
0002c0 91 a0 34 bc cd 2a 89 3c b3 87 37 3c 24 db 66 3b
       -0.01102461 0.016744042 0.011201787 0.0035225833
0002d0 28 bb e0 3a 53 cb 12 3d 2a e8 31 bc 06 e4 8c 3c
       0.0017145621 0.035838436 -0.010858575 0.017198574
0002e0 b3 4c 55 bd 80 8b 23 bd d0 56 d2 3a 86 d2 0d bd
       -0.0520751 -0.03992796 0.0016047601 -0.0346246
0002f0 03 c0 39 bd b6 cc 18 3d e0 25 b8 bc b9 4a 5f bb
       -0.045349132 0.037304603 -0.022478998 -0.0034071638
000300 75 66 8d 3d f9 dc ac 3d 19 fd 78 3c 4c c9 85 3d
       0.06904308 0.08440585 0.015197062 0.06532535
000310 84 b8 95 3c 57 20 2d 3d f7 f2 50 3d e9 f2 0c 3d
       0.01827646 0.04226717 0.05101296 0.034411345
000320 59 47 47 3d 9d fd e5 3b 9c 32 9e 3d 3f b2 f3 3c
       0.048652027 0.0070187584 0.07724497 0.02974808
000330 08 8a 81 3d 93 fa f1 3c e9 83 aa 3d 25 d9 a4 bc
       0.063251555 0.029538428 0.08325941 -0.020123074
000340 74 02 88 3c 19 fe 4e bc ff dc ba 3c 8e 53 a4 3c
       0.016602732 -0.012633824 0.022810457 0.020059373
000350 95 2d 7d 3d 05 8c 08 3d 79 58 5e 3c 07 84 8a 3d
       0.06181105 0.033336658 0.013570898 0.067634635
000360 73 2d 31 3d 39 24 28 bb ee f4 a5 3c 80 a7 a1 3c
       0.043256234 -0.0025656356 0.020258393 0.01973319
000370 6c 0a 24 bc 77 7f dc 3c c3 ff 45 3d 83 d8 fc 3b
       -0.01001225 0.026916249 0.048339617 0.00771624
000380 04 4c a1 3d ff c8 5b 3c 4a 3a 22 3d c8 fc 63 3d
       0.07875827 0.01341462 0.03960637 0.055660993
000390 3f 4f 54 3d 37 c7 8f 3d 45 21 c8 3c d1 8c 17 3d
       0.051833387 0.07020419 0.024429927 0.036999527
0003a0 81 d1 80 3d 28 4c 2d 3d 79 dc 17 3d f9 f3 ff 3c
       0.0628996 0.042308956 0.037075493 0.031244265
0003b0 64 d7 1a 3d ac 7c 69 bc 84 6d 31 bd bd 3f a9 bc
       0.03780307 -0.0142509155 -0.043317333 -0.020660276
0003c0 56 04 cd 3b b4 90 69 bd 61 92 9f bb 7d cd 1d 3a
       0.0062566204 -0.057022765 -0.0048697446 0.0006019695
0003d0 6a ea f0 3c 61 6d cc 3c 91 76 0c bd ec 04 7c bc
       0.029408652 0.0249545 -0.03429276 -0.015382033
0003e0 b4 3d e9 3c 6d 3e bf ba 95 62 00 3d 27 a1 e9 3c
       0.028471805 -0.0014590748 0.031344015 0.028519226
0003f0 99 75 0d 3d dc 31 6d 3d bb a6 eb 3c b2 64 2b 3d
       0.034535978 0.057908878 0.028766027 0.041844077

encoder.4.bias f4 [128]
000000 e2 61 00 bc 0a 02 01 bd 8f 85 e8 3c 4e c9 99 ba
       -0.007835837 -0.031496085 0.028383998 -0.0011732967
000010 5c 03 4f bc bd 8c c3 3c b3 fe 92 bc 89 9c 80 3d
       -0.012635078 0.02387082 -0.017943716 0.06279857
000020 00 bd 3d 3c cb 03 f0 bb b7 e2 3e bc bb 35 22 bc
       0.011580706 -0.007324671 -0.011650733 -0.009900506
000030 45 71 e0 3c dd cf 9e 3b f1 f1 c2 3c d5 db e5 3c
       0.027397761 0.0048465566 0.023797007 0.028058926
000040 8b 7c be 3c 10 c1 7b 3d 96 f1 5d bb f5 ea 62 3b
       0.023252746 0.061463416 -0.003386592 0.0034624909
000050 d0 1a a8 bc 46 05 a7 bc 68 0b c9 bc c6 66 a0 bc
       -0.020520598 -0.020388257 -0.024541572 -0.019580256
000060 fb 98 ae 3c 09 1f f6 3b 7f a4 64 bc b6 59 b4 3b
       0.021313181 0.007511024 -0.013955235 0.0055038584
000070 e8 09 b2 bc a3 cd 97 3a e9 dc 94 bc 81 4d de bc
       -0.02173324 0.001158167 -0.018171744 -0.027136566
000080 c4 22 2c 3d f5 53 82 bc 54 28 8f bc 49 ff 30 3c
       0.042025343 -0.015909174 -0.017475285 0.010803052
000090 c5 5c bd bc c0 1c 64 bc d9 0c a6 3c f9 dd e5 bc
       -0.023115525 -0.01392287 0.020269798 -0.028059946
0000a0 c1 7b 8b bc e5 3e c5 3c 46 d0 a9 3c be fb 07 bc
       -0.017026784 0.024077842 0.020729195 -0.008299766
0000b0 83 24 5d 3d b1 88 94 bc f0 f5 2a 3b 65 91 e0 bc
       0.0539899 -0.018131586 0.0026086532 -0.02741308
0000c0 54 f9 89 3b 80 ac 82 bc 2a ed 82 3a e1 8d bd bc
       0.0042106304 -0.015951395 0.0009988893 -0.023138942
0000d0 91 8a 15 3c f2 f5 b3 bb e1 e7 01 bd 8b 53 8e 3c
       0.009127275 -0.0054919655 -0.031715278 0.01737382
0000e0 2f 68 20 bc 3f 43 64 bc d3 17 f2 3c c1 37 38 3d
       -0.009790464 -0.013932048 0.029552376 0.044975046
0000f0 44 43 05 bd d6 52 82 bb 5d 33 af 3b 9f c6 29 bd
       -0.032534853 -0.00397716 0.005346699 -0.041449185
000100 62 95 0d bd 1c 58 b3 3c 9c 7e 12 3d 3e 26 21 3c
       -0.03456629 0.0218926 0.035765275 0.009835778
000110 a0 3e 90 3c 8d a5 6e 3c 79 21 36 bd e0 69 b9 bc
       0.017607987 0.014565838 -0.044465516 -0.022633493
000120 3f 03 1f bd 3f 73 89 bc 5c b8 bb bc 62 7b c7 b9
       -0.038821455 -0.016778586 -0.022915058 -0.00038048165
000130 ac c6 3b 3c fe 7a f2 3c 67 f8 06 bd 3e 5f 3a bc
       0.011460941 0.029599663 -0.03295174 -0.011375247
000140 2f f5 2d 3c 1f 7a 5f 3d 5c 49 e9 3c 51 cb 99 3c
       0.010617538 0.054559823 0.028477363 0.018773707
000150 e6 90 5e 3c 6b c4 1c bd 02 de fc bc 19 86 d7 3c
       0.013584351 -0.038273256 -0.03086758 0.02630906
000160 51 a7 fc bc ef 92 94 3c b6 1b e4 3c 41 b1 a3 bc
       -0.030841501 0.01813647 0.027845245 -0.019981982
000170 bb 48 4a 3c 89 59 eb 3c bc c5 d8 3a d9 4d f4 bc
       0.012346442 0.028729217 0.0016538422 -0.029822277
000180 63 09 35 bc 8b c1 04 3d ff ec 13 3c dc 05 85 bc
       -0.011049601 0.03241114 0.009028672 -0.016238146
000190 dc 68 00 bd 2a 13 23 3d be 85 7c bc 65 4b cc 3a
       -0.03135 0.0398132 -0.015412746 0.0015586434
0001a0 15 26 94 3c 47 c5 18 bd 57 a4 19 3c b0 e9 1e 3b
       0.018084565 -0.037297513 0.009377561 0.0024248175
0001b0 f8 e1 2f 3b fd 27 8b 3b 83 47 fd bb c4 96 5c 3b
       0.0026837569 0.0042467103 -0.007729472 0.00336592
0001c0 f7 85 d3 3c 1b 7f 09 3d 3d de 32 3c c5 38 e9 ba
       0.025820715 0.033568483 0.010917244 -0.0017793408
0001d0 c5 88 4e 38 91 98 8c bc ea d5 d5 bc 9d bb 27 3c
       4.9241604e-05 -0.017162593 -0.026102979 0.010237602
0001e0 ca 67 2a 3d aa 3e 12 3d 19 a6 a3 3a 74 70 09 3a
       0.041602887 0.035704292 0.0012485414 0.0005242892
0001f0 4f 43 50 3d 0b 54 08 3d c2 ca e0 bc 78 72 03 3d
       0.05084544 0.033283275 -0.027440432 0.032091588

decoder.0.weight f4 [128, 64, 3, 3]
000000 30 85 15 3b 85 58 bc 3c 3a 90 61 bb 3f 33 15 bb
       0.0022814982 0.022991428 -0.003441824 -0.002276614
000010 33 d0 d1 bb 3d 33 29 3c 83 1a cd bc a7 ef 53 bc
       -0.006402993 0.010327158 -0.025037056 -0.012935556
000020 33 ed 5f bc 39 44 40 bb 93 a8 8f bc ff f7 d0 3b
       -0.013667393 -0.002933754 -0.017536437 0.0063772197
000030 12 7c 9b 3c 60 c9 5b 3d c5 98 43 3d 63 68 d5 3c
       0.01898006 0.053658843 0.047753114 0.026050752
000040 da 77 08 3c 47 e7 75 3c f2 a0 07 3d c4 e0 04 bc
       0.008329356 0.015008754 0.033112474 -0.008110229
000050 8f c8 25 3d 70 f9 a8 bc d4 11 00 3c 8b 83 a3 3c
       0.04047447 -0.020626754 0.007816751 0.019960186
000060 c3 1e a6 3c ed 77 41 3c c6 6a f3 3c 82 ee 34 3a
       0.02027834 0.011808378 0.029714 0.00069019955
000070 9d 7c 24 bb af eb 11 3d 3c ea 62 3c 02 09 6e 3c
       -0.002509869 0.035625156 0.013849791 0.014528515
000080 bc 20 2c bc 4a 13 c7 bc ce b8 e1 3c f4 25 c4 3c
       -0.010505851 -0.02430119 0.027553942 0.023943879
000090 a0 f9 96 3b 50 8e 6b 3c b0 85 94 3c 9e 71 9e bc
       0.0046073943 0.014377192 0.018130153 -0.019341286
0000a0 f4 f3 62 3d b0 9e 09 3b b3 ec 17 3d 88 fa d4 3b
       0.055408433 0.0020999126 0.03709097 0.006499592
0000b0 52 f3 03 3d 5c b9 db bb db c5 6b bc d3 93 cd bb
       0.03221447 -0.006705446 -0.014390434 -0.0062737255
0000c0 64 03 1d bd 64 56 df 3b b1 81 07 3d cc 4c 0c 3b
       -0.03833331 0.0068157185 0.033082668 0.002140808
0000d0 f4 95 d2 3c 13 2e 7d bb 4c 5b e9 3a 34 b7 04 bc
       0.025706269 -0.0038632199 0.0017803698 -0.00810032
0000e0 9d c7 34 bc 62 c2 f5 3c 72 ad 1b 3d 76 b2 8b 3c
       -0.01103392 0.029999916 0.038007207 0.01705287
0000f0 d6 b2 0f 3d 80 ad 2a 3c 33 aa 8b bc 2e fc 40 3d
       0.03508266 0.010417342 -0.01704893 0.047115497
000100 ce 21 8c 3c 00 e4 77 3d 6c e0 cb 3c dc 73 fd 3c
       0.017105963 0.060520172 0.024887286 0.030939035
000110 12 1d 1e bd 0f ad 0e bd 4c 79 d7 3c 30 ba 6e 3a
       -0.038601942 -0.03483301 0.026302956 0.00091067236
000120 1c b1 31 3d cd 6a ad 3c 8b 13 13 bc 8c 30 06 3d
       0.043381795 0.02116909 -0.008976827 0.03276114
000130 59 60 d2 3b c8 96 91 bb af 66 04 3d cc 8b 41 3d
       0.006420177 -0.0044430234 0.03232449 0.04725246
000140 e1 d8 11 3d f5 b7 01 bd c7 28 21 3c 9c 11 55 3c
       0.035607222 -0.031669576 0.009836382 0.013004687
000150 ae 74 80 3c 78 f0 98 3d a0 e9 9d bb 72 ac e0 3c
       0.015680637 0.07467741 -0.00481911 0.027425978
000160 e7 65 1d 3d 17 9c f9 3b 9a bb 25 bc 26 0b e6 3b
       0.03842726 0.0076174843 -0.0101155285 0.007020372
000170 26 5f ef bc b3 8b a2 3c 70 d8 e6 bb 8e 0b d4 3a
       -0.029220175 0.019842004 -0.0070448443 0.001617776
000180 20 18 06 3d a1 ad 49 3d c7 97 23 3d 4e 08 be bc
       0.03273785 0.04923785 0.039939668 -0.02319732
000190 76 1f 9a bc 1c fb 1c 3d a6 a8 10 3c 13 ff cb 3b
       -0.01881383 0.038325414 0.008829271 0.0062254756
0001a0 a4 f0 cd 3b 93 14 8f 3c 40 44 3f bd 73 02 9c bb
       0.00628479 0.017465865 -0.046695948 -0.004761034
0001b0 02 b2 c2 3c 50 97 e2 3c 28 33 8f bc 24 4f 93 bc
       0.023766521 0.027660042 -0.017480448 -0.017982073
0001c0 81 e0 9b 3c b3 fc c3 bc 34 a0 f7 3c 1e 4d 0e 3c
       0.01902795 -0.023924207 0.030227758 0.008685378
0001d0 a8 0b 25 3d 88 e3 55 3d 11 fe fb ba 6d 3e ba bc
       0.04029432 0.052218944 -0.0019225498 -0.022734845
0001e0 e5 3a 12 3d ee da 3b 3d e1 20 01 bc 09 84 d5 3c
       0.035700697 0.045863084 -0.007881374 0.026063936
0001f0 d8 a4 18 3d a7 b3 0c bd ad 5f 5f bd 93 6e f2 3c
       0.037266582 -0.034351017 -0.054534603 0.029593742
000200 ef 1d d8 bc 90 9a 21 3b 7c 49 21 3d 90 f9 af bc
       -0.026381461 0.0024658777 0.03937672 -0.021481305
000210 44 1f da 3c 13 18 98 3d 76 dc 9b 3d be c9 6e 3d
       0.026626237 0.07426467 0.07610409 0.058297865
000220 60 97 87 3d 21 4e 16 3d 6f c1 b8 bc 48 a9 a5 3b
       0.06620669 0.036695603 -0.022553174 0.0050555803
000230 02 77 f8 3b 66 ae 12 3c 67 af eb bc 5c 97 5b 3c
       0.007582546 0.008952713 -0.028770162 0.013402786
000240 99 7f ff bc 59 b8 2a 3c ea 33 9c 3c a2 33 73 3c
       -0.031188773 0.0104199285 0.019067723 0.014843853
000250 d1 f7 88 3c ad c9 29 3b 45 15 2b bb 15 46 7f 3d
       0.01671973 0.0025907562 -0.0026105207 0.062322695
000260 eb b3 f7 bb 32 48 26 bb d4 80 c5 3b 35 0b b6 bc
       -0.0075592897 -0.0025372622 0.0060273204 -0.02222214
000270 d9 8d 7a 3c f2 0d 3e 3d d2 24 ed 3c 79 e4 f9 bc
       0.015292608 0.046400018 0.028948221 -0.030504452
000280 69 06 94 3c 2f e7 00 bd 9f 46 f7 bc 32 0f dd 3c
       0.018069463 -0.031470474 -0.030185042 0.026984785
000290 10 e5 a6 bc 5c 0a 75 3d 6b 81 63 ba 0f ed 23 3c
       -0.020372897 0.059824333 -0.00086786476 0.01000525
0002a0 3b d3 4b 3b b1 a7 04 bd c6 8b 7d bd 25 fc 35 bd
       0.0031101245 -0.032386485 -0.061900876 -0.044429917
0002b0 e8 46 dc 3c 76 fc 6f 3c d7 da ec 3c 26 3b 44 3c
       0.02688928 0.014647594 0.028912945 0.011976993
0002c0 5b a4 be ba 85 5a 06 bd 62 45 45 3d f0 b9 34 3c
       -0.0014544831 -0.03280117 0.04816187 0.011030659
0002d0 71 57 19 bd ce 3c 49 3d 6f 4c 82 bc dd 03 4a 3d
       -0.037436906 0.049130253 -0.015905587 0.04932009
0002e0 2c f0 a2 3c 6c 96 5d 3d 19 67 e6 bc 27 de 10 3d
       0.019889913 0.05409853 -0.028125333 0.03536811
0002f0 1f 10 a2 3b 1b 09 20 3d e7 e3 55 3d 86 05 93 3b
       0.0049457694 0.039071184 0.052219298 0.0044867424
000300 2d 1d 9c 3b 14 c5 c2 3c 2c 5c 76 3c 89 da 53 3c
       0.00476422 0.023775615 0.015036624 0.012930521
000310 67 8f 3e bd eb 83 b5 bc 5c 1a 4d bd ae 95 e3 3c
       -0.046523478 -0.02215763 -0.050073966 0.027781334
000320 d6 9e 72 bc fa 24 91 3c d1 1f 9c 3a b2 e3 74 3c
       -0.014808377 0.017717827 0.0011911337 0.014946865
000330 60 7a 27 3b ab 97 ef 3c 15 40 13 3d 94 3d 2e 3b
       0.002555512 0.029247126 0.035949785 0.0026586996
000340 ef 6d d4 3b ce 77 da 3c b1 8f 77 3d e9 f8 81 3c
       0.0064828317 0.026668455 0.06043977 0.01586576
000350 e2 a2 21 3c 52 b1 be bc 4c 53 1e 3d 7f 6d b3 bc
       0.009865494 -0.023277912 0.038653657 -0.021902798
000360 e4 6b 1d bc 25 f6 60 bb ee f3 af 3c 82 51 3c 3d
       -0.009608243 -0.00343264 0.02147862 0.04597617
000370 18 cb 35 3d e3 c9 75 3d 4c c6 9d bc 7e b2 4e 3d
       0.04438314 0.060006987 -0.019259594 0.050463192
000380 de 45 e8 3c 65 b1 7c bc aa 06 9c bb a2 fb a1 3c
       0.028353628 -0.0154231535 -0.0047615366 0.019773308
000390 75 6f 96 3c 60 48 10 3d 5e e2 36 3d 4f 36 02 3c
       0.018363694 0.035225272 0.044649474 0.0079475185
0003a0 45 94 16 3d 94 2b 18 3d f1 5c 1e 3d 81 76 3e 3d
       0.036762495 0.037150934 0.038662855 0.046499733
0003b0 cd e5 43 3d e3 e9 3d bb 3a b6 f8 3c f4 e2 cd bc
       0.047826577 -0.0028978519 0.03036033 -0.025132634
0003c0 46 66 92 3c f8 2b fb bc 51 bb 10 bd f7 fd 4a 3c
       0.017871033 -0.030660614 -0.03533489 0.0123896515
0003d0 60 fb ff bc 2b c9 f7 bc 4e a3 fa bc e3 90 77 3d
       -0.031247795 -0.030247292 -0.030595448 0.06044091
0003e0 1b 4e 80 3b d3 7f e8 3c 58 d2 94 3c b5 45 83 bc
       0.003915561 0.028381264 0.018166706 -0.01602445
0003f0 86 09 a5 3c 82 5c 4e 3c 28 5d 24 3d b6 38 22 3c
       0.020146143 0.012595298 0.040127903 0.009901216

decoder.0.bias f4 [64]
000000 c0 ba 4e 3d 83 d2 38 3c 37 b2 51 3b 3a 65 d0 3c
       0.050471067 0.011280659 0.0031997093 0.025438894
000010 1d e8 66 3c 87 05 cd 3c ad 93 90 bc 6e 89 00 bd
       0.014093426 0.02502705 -0.017648542 -0.031381063
000020 86 bc 21 3d c6 04 79 bc 0e 9a 73 3d 19 fb f1 bc
       0.03948643 -0.015198892 0.05947309 -0.029538678
000030 a7 72 bf 3b 91 63 13 3c 32 16 bd 3b 5f 29 f4 3b
       0.005842525 0.008995906 0.005770468 0.007451221
000040 cd bd 14 3d eb b7 0a 3d 34 cb 1e bd 5f be 17 3d
       0.03631382 0.033866804 -0.03876801 0.037046786
000050 0c f9 03 3d bb 7b c0 3c fe b3 b8 bc 16 7b 08 bc
       0.03221993 0.0234965 -0.022546764 -0.008330127
000060 66 d7 7c 3c 44 d4 e0 bb c9 6a 5e 3c 0d 19 63 3d
       0.015432214 -0.0068612415 0.013575264 0.055443812
000070 f4 e4 bd 3c 2f bd e1 3a fc 19 97 3c 87 bf 0e bd
       0.023180462 0.0017222519 0.018445008 -0.034850623
000080 70 50 0f 3c c1 99 06 3d 88 a0 5f 3d d1 98 3b 3c
       0.008747205 0.032861475 0.054596454 0.0114500085
000090 54 d8 8a 3c cc c6 72 3d 5d 19 c7 bc 58 fa 93 3c
       0.016948856 0.05927162 -0.024304086 0.01806371
0000a0 e7 ce ce bb 17 89 9c bc 69 26 9f bc 64 b8 1c bc
       -0.006311286 -0.019108338 -0.019427495 -0.0095654465
0000b0 4c 07 6d bc e4 d9 d5 3b f4 a7 3c 3d ee 60 b7 3c
       -0.014467072 0.0065262187 0.04605861 0.022385087
0000c0 e7 3d e1 3c 7d d4 7f bc 45 d4 e0 3a 38 0d 34 bd
       0.027495338 -0.015614626 0.0017153105 -0.04395792
0000d0 68 76 c9 bb 6a b4 f4 3c 46 33 67 3d f7 6b ed bb
       -0.0061481483 0.029871184 0.056445383 -0.0072455364
0000e0 0d 10 8d bc b6 8b 31 bd ed 0e 07 3d 08 f6 92 3b
       -0.017219568 -0.04334613 0.03297322 0.0044848956
0000f0 12 67 36 b9 07 b1 fd 3c 02 12 45 bc e0 73 cd 3b
       -0.00017395269 0.030968202 -0.012028219 0.006269917

decoder.2.weight f4 [64, 32, 3, 3]
000000 95 7e c3 3c fc 78 20 bc c2 b9 2d bd 7c 7d 55 3d
       0.02386407 -0.00979447 -0.04241348 0.052121624
000010 70 e1 7e 3c e2 d0 14 bd 5e fd bb bc 1b 2b 71 bd
       0.015556678 -0.03633202 -0.022947963 -0.058879
000020 2a 03 36 3d ed 1b 11 bd 65 be 05 bd 25 ad 48 bc
       0.04443661 -0.035427023 -0.032652277 -0.012248312
000030 a1 90 17 3d 9e af 6e 3d c2 7d 3c 3d 03 fe a3 bc
       0.037003163 0.05827295 0.04601837 -0.020018583
000040 42 d1 02 bd 43 0f 9d 3c 03 94 fb bc 40 40 6d 3c
       -0.031937845 0.019172316 -0.030710226 0.01448065
000050 98 2d 3e bd 3a b6 2c 3d 6e 68 25 bd 24 c1 38 bd
       -0.0464302 0.042165972 -0.040382795 -0.04510607
000060 db e5 8c bd 65 fe 48 3d 6c f4 43 bd d8 c7 33 3d
       -0.06879779 0.049070735 -0.04784052 0.043891758
000070 2b c1 54 bd 5b 71 41 3d 87 89 42 bc 3b d2 32 3d
       -0.05194203 0.047227245 -0.011873609 0.043657523
000080 bd 1a 88 bc a6 43 58 bc 02 07 c0 ba db 60 a3 bb
       -0.016614312 -0.013199722 -0.0014650526 -0.0049859113
000090 6d 1b 7d 3d df 48 08 bd 19 22 11 bd 62 75 ea 3c
       0.061793733 -0.03327262 -0.03543291 0.028620426
0000a0 e3 38 29 3d b5 a9 2b bd da a1 14 3d 4b 91 39 3d
       0.041314017 -0.041909892 0.036287166 0.045304578
0000b0 8d 43 c3 ba 33 da 11 ba 10 f5 ea 3c 36 60 82 bb
       -0.0014897451 -0.0005563825 0.028681308 -0.0039787544
0000c0 f3 3c e0 3c a7 25 be bc b6 e8 f2 bc ae 26 4f 3d
       0.027372813 -0.023211313 -0.02965198 0.050573997
0000d0 ed e2 5c 3c 33 8c 13 3d a3 85 1f bd b6 6d 38 bd
       0.013481838 0.036022376 -0.038945805 -0.045026504
0000e0 91 1d 93 bc f7 23 50 3d dc d3 27 3c 0d b4 05 bd
       -0.017958434 0.05081555 0.010243382 -0.032642413
0000f0 c3 c2 88 3b 57 1e 7e 3b ec fa 20 3d c4 f5 23 ba
       0.004173608 0.0038775408 0.039301798 -0.00062545785
000100 54 e0 6f 3d 1c 01 cf 3a 3a 5e ca 3c 0d 1f ac 3c
       0.058563545 0.0015793177 0.024703134 0.0210109
000110 ae ca d0 3c 9a 42 3a 3d 10 80 4b 3d 35 02 24 bd
       0.02548727 0.045473672 0.049682677 -0.040041167
000120 02 c1 71 3d c3 d9 91 bc ab 9f c2 bc 18 ab 1e bc
       0.059021957 -0.017804032 -0.023757776 -0.009684347
000130 5f 34 89 3d 71 38 20 3d 50 48 0e 3d f0 ee 32 3c
       0.06699442 0.039116327 0.03473693 0.010921225
000140 78 b6 94 3d f0 48 42 3d 95 f7 9f bb 20 88 cf bb
       0.07261366 0.04743284 -0.004881809 -0.006333366
000150 c9 4f 97 3c 89 28 f6 3c c0 94 e4 3b 78 2a 1d 3d
       0.018470662 0.030048626 0.00697574 0.03837058
000160 d6 05 6a bc 87 5d 4e 3d 74 68 02 bd 72 80 2a 3d
       -0.014283618 0.050382163 -0.031837896 0.0416264
000170 76 88 5f 3d 24 03 32 3d 0c 85 a5 3d 00 44 a4 3d
       0.0545735 0.043460026 0.08082017 0.080207825
000180 3f f6 a0 3c 2d 8c f4 3c 97 c5 ed 3c 89 bf 20 bd
       0.01964867 0.029851997 0.029024882 -0.039245162
000190 18 f6 5b 3c 28 5b e1 bc b4 18 81 3c 1f 33 32 bd
       0.013425373 -0.027509287 0.01575885 -0.043505784
0001a0 d8 f2 11 bb bd b4 2f 3c 32 c1 f8 bb 06 65 b8 bc
       -0.002226999 0.010724244 -0.00759139 -0.02250911
0001b0 46 69 1c 3d 3d a2 18 3d 39 08 c4 3c e2 97 1c 3d
       0.038186334 0.037264097 0.023929702 0.038230784
0001c0 06 6e e3 3c 52 9b 9b 3c 70 7e 2f bd 18 39 f8 bc
       0.027762424 0.018994961 -0.04284519 -0.030300662
0001d0 19 fb 52 3c 2f 3c 2d bc af 1c 8e 3c 99 21 88 3c
       0.012877249 -0.010573431 0.017347662 0.016617583
0001e0 af 4c 50 3d ca af 09 3d f1 38 c9 3c 98 4d 58 3b
       0.05085438 0.03361491 0.024563285 0.0033005234
0001f0 52 2e 70 3b 0c 93 11 3c c3 5f f0 bc bf b6 e3 3c
       0.0036648703 0.008885156 -0.029342538 0.027797101
000200 c1 63 9a 3c 5e bc 14 3d 6b 8c 31 3d 8e 6f 5e bd
       0.018846394 0.036312453 0.043346804 -0.054305606
000210 9f a2 48 3c 7c 04 08 3d 02 a2 11 3d ed 76 23 3c
       0.012245803 0.0332074 0.035554893 0.009977085
000220 ce 66 0a bd 7c f9 32 3c 71 7f 9e bc 63 ab 74 bd
       -0.03378945 0.0109237395 -0.019347878 -0.05973376
000230 30 58 0b 3d bd 55 bf 3c 09 67 4a bd c8 1c bb bc
       0.03401965 0.023356313 -0.04941467 -0.022840872
000240 a9 9d a5 3c 3a a9 87 bc 9c 68 55 3d a4 4a a3 bc
       0.02021678 -0.016560186 0.052101716 -0.019933052
000250 8d 94 62 bd 6a 83 a1 bc 13 fa 38 bd 9c a1 4c 3d
       -0.05531745 -0.019715983 -0.045160364 0.04995881
000260 d1 7e 38 3d 73 e9 c9 3c 44 ab 31 ba cf 8c 88 3c
       0.045042817 0.02464745 -0.0006777535 0.016668705
000270 12 25 01 bd 95 0d aa bc 3d fa 9c 3c 4f 04 3b 3c
       -0.031529494 -0.02075843 0.019162292 0.0114146015
000280 73 97 95 3c 8f 69 54 3d 7e 23 fb 3c 7e ff fc bc
       0.018260693 0.05185848 0.030656572 -0.030883547
000290 3d b8 21 bd 35 23 0d bb 99 84 0c bd e5 fe 36 bd
       -0.039482344 -0.0021535878 -0.034306142 -0.04467668
0002a0 3b de a8 bc 55 35 6d bd c4 3b 4c bd 39 9e 07 3c
       -0.02061378 -0.05791219 -0.049861684 0.008277469
0002b0 99 8b 86 bc 1f 8e 14 bd 3b da 98 3c ba cb 9a bb
       -0.016423987 -0.03626835 0.018658748 -0.004723993
0002c0 f2 0a 0d 3c 06 a9 66 bc 46 f1 87 bd c4 e1 49 bb
       0.008608567 -0.014078384 -0.06637816 -0.0030804733
0002d0 95 17 cd bc 19 1c 89 3d 0a 31 4f 3d bf ec 2b bd
       -0.025035659 0.06694812 0.050583877 -0.041973826
0002e0 4b 9d ae 3d d5 42 d8 3c 05 1e a5 bc 91 f6 75 bc
       0.08526095 0.026399055 -0.020155916 -0.015012399
0002f0 fa 9c c0 3c 64 a8 ef bc 76 66 e8 3c 0a 2a 26 bc
       0.023512352 -0.0292551 0.02836917 -0.010141859
000300 6e 46 0c 3d 89 f6 5d 3d 26 57 92 bc 58 a4 11 3d
       0.034246854 0.054190192 -0.017863821 0.03555712
000310 af ba 40 bd cb a3 69 3d 91 00 f4 bc 60 9e b7 3a
       -0.047053035 0.05704097 -0.029785426 0.0014008991
000320 19 35 25 3c a7 86 d0 3c d5 ec 02 3d 36 6a 01 bc
       0.01008346 0.025454832 0.031964142 -0.007898858
000330 fd 42 13 3d d2 94 e6 bc 3c cd 68 bd 46 19 cb 3a
       0.035952557 -0.028147135 -0.05683635 0.0015495203
000340 47 97 c3 bb 63 de ae 3c 30 c7 2b bd 3b 12 13 bd
       -0.0059689614 0.021346277 -0.041938007 -0.035906058
000350 7a 61 06 bd 09 65 0e 3d 01 79 04 bd 5e 7e 04 3d
       -0.032807805 0.034764323 -0.03234196 0.032347076
000360 66 ae 02 bd 8f b1 6f 3c ae 3e 36 bd 5f 28 28 bd
       -0.0319046 0.014629736 -0.04449337 -0.041054126
000370 88 97 c1 3c 06 38 fa bc d9 36 5c bd e0 55 2c 3d
       0.023631826 -0.030544292 -0.053763244 0.042074084
000380 e7 56 25 3d 61 5d 70 3c 71 c7 3f 3d 24 37 ba 39
       0.04036608 0.014670701 0.04682106 0.00035517768
000390 de 4a 56 3d 2d d4 91 bb a0 82 99 bc f7 b1 dc bb
       0.052317493 -0.004450342 -0.018739045 -0.0067350823
0003a0 1b 4a 9b bc b2 a6 c8 bc 6c 1c 48 3d b7 e0 fb bc
       -0.018956235 -0.024493549 0.04885523 -0.0307468
0003b0 ca a7 6e 3d c3 8d 79 bd d0 b2 76 bd 72 ea c1 bc
       0.058265485 -0.06092621 -0.060229123 -0.023671363
0003c0 0c dd 99 bc bf 0f a9 bc 3d 35 21 bd 77 3b 17 bd
       -0.018782161 -0.020637391 -0.039357413 -0.036921944
0003d0 32 fb 3f bc 21 d0 30 bd e1 a3 f5 3c d2 72 5c 3d
       -0.0117176045 -0.043167237 0.02998537 0.05382044
0003e0 d5 7c 95 bc f0 a2 4c 3d 3c 63 96 bc ae 6f 17 bd
       -0.018248001 0.049960077 -0.018357866 -0.03697174
0003f0 be 9d a6 bc df 09 05 3b 80 a2 8f 3d ff d2 da 3c
       -0.02033889 0.0020300073 0.07013416 0.026711939

decoder.2.bias f4 [32]
000000 aa 4e 07 bd 4d 18 bf 3c b7 80 fd bc 3c 32 61 bd
       -0.033034004 0.023327017 -0.030945165 -0.054979548
000010 64 71 14 3d ba a9 31 3d 2f 1b 43 bd 06 40 16 3d
       0.03624095 0.043374754 -0.047633346 0.03668215
000020 54 48 fb 3c c8 45 17 3d f6 d8 72 3d 97 71 35 3d
       0.030674137 0.036931783 0.05928894 0.04429778
000030 67 b1 53 bd 54 ab 7d 3d 21 a2 8f bc 54 d0 35 bd
       -0.051682856 0.06193097 -0.017533364 -0.04438813
000040 5b b9 39 bd 88 5a 46 bd a9 13 6b bc 22 a9 4f 3d
       -0.045342784 -0.04842618 -0.014347949 0.050698407
000050 54 be 3a 3a bf 7a 0a 3d a8 d6 dc bc 42 c3 c1 3b
       0.0007123698 0.033808466 -0.026957825 0.005913169
000060 ec 82 c0 bb 6e a2 b1 bc 61 19 e4 3c ab 1c 13 3d
       -0.005874982 -0.021683898 0.027844133 0.03591601
000070 eb 12 a1 3c 70 37 04 3d 70 8e 56 bd ec a7 4b 3d
       0.019662341 0.03227943 -0.052381933 0.04972069
