results/DenoisingCAE_RMSProp_best.pth (torch, 750851 bytes, 12 tensors)

encoder.0.weight f4 [32, 3, 3, 3]
000000 05 75 c6 bc ed cd 8e bd 69 00 15 3e 51 3d 2f be
       -0.024225721 -0.06972871 0.14550938 -0.17113234
000010 45 e8 fd bd c3 18 08 3d 57 93 3b bd 6e a3 02 bd
       -0.123978175 0.03322674 -0.04579481 -0.03189414
000020 73 d3 c7 bc 69 3b 80 3d 6b 92 30 3e a1 ff 35 3e
       -0.024392819 0.062613316 0.17243354 0.17773296
000030 a4 6e 72 bd a3 d3 28 bd fc 7d 3f 3e 37 8a 11 3e
       -0.059187546 -0.041217458 0.18700403 0.14212881
000040 0d 3c 5e 3b f4 f4 45 be 89 4b 1b be ac 62 6a 3d
       0.0033910305 -0.19331723 -0.15165533 0.057223007
000050 f9 05 3c be 39 34 3b bc e5 56 e2 3d 81 dc 91 3d
       -0.18361653 -0.011426025 0.1105173 0.07122136
000060 4c 7c ed bd 2e f0 ae 3d 83 cc b7 bd 83 fe 3e 3d
       -0.11595973 0.085419044 -0.089745544 0.04662944
000070 ae d9 35 be 80 d5 22 be 48 68 2b 3d 73 f2 20 bb
       -0.1775882 -0.15901756 0.041847497 -0.0024558573
000080 dc 7c 26 3e 04 80 cd bd a1 5e e9 bd 60 61 56 3d
       0.16258568 -0.10034183 -0.11395002 0.052338958
000090 c5 44 0a be 2b 90 b2 bd 34 b9 51 3b d7 b9 18 be
       -0.13502796 -0.08718904 0.0032001259 -0.14914642
0000a0 83 31 3d 3d 2c 8e 12 be 40 1e 8f bd 33 3a 18 be
       0.046189796 -0.14312047 -0.069881916 -0.14865951
0000b0 21 d6 18 be 14 f4 31 3d bf 4e d0 bd 0a 87 1b 3d
       -0.14925434 0.04344566 -0.101712696 0.03797058
0000c0 71 81 3a 3e 0d 45 42 3e e7 22 32 3e 79 28 07 3e
       0.1821344 0.18971653 0.17396127 0.13199033
0000d0 bb f3 15 3e 9a 09 a0 bd ba 0b b9 3d 99 8a 22 be
       0.14643757 -0.07814331 0.0903544 -0.15873183
0000e0 20 02 18 bd b6 4c 88 3d d8 d4 87 bc 30 32 9c 3c
       -0.0371114 0.066552565 -0.016580984 0.0190669
0000f0 c0 7d 4d 3b 44 4c 82 bd 96 53 41 be f4 e0 45 bd
       0.003135547 -0.06362203 -0.18879542 -0.048310235
000100 bf ab 41 be 00 aa 04 bb 82 ed a2 3d 1b e2 fc bd
       -0.18913172 -0.002024293 0.07955457 -0.12347814
000110 90 90 5f 3d 38 87 d4 bc c1 a5 3e be 3d 01 08 3e
       0.054581225 -0.025943384 -0.18617918 0.13281722
000120 5b cd a6 bd 48 59 01 3d 4e 0a 90 bd 9c fb 17 be
       -0.08144637 0.031579286 -0.070332155 -0.14842075
000130 c1 ef 39 3e 10 a0 00 be a8 67 b4 3c 2c 2f 80 bd
       0.18157865 -0.12561059 0.022022083 -0.06258997
000140 30 c5 00 be bb be 04 3e 8c ed b9 bc 32 e0 19 3d
       -0.12575221 0.12963383 -0.022696279 0.037567325
000150 75 30 8e bc 77 b9 a1 bd 89 a3 0d 3e fe b1 14 3e
       -0.01735709 -0.07896703 0.13831915 0.14521024
000160 19 87 f5 3c 78 e0 6c bc 00 9c aa 3d dd 3c 0a 3e
       0.029971646 -0.014457814 0.08330536 0.1349978
000170 88 a3 fd 3d af 74 f7 3d cd ba eb 3d 1f 1a 6d bd
       0.12384707 0.120828025 0.11510239 -0.05788624
000180 30 59 e6 bd a0 60 79 3d 0a a6 0f be cc 13 40 3d
       -0.1124748 0.060883164 -0.14028183 0.04689388
000190 0d c5 2e be 05 07 46 3e 4f 39 e2 3d 84 24 51 3a
       -0.17067356 0.19338615 0.11046087 0.00079781585
0001a0 f2 70 bd 3d 50 8a 4b bd e3 e2 10 bd 90 6f f2 3d
       0.09250058 -0.049692452 -0.035372626 0.11837685
0001b0 da 08 a2 bc 0b 65 8f bd a5 3f d5 bd dd 2d 54 bd
       -0.019779611 -0.07001694 -0.1041253 -0.05180155
0001c0 d7 fa 61 bc db fe 56 3d 23 a7 a0 3b 74 99 b1 bd
       -0.013792715 0.052489143 0.0049027367 -0.08671847
0001d0 1e ef 42 3e 56 02 de 3d eb 18 f5 3d cc 8b 23 3e
       0.19036528 0.10840289 0.11967643 0.15971297
0001e0 db 62 be 3d 6a 55 18 bc 47 1c 7a 3d 19 ad 0f be
       0.09296199 -0.009297708 0.061062124 -0.14030875
0001f0 c9 8d ed 3a fb a7 7e 3d d6 bc 42 bc 7a 06 a8 3d
       0.001812392 0.062171917 -0.011885842 0.0820436
000200 23 44 9f bc e2 78 f3 bd 34 fe 03 3e 69 b5 3c 3e
       -0.01944167 -0.11888291 0.1288994 0.18428577
000210 1b c5 0a bd 1c e8 93 bc 9a dd 9c 3d 40 9e c8 3c
       -0.03387938 -0.018055014 0.07659455 0.024489522
000220 38 9e 91 bd 08 72 92 3d 77 42 37 be 78 ac 19 3e
       -0.07110256 0.07150656 -0.17896448 0.15007198
000230 38 12 3c be 20 ce e9 bd 38 ae f9 bd a6 1e 64 bd
       -0.18366325 -0.11416268 -0.12191433 -0.05569329
000240 0d 31 2c 3e b7 73 fd 3d 7c 67 9c bd 7d ae 2c 3e
       0.16815586 0.123755865 -0.076369256 0.16863437
000250 61 1c 69 bd 00 70 35 3e e4 e1 18 3e b1 4a 36 be
       -0.05691183 0.17718506 0.1492992 -0.1780193
000260 0b 2a 08 be b7 24 2c 3e 8d f4 30 3e d9 33 2b be
       -0.13297288 0.1681088 0.17280789 -0.16718997
000270 a6 f8 97 3d cb 65 d9 bd 8e b4 59 3d 43 68 34 3d
       0.07420473 -0.106151186 0.053150706 0.044044744
000280 21 61 69 bd 42 96 38 be dc 75 21 be 55 73 a9 bd
       -0.056977395 -0.18026069 -0.15767616 -0.08273951
000290 4c ab 24 bd e2 e3 23 be 00 84 2a bc 60 5f fd 3c
       -0.040202424 -0.16004899 -0.010407448 0.030929267
0002a0 52 9c 98 3d 14 4b 04 bd 1d 71 11 be b1 49 30 be
       0.07451691 -0.032298163 -0.14203306 -0.17215611
0002b0 34 e7 27 bd 0c 83 40 bd 10 eb 01 bc 9a a7 0d be
       -0.040991977 -0.046999976 -0.007929578 -0.13833466
0002c0 07 52 3a be ec 5e 22 be b6 84 34 be 82 62 86 3d
       -0.18195353 -0.15856522 -0.1762875 0.065617576
0002d0 b8 09 f2 3c 1f bf 35 3e 86 30 95 3d 00 8b 7b bd
       0.02954565 0.17748688 0.07284646 -0.061411858
0002e0 20 ca 2f bc b2 85 e3 3d f8 6a 44 3d 70 b7 03 be
       -0.010729343 0.11109485 0.047953576 -0.12862945
0002f0 4e 2a b2 3d 76 bc f5 3d 32 79 33 3e 94 6c c4 bd
       0.08699475 0.11998837 0.17526701 -0.09591022
000300 a8 0e ab bc 85 7b 3e 3e d4 5b 1c be c5 91 f6 3d
       -0.020881012 0.18601806 -0.15269405 0.12039522
000310 64 4c 0e 3e a7 56 0a be 1c ad 03 be f8 18 d9 3d
       0.13896328 -0.13509618 -0.12859005 0.106004655
000320 16 f4 54 3e b4 9d b9 bd 12 16 81 bd 22 1d cd bc
       0.20796236 -0.090632826 -0.06303038 -0.025038306
000330 f9 29 28 3e a3 d8 da 3d 20 52 07 be 04 e5 e1 bd
       0.16422261 0.106858514 -0.13214922 -0.110300094
000340 7e d7 40 bc 42 90 e2 bd 8a 08 aa 3c b9 7e bd 3b
       -0.011770127 -0.11062671 0.020756025 0.005782929
000350 87 8a ea bc 57 34 53 bc f9 83 49 bd c0 4d 9b 3c
       -0.028630508 -0.012890897 -0.049198125 0.018957973
000360 88 e9 13 3d 95 08 43 3e 4a ff 1b 3d e8 68 02 3d
       0.036111385 0.19046243 0.03808526 0.031838328
000370 0e cd 48 3d e1 3c 00 be f2 f9 5c bd b8 a7 d1 bd
       0.04902368 -0.12523223 -0.053949304 -0.10237068
000380 9b f8 90 3d b3 5a 67 3c f2 ff db bd fa 1a 40 3d
       0.07078668 0.0141207455 -0.10742177 0.046900727
000390 9d 70 25 3b 98 01 d7 3d 39 b5 2e 3e e5 dc df 3d
       0.0025244125 0.10498351 0.17061318 0.10930804
0003a0 57 57 05 3e 1d 1f f1 3d ca dd d8 bd a6 85 da 3c
       0.13021599 0.117735125 -0.10589178 0.026675057
0003b0 25 31 a0 3d 05 1c b1 3d 5f 7b 2e be 86 b3 ed bd
       0.078218736 0.086479224 -0.1703925 -0.11606507
0003c0 39 76 d1 bd c1 8b 58 3d 46 51 84 3c e7 76 fb bd
       -0.10227627 0.052867655 0.016152035 -0.12278538
0003d0 e7 45 9b bc 12 fb 22 3e e7 ff 30 be f1 aa 16 be
       -0.01895423 0.15916088 -0.17285119 -0.14713646
0003e0 8c db 32 bd 4d f2 4b 3a e9 df 49 bd 39 f3 0c 3e
       -0.043666407 0.0007779941 -0.049285803 0.13764657
0003f0 8f 2e 8b bd 73 5c 76 bd 02 76 ed 3d db e4 8c 3c
       -0.0679599 -0.06014676 0.11594774 0.01719897

encoder.0.bias f4 [32]
000000 df 2b d5 bc 21 06 a2 3c d7 51 21 be 49 22 be 3d
       -0.026021896 0.019778313 -0.15753876 0.09283883
000010 ce 44 a3 bd 91 89 4b 3d e8 9e 3b be 9b d9 11 be
       -0.07972108 0.04969174 -0.18322337 -0.14243166
000020 87 3b 03 be ad e0 04 3e a2 0f fa bd 0d 79 8f bc
       -0.12815677 0.12976332 -0.12210013 -0.017513776
000030 29 86 64 bd 85 9b c1 bd ee 36 23 bd 84 c1 00 be
       -0.055792008 -0.09453491 -0.039847307 -0.1257382
000040 55 98 f1 3c cf 1f ee bd 77 94 0f be 6a d4 9c 3d
       0.029491583 -0.11627161 -0.14021479 0.07657702
000050 66 4d 08 3e a9 b4 2a 3d d1 6f a9 3d 97 4d aa bd
       0.13310775 0.041676197 0.082732804 -0.0831558
000060 77 6f a0 bd 59 cf 05 3e ed cd 06 be ed 41 b4 3d
       -0.0783376 0.13067378 -0.13164492 0.08801637
000070 9b 01 d8 3d 6e 4a fd 3c a8 df ba 3d 9e 68 93 3d
       0.10547181 0.03091928 0.0912469 0.071976885

encoder.2.weight f4 [64, 32, 3, 3]
000000 4f ad 9f bb 75 3c de ba eb 4c 06 bb 52 1a 54 bd
       -0.004872955 -0.0016955273 -0.0020492624 -0.051782914
000010 7e d3 0b bd 1e da 41 3d 1f b4 b4 bb 5a 28 7a 3d
       -0.03413724 0.047327153 -0.005514636 0.06107364
000020 9c cf 28 bc a3 79 2f bd ef 45 59 3b 91 9f 49 3d
       -0.010303404 -0.04284061 0.0033153256 0.04922444
000030 62 b7 14 bd ca c1 99 3c 24 31 f5 bc 08 d4 76 3c
       -0.0363077 0.018769164 -0.029930659 0.015065201
000040 a2 2f 73 3d 18 04 af bc f4 69 2e bd 79 7b 1f 3d
       0.059371598 -0.021364257 -0.042581514 0.038936112
000050 b9 47 6c 3d c4 b1 1c bd 2b 34 23 3d 1a 28 56 bd
       0.057685588 -0.038255468 0.039844673 -0.052284338
000060 f2 9b 99 3c 28 dc 1e bc 4e 59 84 3c bc 61 29 bd
       0.018751118 -0.009696044 0.016155865 -0.041352972
000070 75 7e 1e bd 85 b1 f7 3c 7e 57 49 bd 1a f8 40 bc
       -0.038694818 0.030236015 -0.049155705 -0.011777902
000080 35 3d 9e bb e9 09 f4 bb 50 d2 19 3d fa c1 22 3d
       -0.004829074 -0.0074474704 0.037554085 0.03973577
000090 d4 ed 27 3d 17 20 1c 3d 1f 14 64 3d 1a bd f9 3c
       0.040998295 0.03811654 0.05568325 0.030485678
0000a0 f0 9b 1c 3d 7d f1 91 bc 07 ab 81 3d 63 19 0b 3c
       0.03823465 -0.017815346 0.06331449 0.008489939
0000b0 5c aa 12 3a 47 97 e8 3a 2e c5 36 3c 77 7a 61 3d
       0.00055948435 0.001774528 0.01115541 0.055048432
0000c0 d7 23 4b 3d 5b 60 ac bb 72 01 2a 3d a9 8e b6 bc
       0.049594726 -0.00526051 0.041505285 -0.022284823
0000d0 7f 3c 55 3d f7 16 08 3a c5 ed 33 bd 06 af 0b bd
       0.052059647 0.00051914103 -0.043927927 -0.034102462
0000e0 7c 5f 28 3c c3 46 2e 3d 46 1c ee 3c 48 51 d3 3b
       0.0102766715 0.042547952 0.029066216 0.0064488985
0000f0 80 d6 ab 39 30 0f 61 bd 30 bf 37 bd 60 83 c5 bc
       0.00032775477 -0.054946125 -0.044860065 -0.024110496
000100 57 8a 34 bd 30 b4 8d 3d 09 a1 84 3c af d8 21 bd
       -0.044077244 0.06919134 0.016190069 -0.039513286
000110 6d 0d b2 3c 32 4f 38 3c 0b 75 15 3c 75 c9 dd 3c
       0.021734918 0.01124935 0.0091221435 0.027073601
000120 aa 7e 5e 3d 17 50 8e 3c 79 6b 74 3d 61 50 5f 3d
       0.054320015 0.017372174 0.059672806 0.054520015
000130 e8 c3 70 3d a9 6c bb ba be f9 7d 3c 18 7e f0 3b
       0.05878058 -0.0014299351 0.015501438 0.0073392503
000140 0d 2e bf bb 12 59 80 3d 8f dc 44 3d 5a b3 61 3d
       -0.005834347 0.06266989 0.048061904 0.055102684
000150 c7 77 00 3d ad e3 6b 3d c8 ea 3c 3c 2f ff 63 bc
       0.03136423 0.057590175 0.011530586 -0.013915821
000160 15 b5 29 bd 3f cf f6 bc 46 52 31 bc 20 fe af 3b
       -0.04143246 -0.03012812 -0.010822838 0.00537087
000170 c8 b6 48 3c 2d 83 69 3d 92 07 96 ba 6d 42 9f 3c
       0.01225061 0.057009865 -0.0011446348 0.019440854
000180 15 04 46 3d 92 c4 d6 3c 2e 69 0a 3d d8 65 33 bd
       0.048343737 0.026216779 0.033791713 -0.043798298
000190 af b4 fd bc 9a 77 86 bd bd a3 e1 3b a8 6e 93 3d
       -0.030969946 -0.06565781 0.006885974 0.071988404
0001a0 c1 97 8c bd bf 3d e8 3c a5 6e 76 3c a4 8a 14 bc
       -0.06864882 0.028349755 0.015041028 -0.009066258
0001b0 f6 ef 9e 3c 0b 2d 1e bd a2 e7 73 3d 2f ed d9 3c
       0.019401532 -0.038617175 0.059547074 0.026602356
0001c0 8c 61 83 3d 3a 6a 6f 3d 88 10 77 bc 87 94 da 3b
       0.0641509 0.058450915 -0.015079625 0.006670538
0001d0 65 5b 27 bd 49 46 5b bc 1a e9 48 3d 60 3c 94 bb
       -0.040858645 -0.0133834565 0.049050428 -0.004523799
0001e0 a6 d0 8c 3d a0 e8 3f bc e1 c7 25 3d f5 51 35 bd
       0.06875734 -0.011713177 0.040473823 -0.044267613
0001f0 fc 59 f8 bc 8d ae f9 3c af 80 5c bd a8 24 3b 3d
       -0.030316345 0.03047874 -0.05383366 0.045689255
000200 55 52 2f bd a1 ca 42 3c 57 9d 00 3d d8 96 38 bd
       -0.042803127 0.011889131 0.03140005 -0.04506573
000210 8f e8 10 bd a8 1a ee bc 70 6c bc bb 7c 72 6a 3d
       -0.035378035 -0.029065445 -0.0057502314 0.057238087
000220 78 8c 78 bc 44 ff 46 bd c0 6e 73 3a 4a ee 9c 3c
       -0.015170209 -0.048583284 0.00092862174 0.019156594
000230 b4 07 7a 3c 5e 03 13 bc 17 7f 67 bd 88 3a 2b 3c
       0.015260626 -0.008972971 -0.056517687 0.010450967
000240 dd fc 67 bb dd d2 9f bc 4c 72 13 3d 54 0a 5a 3d
       -0.003539852 -0.019509727 0.035997674 0.053232506
000250 b2 b9 e5 bc 00 10 89 b9 b9 29 0e bd 9c 78 2f 3d
       -0.028042648 -0.00026142597 -0.03470776 0.04283963
000260 f2 f1 ce bb b7 1e 05 3d 9f b3 24 bd f2 13 0c 3c
       -0.006315463 0.032499995 -0.040210363 0.008549677
000270 b6 ac 21 bb 61 f0 ce bc 4a cb b4 bc 79 ac be 3c
       -0.0024669594 -0.025261106 -0.022069592 0.0232756
000280 64 30 3b bd f6 48 26 3d fb dc 1a 3d a4 03 01 3d
       -0.045700446 0.040596925 0.0378084 0.031497613
000290 7a a9 8b bc f4 d0 84 bc 39 85 91 3d 7b 20 37 3c
       -0.017048586 -0.016212918 0.07105488 0.011177178
0002a0 8e 7b 8f 3d 59 3a 89 3d 34 69 37 3d 04 b8 20 bd
       0.07005988 0.06700582 0.044778064 -0.03923799
0002b0 c9 dd 07 3d 87 41 ae bc a6 50 80 3d 88 a6 35 bc
       0.033170495 -0.02127148 0.062653825 -0.011087067
0002c0 5c 60 33 bd a5 cb af ba e5 52 01 3c 0a f0 cb 3c
       -0.043793067 -0.0013412131 0.007893299 0.024894733
0002d0 81 0b d4 bc 74 a7 3e 3d 34 95 6b 3d 23 6f 17 3d
       -0.025884392 0.046546414 0.057515338 0.036971223
0002e0 e7 2b 00 3c 4a 30 24 3b a3 b2 04 bd f3 2c bd 3c
       0.007822967 0.0025053197 -0.032396924 0.023092723
0002f0 bc 7b 7c 3d 49 e3 d7 3b b3 d8 b5 bc 4a a7 2d 3d
       0.06164144 0.006588374 -0.022198057 0.042395867
000300 5b 84 56 3d 07 8c 0d bd b4 02 07 3d db 10 00 3d
       0.052372318 -0.03455737 0.032961562 0.031266075
000310 61 13 44 bd 91 c8 71 bd 77 c4 1f bd 89 1e 96 3b
       -0.047870044 -0.059029166 -0.039005723 0.004581277
000320 db bd dd 3c ef d2 2c bd dc c3 1e bd 6e 24 c2 bb
       0.02706807 -0.04219335 -0.038761005 -0.005924753
000330 d9 81 83 bd 88 7d 92 bb b7 96 25 3d cf 5e 17 bd
       -0.06421251 -0.004470531 0.040426936 -0.03695565
000340 4c c9 64 3c fa 9e 5c 3d dd 9f 82 3d b1 73 22 bd
       0.013964009 0.05386255 0.06378148 -0.039661113
000350 67 81 98 bc 47 7c 65 3c de c4 84 3d cf 53 25 bd
       -0.018616391 0.014006681 0.06482862 -0.04036313
000360 0f 60 81 3d 18 eb b6 bc 68 10 41 3d 6a 46 df ba
       0.0631715 -0.022328898 0.047134787 -0.0017034535
000370 b3 78 c6 bb 20 a6 80 bb 75 be 43 3d 37 c5 6d 3d
       -0.006056869 -0.0039260536 0.047789056 0.058049407
000380 7e a7 93 3d e1 a1 1a 3d dc 8e ae 3c 6d 76 26 3c
       0.07209681 0.037752036 0.021308355 0.010160071
000390 1b e8 dc 3c 71 62 31 bc b2 b3 29 bd b2 33 25 bd
       0.026966145 -0.010826693 -0.041431136 -0.040332504
0003a0 42 31 c2 3c 54 dd 7d bd 3d a1 14 3d 98 78 87 3d
       0.023705129 -0.061978653 0.03628658 0.06614798
0003b0 ad 3c 8b 3c bb 3c 0a 3d c5 f4 d1 3c cd 27 98 3d
       0.016996706 0.033749323 0.02562941 0.074294664
0003c0 c4 94 9f bc b0 7b 4d 3c 1e 03 e5 bc 0e 4d 5e 3d
       -0.019480117 0.012541696 -0.027955588 0.054272704
0003d0 dc 59 3c 3d cc 20 7f 3c 61 3d 25 bd fd 94 75 bc
       0.045984134 0.015571784 -0.04034174 -0.014989135
0003e0 63 0a ea 3c c2 d9 7c bc f0 5a 14 3d 24 bc 67 bd
       0.028569406 -0.015432777 0.036219537 -0.05657591
0003f0 af 72 2b bc b7 9d 36 bd 1b 2f fa 3b a7 b5 01 bd
       -0.010464354 -0.044584002 0.00763501 -0.031667378

encoder.2.bias f4 [64]
000000 d1 8a 2c 3d 8b 86 f4 3c cb da 7d 3d a2 a9 96 3d
       0.042124573 0.029849311 0.061976235 0.07356574
000010 ad a5 df 3c c1 fe df 3c 69 4f 87 3d 1b a5 4b 3d
       0.02730068 0.027343156 0.06606943 0.049718004
000020 6b 42 1a bd 3a aa 72 3d 78 ad 3f 3c c7 70 b6 3b
       -0.037660997 0.059244372 0.011699073 0.0055676433
000030 ad 03 e1 bc 2f 6a 95 bb 0e dd 6d bd 76 ca 2c 3d
       -0.027467573 -0.004559777 -0.058072142 0.04218527
000040 3f 00 b1 3c e9 b0 1a 3d 0b 32 52 3d 0d e6 f3 3c
       0.021606563 0.03776637 0.051317256 0.029772783
000050 1c 0a 6e 3d 14 0b cc bc 6a 34 d5 3c 48 5c de bc
       0.05811511 -0.024907626 0.02602597 -0.027143613
000060 e5 60 99 bc b7 6c 19 3d a1 de 65 3d de 64 c7 bc
       -0.01872296 0.037457194 0.05612052 -0.02434009
000070 be a4 89 3c 1c ac b5 3c db f7 ef 3c 04 b8 87 ba
       0.016802188 0.022176795 0.029292991 -0.0010354524
000080 f0 d4 4c bd 6f fd 7f bd 90 45 39 3d 84 d2 85 3d
       -0.05000776 -0.062497552 0.045232356 0.06534293
000090 5b 0e 3f 3d 18 37 87 3d ce ba 93 3d 50 50 50 3d
       0.04664455 0.06602305 0.072133645 0.050857842
0000a0 d4 e7 19 bd 6b 53 2b 3c dc ea 0a 3d 38 c0 10 3d
       -0.037574604 0.0104569 0.033915386 0.035339564
0000b0 c2 20 05 3c cd d1 45 3c 5b dd 39 bc 7c 21 a3 3c
       0.008125486 0.012073946 -0.011344279 0.019913428
0000c0 04 70 ec bc e3 82 18 3d eb 9b 45 bc bc bf 41 3d
       -0.028862007 0.0372342 -0.0120610995 0.047301993
0000d0 d0 55 f2 36 2b 21 c6 bb ab 1e d3 3c 6f 35 e4 3c
       7.222152e-06 -0.0060464344 0.02577146 0.02785751
0000e0 a6 b3 53 3c 1e ea e2 3c 64 7c 84 3d 87 31 40 bc
       0.0129212495 0.027699526 0.06469038 -0.011730558
0000f0 7e 3d 76 3d 40 33 a5 3a b0 f8 80 3d 2a a9 98 3c
       0.060117237 0.0012603775 0.062974334 0.018635351

encoder.4.weight f4 [128, 64, 3, 3]
000000 25 59 4a bb 0d f4 48 3c 2e 3d 2c 3d 82 e4 07 bd
       -0.0030875888 0.0122652175 0.042050533 -0.033176906
000010 09 b2 2b bc a8 e1 f7 bc 73 94 15 ba a8 e5 1c bc
       -0.010479459 -0.030258968 -0.00057060196 -0.009576239
000020 10 b4 e5 3c ab c8 18 3d 2d 9d af bc 19 16 d3 ba
       0.028039962 0.037300747 -0.021437252 -0.0016104608
000030 0e a8 c9 ba ab 3a 48 bc a0 cd 8a 3c a7 89 12 bd
       -0.0015385167 -0.012221019 0.016943753 -0.035775807
000040 e2 b9 60 3c 20 5f fc bc e3 24 92 3c 48 2e 04 3d
       0.013716193 -0.030807078 0.017839855 0.0322707
000050 5f 36 b2 3c 9a 38 f3 3c eb 32 e8 3c 37 6c cc bc
       0.021754442 0.029690076 0.028344592 -0.024953945
000060 7d f6 ed 3b ad 76 85 3c 20 db aa bc 45 e4 ef 3c
       0.0072620497 0.01629194 -0.02085644 0.029283652
000070 1f a8 94 bc 8c ac 98 bc ef eb 51 bc 69 2d e8 3c
       -0.018146573 -0.018636964 -0.012812599 0.028341966
000080 f1 90 a0 3c 8b 61 13 bd 28 1f 8e 3a 9c 43 86 3c
       0.019600363 -0.035981696 0.0010843026 0.01638966
000090 1c 3c fa 3c ad 1c 1c bb 7c 3a e7 3c 2b 4d ba bc
       0.03054624 -0.0023820803 0.02822613 -0.022741875
0000a0 fb 0a 29 3d 95 c6 38 3d 62 6a da bc 90 a5 e1 39
       0.041270237 0.045111258 -0.026662055 0.00043038698
0000b0 45 e3 21 3c f1 4d b8 3b 7f a3 cf bb aa 47 c8 3c
       0.009880845 0.0056245257 -0.006336629 0.024448235
0000c0 d7 5d 1f bd c4 30 fb bb 9d 62 43 bd 95 36 39 3a
       -0.038907852 -0.0076657254 -0.047701467 0.00070653233
0000d0 7b 61 96 bc cb 24 1d bb e9 ee c5 3c 38 2c bd bc
       -0.01835703 -0.002397823 0.024161773 -0.023092374
0000e0 7f db 89 3c fa f0 2b bd 61 91 e7 bc ce 73 f4 3c
       0.016828297 -0.04197786 -0.028267564 0.029840376
0000f0 7b 0a 0c bd c8 cb 88 3c 74 70 22 3b a7 4b ad bc
       -0.034189682 0.016698733 0.0024786266 -0.021154238
000100 54 9f 81 bc 88 37 fb bc 8d cf 87 3c 3e 8b 37 3d
       -0.015823044 -0.030666128 0.01657846 0.044810526
000110 dd af f7 bc 16 ef 51 bb cf 6c 29 3d f2 a3 22 bc
       -0.030235225 -0.0032033375 0.041363534 -0.009926783
000120 12 f2 06 3d 3c ca 3b 3d 7e 43 95 bc 9e 32 79 3c
       0.0329457 0.045847163 -0.01822066 0.015209822
000130 a2 b4 4e 3d 73 82 c4 3c 93 c3 3c 3c d9 57 89 bb
       0.050465234 0.023987984 0.011521238 -0.0041913805
000140 b9 e0 99 bc d8 08 09 bd 20 14 0c bd a9 7f d8 3c
       -0.018783914 -0.0334557 -0.03419888 0.02642806
000150 95 9e 25 bd 80 a6 1b 3d 56 de 2c bd 01 43 d7 bc
       -0.04043444 0.038000584 -0.042204224 -0.026277067
000160 27 b5 97 3b 9a a1 16 bd 2a 56 83 3c 9d 4c 1e 3d
       0.0046297493 -0.03677521 0.016032297 0.038647283
000170 f9 a7 99 3a a1 ad ce bc 06 3b 0e 3d 81 2a 13 3d
       0.0011723033 -0.025229277 0.034724258 0.035929207
000180 77 10 01 3c e6 ce 4e 3d 2d 01 79 3c df 49 cf 3c
       0.007877461 0.050490282 0.015198034 0.02530378
000190 61 29 01 bc 4c e4 e1 bc f3 ed 9b bc 54 68 9a bc
       -0.007883401 -0.02757468 -0.019034361 -0.018848576
0001a0 8b ff ce bc 21 98 87 bc 7a a4 d9 3b b5 61 72 bc
       -0.025268337 -0.016552033 0.0066419216 -0.014793803
0001b0 ad c5 0b bd 62 90 70 3c bf 87 b8 bc 26 39 a2 bc
       -0.034124065 0.014682861 -0.022525666 -0.019802641
0001c0 32 94 eb bc b4 02 3e bd f5 60 cc 3c 01 ed 55 bc
       -0.028757188 -0.046389297 0.024948576 -0.013056994
0001d0 5f 2c 63 3c 44 29 0d 3d 00 24 30 3a 19 1f 75 3c
       0.013865559 0.034463182 0.00067192316 0.014961028
0001e0 a0 22 cf 3c 9b a8 c0 bc a4 bb 11 bc 48 82 99 3c
       0.025285065 -0.023517897 -0.008894835 0.01873888
0001f0 db 2d 3c 3d c9 9b 82 3c 45 d5 15 3c 26 21 10 3d
       0.04594217 0.015943425 0.009145086 0.035187863
000200 d9 fb aa bc 5c 2d 0a 3d 37 62 3f 3d b6 56 1f 3d
       -0.020872043 0.033734664 0.046724524 0.038901053
000210 74 29 21 bc b6 7f 4f 3d fc 32 34 3d 28 11 e4 ba
       -0.009836543 0.050658904 0.043993935 -0.0017400132
000220 05 d0 04 bd 69 76 ce 3c 65 86 8a bc 92 5a a8 3b
       -0.032424945 0.025202947 -0.016909787 0.00513775
000230 bf 1f 83 3b f3 98 a5 3b 65 9a 9f 3c 2f c3 cc bc
       0.004001587 0.0050536334 0.0194828 -0.024995415
000240 57 b7 c9 bc af a0 fc bb a3 c9 48 3c 2e 59 ed bc
       -0.024623556 -0.0077095847 0.012255105 -0.028973188
000250 4e f3 1b 3d b9 eb 71 3b f3 1d a0 3c 57 a8 18 3d
       0.03807383 0.0036914183 0.01954553 0.037269916
000260 a1 69 18 bc 88 bf 94 3c 3c 99 ab bc 6a 1e 05 bb
       -0.009302528 0.018157735 -0.020947091 -0.0020312318
000270 16 51 29 3d d8 6e 27 3c ba 02 b7 3c 39 f0 d5 3c
       0.041337095 0.010219298 0.022340167 0.026115524
000280 1b 2c c1 bc 52 3b 29 3d 08 e4 e5 3c ff 7c 9f bc
       -0.023580601 0.041316338 0.028062835 -0.019468782
000290 c8 45 25 bc 48 b2 19 bc ae 24 12 bc e3 1d 96 3c
       -0.010087438 -0.0093808845 -0.008919878 0.018324798
0002a0 0e e3 ab bc 49 8e 07 bd f5 19 dc 3b 15 b1 a5 b9
       -0.020982292 -0.033094678 0.0067169615 -0.0003160319
0002b0 9b 76 d5 bc ef 90 90 bc 0a fc 34 3d f3 49 33 3c
       -0.026057532 -0.017647235 0.044185676 0.010942924
0002c0 42 61 d8 bc 1e b5 39 3d 99 ca ed bc fb 26 42 3d
       -0.026413564 0.045338742 -0.02902727 0.047400456
0002d0 f9 72 ee bc de 8f e2 bc 1e 7b 08 3d 8c ff a4 bb
       -0.029107558 -0.027656492 0.03332054 -0.0050353464
0002e0 53 58 99 bc 9c 72 d1 bc 1a 81 e6 bc 98 99 2e 3c
       -0.018718874 -0.025567345 -0.028137732 0.010656737
0002f0 52 fc 32 3d c8 b2 86 bc 51 61 3b bc a3 31 27 bc
       0.043697663 -0.016442671 -0.011436776 -0.010204705
000300 af a8 ed bc 16 42 dc 3c 43 7d 93 bc f2 b8 fc 3c
       -0.029011099 0.026886981 -0.018004065 0.030849908
000310 0b b7 15 bd 47 11 2b bd 00 cd 58 bb 97 c7 f6 bc
       -0.036551517 -0.041764524 -0.0033081174 -0.030124469
000320 d2 8a 0b bd 6d 81 2c bd d8 e7 0e bd 9d 22 1d bd
       -0.034067936 -0.042115618 -0.034889072 -0.038363088
000330 38 59 3a bc cc 47 ed ba 3a 62 a7 bb fa d2 38 3d
       -0.0113738105 -0.0018103062 -0.005108145 0.045123078
000340 7c 51 65 3c 98 86 e5 3c f4 fd 02 bd b6 9e 42 3c
       0.013996478 0.02801828 -0.03198047 0.01187866
000350 c1 dd 36 bc 4f 4e 97 3c 66 fa 9a bc a7 25 ed 3b
       -0.011161269 0.018469958 -0.018918227 0.0072371545
000360 17 10 cd 3c 5f 38 31 3d 98 d0 f1 bc 0d 44 e5 3c
       0.025032086 0.04326665 -0.02951841 0.02798655
000370 55 26 41 3d bd bb c1 3c 22 92 48 bb 56 ae 39 3b
       0.047155697 0.02364909 -0.003060468 0.0028332672
000380 eb 59 56 bc 4d c8 d0 3c 77 63 74 bb 0b dc 35 bc
       -0.013082962 0.025486136 -0.003729073 -0.011099826
000390 c1 24 ac bc 68 43 34 bd c0 6f c4 bc 2c 3f a4 bb
       -0.02101362 -0.044009596 -0.023979068 -0.0050124135
0003a0 6e a8 b8 bc fa e0 67 bb 78 76 9c bc 7c c2 17 bd
       -0.022541251 -0.00353819 -0.019099459 -0.03705071
0003b0 3b 4c f8 b9 08 d2 e4 3b 0a 13 03 3d c8 ad 29 3c
       -0.00047359042 0.0069830455 0.03200058 0.010356374
0003c0 c8 04 f6 3c 89 d3 8e bc 1b a7 ca 3a 84 9c 1c bd
       0.030031577 -0.017434852 0.0015461178 -0.038235202
0003d0 2b aa 3b bd 2f 46 a6 3c 6b 51 be 3b 2e 64 a6 bb
       -0.04581658 0.020297138 0.0058080456 -0.0050778603
0003e0 af 15 02 bd 4f 9a 90 bc 32 41 1a bc ee fc 16 bd
       -0.03175896 -0.017651705 -0.009414958 -0.036862306
0003f0 2c ee db 3c c5 ad b1 bc 04 85 ca bb 80 74 54 bb
       0.026846968 -0.021689305 -0.0061804075 -0.0032418072

encoder.4.bias f4 [128]
000000 22 e4 fd bc 2a ad c9 3b 3c 71 b4 bb 7f 84 8b b9
       -0.030992571 0.006154676 -0.0055066627 -0.00026610863
000010 9b 8d 2c 3d b3 66 48 3d a6 da ad 3c 97 45 69 3d
       0.042127233 0.048926067 0.021222424 0.05695113
000020 29 60 1c bd ab 3f ae bb d1 91 d4 3c c9 d1 17 bc
       -0.038177643 -0.0053176484 0.025948437 -0.009266325
000030 8b cc 81 3d 65 5e 23 3d e0 61 8b 3c 45 54 02 bd
       0.063378416 0.039884944 0.017014444 -0.031818647
000040 75 10 2b 3d 19 7c 85 3c aa d6 45 ba 73 0e 33 ba
       0.04176374 0.016294526 -0.0007546941 -0.0006830461
000050 0d 47 29 3d c5 a7 55 bc c2 ca bb bc 85 ce 56 bc
       0.041327525 -0.013040488 -0.02292383 -0.0131107615
000060 cb 00 fd 3a dc 99 c0 3c f8 64 ff bb 0a 27 a4 bc
       0.0019302604 0.023510866 -0.007794019 -0.020038147
000070 45 73 a1 3c 15 48 57 3c c5 d1 28 bd 70 0e 63 bb
       0.019708285 0.013139744 -0.041215677 -0.0034646057
000080 23 03 61 bc 9e b0 93 3c b3 d7 03 3d 46 42 17 3c
       -0.013733658 0.018028554 0.03218813 0.009232109
000090 f6 19 06 3d 72 5e bc 3c 6d dc 05 3d a2 7c 47 3d
       0.032739602 0.022994254 0.032680918 0.048702843
0000a0 5b 21 8e bb ad 71 ca 3c 6a d5 1a 3d 8c f0 95 bc
       -0.0043374724 0.024712408 0.037801184 -0.018303178
0000b0 e3 90 88 3c d7 48 ee 3c 2b 65 56 3d 44 ce bc bc
       0.01667065 0.029087467 0.052342575 -0.023047574
0000c0 4a 9c f9 bc c8 4d 89 bc 01 b6 3f 3c e9 6c a0 bc
       -0.030470032 -0.016760722 0.011701108 -0.019583182
0000d0 ed c9 bc 3a 04 44 ce 3c 96 29 98 3c ae f8 f5 3b
       0.001440344 0.025178917 0.018574517 0.0075064516
0000e0 be 12 00 3c 46 91 db bc 8c 4b 25 3d 87 41 1d bd
       0.0078169685 -0.02680267 0.04035525 -0.03839257
0000f0 b1 96 9e 3c 1e 7b 67 3d 80 1b 7d b6 f7 df 66 3d
       0.019358965 0.056513898 -3.7715945e-06 0.056365933
000100 6d 02 1f 3c 45 d4 fb 3c 32 5a af bc ee 07 ac 3a
       0.009705168 0.030740866 -0.021405313 0.0013124922
000110 4f 53 21 bd 95 9f d6 3b 36 9a f2 bc c6 b6 51 39
       -0.03938609 0.0065497854 -0.02961455 0.00019999882
000120 8c 59 21 bc 65 cf e1 3c e8 1c ae ba 15 8f bc 3b
       -0.00984801 0.027564714 -0.0013283761 0.0057543614
000130 35 7d 38 bc 77 0d 06 bd 90 e3 d2 3b 45 6a ca 3c
       -0.01126032 -0.032727685 0.006435819 0.024708876
000140 95 84 87 bc 26 4c d9 3c cf bb 02 bd 97 ef 1f bd
       -0.016542712 0.026525568 -0.03191739 -0.03904685
000150 f9 5d 95 bc 3c ce 4a 3c de cd 57 3d cb c3 92 3c
       -0.018233286 0.012378272 0.052686565 0.017915627
000160 32 95 1d bd d6 b8 54 bc c4 64 1d bd 4f 72 d2 bc
       -0.038472362 -0.012983521 -0.038426176 -0.025689272
000170 3b d0 0c bd ea c5 5b 3d d3 86 86 bb 2f 83 97 bc
       -0.03437827 0.053655542 -0.004105428 -0.01849517
000180 b3 f9 2e bc 4c 1b 82 3a ac e2 7b 38 3e 1f d9 ba
       -0.01067965 0.0009926348 6.0054168e-05 -0.0016565097
000190 41 ec 08 bd 77 f8 9b bc 6a 1e 2c bc da fb 0a 3c
       -0.033428434 -0.019039376 -0.010505298 0.008482898
0001a0 b3 25 9f bc 74 f5 61 3c 37 5a 66 3c 4b 2a fd bc
       -0.019427156 0.013791431 0.014059595 -0.030903956
0001b0 99 f2 fd 3c 62 c1 4d 3d 88 f9 7c 3c e5 0c 25 bd
       0.030999469 0.050233252 0.015440352 -0.0402955
0001c0 41 78 4f 3d 6f d6 68 bc 64 fe 9e 3c 2c 01 42 3d
       0.050651792 -0.014211281 0.019408412 0.0473644
0001d0 5c 13 2a bd fe 46 ac 3c cd 2e 32 3d 5a 1e 91 bb
       -0.04152237 0.021029945 0.043501664 -0.004428667
0001e0 da 76 e8 3c a6 f1 57 3d 47 bc 4d 3d 42 74 89 3c
       0.028376985 0.05272069 0.050228383 0.016779069
0001f0 e6 f8 47 3d bb 65 df 3c 76 54 8c bc d7 30 38 3d
       0.048821352 0.027270189 -0.017130118 0.044968452

decoder.0.weight f4 [128, 64, 3, 3]
000000 75 08 ed 3c b1 fa 80 bc 83 a4 2c 3c 90 15 f0 3c
       0.028934697 -0.015744539 0.0105372695 0.029307157
000010 32 82 b0 bc f3 6d ca 3c b3 81 be 3c db 59 2d bd
       -0.021546457 0.024710631 0.023255205 -0.04232202
000020 a5 0c 42 bc ea bf 4c 3c 03 64 da bc 8e 44 42 bc
       -0.011843835 0.012496928 -0.026659017 -0.011857165
000030 38 97 07 bd 6b c3 66 3c ef 49 9c 3c 2a 96 ca bc
       -0.033103198 0.014084677 0.019078223 -0.024729807
000040 9d da 73 3c e0 a7 5a 3d ca e4 24 bd 57 9e 92 bc
       0.014883664 0.053382754 -0.040257253 -0.017897768
000050 b5 fc 35 3d a6 ed 0e bd 84 25 39 ba bc 3e 0a 3c
       0.044430453 -0.034894608 -0.000706278 0.008437809
000060 6e e1 2b 3c cb d7 22 bc 3b 4a aa bc d3 6e d7 bc
       0.010490758 -0.009939144 -0.020787349 -0.026297962
000070 8d 20 39 3d dc 01 af 3c e8 82 38 3d ac 0f 63 3d
       0.04519706 0.021363191 0.045046717 0.055434868
000080 42 01 c8 3c 03 f1 78 3a 76 71 95 3c 11 28 96 ba
       0.024414662 0.0009496363 0.018242579 -0.0011456033
000090 02 ac 6e bb 90 9c d4 3c 8a 74 1f bd 13 e7 e9 3c
       -0.0036418443 0.025953561 -0.0389295 0.028552568
0000a0 78 2a c7 bc 5a 71 09 bd 29 bc a3 3c a3 32 33 bd
       -0.024312243 -0.033555366 0.019987183 -0.043749463
0000b0 1b 12 e8 bc 4e 30 d3 bb 68 17 d4 3c cb 86 54 3c
       -0.028328946 -0.0064449674 0.025890067 0.01297159
0000c0 84 12 9d 3c 36 09 20 3d 7c ea ee 3b fc e3 86 3c
       0.019173868 0.039071284 0.0072911363 0.016466133
0000d0 44 07 21 3c 87 01 fb 3c ad 3f 01 3d d8 db 11 bd
       0.009828392 0.030640377 0.031554867 -0.03561005
0000e0 bf 1f fb bc 42 f9 39 3d 70 a4 04 bb 38 04 9f ba
       -0.030654786 0.045403726 -0.0020239614 -0.0012131995
0000f0 ed b2 a6 3c 57 ba 82 3d f4 f3 3b 3d 47 05 87 3b
       0.02034899 0.06383198 0.04588695 0.004120502
000100 95 95 0f 3d 6e f1 4f bb 06 92 97 3c 41 99 b2 39
       0.035054762 -0.0031729597 0.018502247 0.0003406499
000110 7f ab e7 3c cb e5 8b 3c f3 20 88 bc 6c ca 8e 3c
       0.028280018 0.017077347 -0.016617274 0.017430507
000120 20 f7 f8 bc 56 cd ad bc f7 d4 8c bc ec bf 5e 3c
       -0.030391276 -0.021216076 -0.017191393 0.013595562
000130 56 48 21 bd be 26 19 bd 04 8b fb 3c c0 7a 00 3a
       -0.039375626 -0.037390463 0.030705936 0.00049011037
000140 dd d8 e4 3c 2e c5 c1 3c 9a c5 2f 3d 58 5c ff bb
       0.02793544 0.023653593 0.042913057 -0.0077929907
000150 42 d8 e1 3b 86 40 9d bc 00 c9 e3 3c 4b 72 92 bc
       0.006892235 -0.019195806 0.027805805 -0.017876765
000160 c3 b9 0c bc 52 74 aa bc 90 52 e6 bc da 74 df bc
       -0.008589211 -0.020807419 -0.02811554 -0.027277399
000170 8b e1 de bc b6 d2 29 bd d0 c2 e7 bc 1a a9 45 3d
       -0.027207157 -0.041460715 -0.028291136 0.04825697
000180 af 64 fa bc 0b 6f fa 3c 88 02 a6 3c 36 9c 2f bd
       -0.030565588 0.030570528 0.020264879 -0.042873584
000190 82 97 13 bd 2f 88 10 bd 01 e6 31 bd 79 d4 bd ba
       -0.03603316 -0.035286125 -0.04343224 -0.0014482877
0001a0 ac 6a 26 bc f7 1a 41 3c 9f 80 d4 3c 17 69 b1 bb
       -0.0101572685 0.011786214 0.025940238 -0.005414139
0001b0 9f 02 b0 3c ea 05 a5 bc fa ea 07 3d df fe 31 3d
       0.021485625 -0.020144422 0.033183075 0.043455955
0001c0 6e cd 15 bc d1 e7 a5 bc 6c d6 24 bd 12 e7 4a 3d
       -0.009143217 -0.02025214 -0.04024355 0.049536772
0001d0 24 b3 46 bc c9 c1 20 bc 4b 3b 07 3c b0 17 a8 bc
       -0.012127671 -0.009811827 0.008253883 -0.020519108
0001e0 af 51 72 bc 5f f9 3c bd f0 07 05 bc 2e 87 5d 3c
       -0.014789983 -0.046136256 -0.008119568 0.013520999
0001f0 18 2f 74 3c 8e 8a 96 bc a2 ee 32 3d ee 2e 36 3d
       0.014903806 -0.018376615 0.04368461 0.04447835
000200 dc c2 2e bc 46 c6 44 3d fc 36 37 bc d5 67 b6 3c
       -0.010666575 0.04804065 -0.011182543 0.022266308
000210 bb da 77 bc 1e dc 9a 3c aa c2 a5 3c 2c 40 e6 bc
       -0.015127833 0.018903788 0.020234425 -0.028106771
000220 9d aa 37 3d 7f 35 a8 bc ff 3b 01 bd 08 b5 75 3c
       0.044840444 -0.020533321 -0.031551357 0.0149967745
000230 24 94 12 bc 3b e5 85 3c 9e 3e 33 3c db 44 9f 3c
       -0.008946452 0.016344657 0.010940222 0.019442013
000240 7e 06 d8 3c 8d 5d 1a bc 6b 1a 3f 3d 6f d5 1b 3d
       0.026370283 -0.009421718 0.046656054 0.038045343
000250 c4 ad 2b 3c e8 6b 5e bc 0e 91 8f 3c b2 2c b4 3c
       0.010478441 -0.013575532 0.017525222 0.021993969
000260 d6 5f 36 3d 36 3f 4a 3c 56 ca f6 bc 31 51 41 3b
       0.04452499 0.012344172 -0.030125778 0.0029497857
000270 c9 8b 20 3b d3 da 0e bd c1 30 f9 3a f4 d5 90 bc
       0.002449738 -0.034876656 0.0019011722 -0.017680146
000280 0b 14 8b bc cc 46 b5 b8 b7 c3 f2 bb 28 8c 06 bd
       -0.01697733 -8.6439395e-05 -0.007408585 -0.032848507
000290 e0 a0 ad bc c3 69 c7 bc 8a 0b 4c 3d 38 4e af bc
       -0.021194875 -0.024342423 0.049815692 -0.021399602
0002a0 f1 56 0e bd 54 c7 7d bb a2 17 ff bc 46 ec c3 bc
       -0.034750883 -0.0038723545 -0.031139199 -0.023916375
0002b0 88 cf 0d 3b 13 ea 9d 3c cf 1c cb bb c3 ab c3 bc
       0.002163859 0.019276654 -0.0061985026 -0.023885613
0002c0 15 0b e7 3c 41 b2 5f bb 10 e6 be 3c 03 28 2e 3d
       0.028203527 -0.0034133347 0.023303062 0.042518627
0002d0 bf 4a 10 3d db 07 1c 3d 9d b4 2d bc 9a 3b 13 3c
       0.035227533 0.03809343 -0.010602144 0.008986378
0002e0 26 23 cd bc dc 39 de bb bc 21 1b 3c 1a ee 5d 3d
       -0.025041174 -0.0067817997 0.009468492 0.05418215
0002f0 5f 55 10 3d 8d 05 af 3c a1 0b 63 3c 61 d6 9e bc
       0.035237666 0.021364952 0.013857753 -0.019389333
000300 3f 55 26 3c 58 a9 68 3c 38 e0 15 3d ec ea 52 3c
       0.01015216 0.014200531 0.036590785 0.012873393
000310 e1 04 00 bc e7 b4 25 3d b5 4e 2f bd 8e b9 61 bc
       -0.007813663 0.040455725 -0.04279967 -0.01377715
000320 23 51 06 bc 12 9d 37 bd 64 83 10 bd ae 0a c6 bc
       -0.008198055 -0.04482753 -0.035281554 -0.024175014
000330 02 e1 ed bc 11 76 53 bd 10 f5 71 bb 9d 54 ba 3c
       -0.029037956 -0.05162627 -0.003691975 0.022745425
000340 e5 16 24 bc df 9c 09 bd c4 32 86 bc 41 50 fc 3c
       -0.010015224 -0.03359687 -0.016381629 0.030799987
000350 99 d0 a2 bc 5b c6 cb 3c 70 9e 4e bc a8 c0 5a ba
       -0.019874858 0.024874857 -0.012611017 -0.0008344748
000360 c0 de 2a 3d a8 df 1d 3d 96 12 ee bc b6 df 03 3d
       0.041716337 0.038543373 -0.029061597 0.03219577
000370 23 db 95 3b 4b 96 21 bd 6d 1e 0c 3d 28 5a 00 3d
       0.0045732423 -0.03944997 0.034208704 0.03133598
000380 79 67 10 bd ab d2 0f 3d d9 60 9a 3c 13 66 6c 3c
       -0.03525493 0.035113018 0.018845009 0.014428633
000390 6e 9e 00 3c 77 fa 6a 3c 73 0f 0e 3c 28 0c 27 3c
       0.007850273 0.014341942 0.008670676 0.010195769
0003a0 d0 fb f1 3c 5b a7 2f 3d 0f 4f 18 bb 14 e5 42 3c
       0.029539019 0.042884212 -0.0023240482 0.011895437
0003b0 2a 23 9a 3b 06 dd aa 3c e3 f5 b7 bb 20 dc 6a 3a
       0.004703899 0.020857345 -0.005614029 0.0008959193
0003c0 7a 95 f2 ba c0 04 54 bd 60 57 04 bd 59 ec b5 3a
       -0.0018507682 -0.051762342 -0.03230989 0.0013879641
0003d0 2c 86 30 bc b7 98 f8 3c a2 1e 70 bc af 98 53 bd
       -0.010774177 0.030346258 -0.014655741 -0.051659282
0003e0 31 72 c8 b9 51 b3 f2 bc 55 29 01 3c 21 93 f5 bb
       -0.00038232052 -0.02962652 0.0078833895 -0.007494346
0003f0 2f b2 a2 3c ec f9 12 3d f4 fb d2 bc aa 5f 53 bc
       0.019860355 0.035882875 -0.025754906 -0.012901226

decoder.0.bias f4 [64]
000000 0b b5 46 3d fd 97 88 3c e4 f9 4b bb 74 e7 5f 3d
       0.0485125 0.016674036 -0.0031124288 0.05466409
000010 78 17 41 3d a5 88 36 bc ed 7d 6a bc a8 0d 86 bc
       0.047141522 -0.011140977 -0.01431225 -0.016363934
000020 70 c3 a7 bc de bd 08 bd 46 52 db bc b0 b3 3a 3d
       -0.020478934 -0.033384196 -0.02677263 0.04558152
000030 13 0b 0e 3c 1a 59 7a 3d 30 da 35 bc a4 01 f8 3c
       0.0086696325 0.06112013 -0.011099383 0.03027422
000040 72 12 2c 3c ec df 83 3c c8 9f 22 3b 37 3a 50 bc
       0.010502445 0.016097985 0.0024814475 -0.012709192
000050 db d3 de bc 9f e1 df 3c ac b9 ef 3c 98 dd cf 3c
       -0.02720063 0.027329264 0.02926334 0.025374219
000060 4c fc 25 3d e8 d1 ff bc c3 57 4f 3c c1 dd 06 3d
       0.040523812 -0.03122802 0.012655201 0.032926325
000070 74 ee 65 bb 9c a4 49 bc 80 2f a7 bc dd 3d 09 3d
       -0.0035084756 -0.012307312 -0.020408392 0.033506263
000080 63 7a 56 3c 22 85 f9 bc 5a 51 ce 3c 38 22 2a bd
       0.013090703 -0.03045899 0.025185276 -0.04153654
000090 8c 0c 9d bb d7 67 74 3c 19 1c 16 bd 86 ef 44 3c
       -0.0047927555 0.0149173355 -0.03664789 0.012019997
0000a0 e5 72 06 3d 90 70 80 bc 3e 3e 1f 3d 4c b4 cf bc
       0.032824416 -0.015678674 0.03887772 -0.025354527
0000b0 23 85 b8 bc d5 a3 25 bc 67 da 9f bc 00 97 fb bc
       -0.022524422 -0.010109861 -0.019513322 -0.03071165
0000c0 36 05 76 3c 4e b5 e5 bc 1d 27 69 3d 89 0a 57 3d
       0.015015891 -0.028040554 0.056922067 0.05250028
0000d0 41 36 71 3c 1f ab a4 3c b8 0c ea bc 64 96 dd ba
       0.014722408 0.020101128 -0.028570518 -0.0016905782
0000e0 16 d4 df ba cb f0 b5 bc 9b 80 51 3d c4 a7 c6 3b
       -0.0017076756 -0.022209546 0.05114804 0.0060624797
0000f0 a9 e3 4c 3d 20 0e aa bc d6 52 d7 bc cf b1 03 3d
       0.0500218 -0.020758688 -0.026284616 0.032151993

decoder.2.weight f4 [64, 32, 3, 3]
000000 9e 2a f7 3c dd c6 4e bd be 7f 5a 3d f0 7a 33 bd
       0.030171689 -0.05048262 0.05334448 -0.043818414
000010 48 8d d2 bc d4 67 81 3c e2 91 90 3d b5 e8 09 bb
       -0.025702134 0.01579658 0.07059075 -0.0021043245
000020 c4 e4 44 3b aa c5 a4 bc 34 42 aa 3c d8 6f 20 3d
       0.0030043582 -0.020113785 0.020783521 0.039169163
000030 42 3c 8a 3c 09 c1 cd 3c 63 42 18 bd ba 4c 38 3d
       0.016874436 0.02511646 -0.037172686 0.044995047
000040 2a 36 1a bd 02 eb 93 3c 3f 3f ad bc 4b 61 97 bc
       -0.03764931 0.018056396 -0.021148322 -0.01847901
000050 09 ba e5 bc 14 42 6e 3c 23 8f 90 bc a0 0a 86 3c
       -0.02804281 0.014542121 -0.017646378 0.016362488
000060 87 f7 36 bc 1c 4a 01 3d 53 57 35 bd bd 15 70 3d
       -0.011167414 0.031564817 -0.044272732 0.05861448
000070 e4 bd 87 3d a1 94 10 3c b8 96 0a 3d e0 6c 18 3c
       0.06628016 0.008824498 0.033835143 0.009303302
000080 fe e7 f8 3c f9 de 5f bd 7f cc b1 3d 57 e8 cc bc
       0.03038406 -0.054656003 0.08681583 -0.025013132
000090 b8 9f 70 bd fc 8f 29 bc 32 0b 46 bd 1b 9a 85 bd
       -0.05874607 -0.01034927 -0.04835052 -0.06523534
0000a0 99 18 0c bd 10 83 58 bd af 79 bd bb 0b ca 1b bd
       -0.034203146 -0.052859366 -0.005782328 -0.03803448
0000b0 00 dc 4b 3d 97 62 ca 3c 8c aa 5c bd 3c 48 f4 bc
       0.049770355 0.024705214 -0.053873584 -0.0298196
0000c0 fc d2 4b bc 81 57 a8 bd 8b e7 51 bc 36 76 61 bd
       -0.012440439 -0.08219815 -0.012811552 -0.055044375
0000d0 cc f4 3f bb 6a 6d ac bc d3 7b 95 3c 60 c0 97 bc
       -0.0029290197 -0.021048266 0.01824752 -0.018524349
0000e0 80 97 55 bd 8c d4 17 bd 19 ab 2d bd 5f ad f7 bc
       -0.052146435 -0.037067935 -0.0423995 -0.030234037
0000f0 94 c5 19 3d 05 d8 69 bd f8 0f 83 bc bd 00 3b 3d
       0.03754194 -0.057090778 -0.015998825 0.045655
000100 8c 29 2c bb 80 8f 0e bc 5c e6 d7 3c ee 35 b7 3c
       -0.002626988 -0.008701205 0.026354961 0.022364583
000110 29 78 86 3d 3e b2 09 3d 13 80 4f 3d b3 8b cf 3c
       0.065658875 0.03361725 0.05065925 0.025335168
000120 ac da d7 3c 28 3c 54 3d 1a 9d e9 ba 80 af ca 3c
       0.026349388 0.051815182 -0.0017823309 0.024741888
000130 c2 6d ee 3c da ee 21 3d cc 29 88 bc b6 8e 80 bc
       0.029105071 0.039534427 -0.016621493 -0.01569305
000140 e6 7b 41 3d 77 54 27 3d c9 0b 68 bd 60 e1 3c bb
       0.0472373 0.040852036 -0.056651864 -0.0028820857
000150 72 10 bc 3c 79 a3 b1 bd a7 74 8b bb 80 c6 a3 bc
       0.02295706 -0.08673758 -0.0042558494 -0.019992113
000160 4c 4b 6f bd b4 e1 2a 3d 60 78 30 bd 0a cc 76 bd
       -0.058421418 0.041719154 -0.04308355 -0.06025318
000170 5c 6d 57 3d 07 e2 b0 3c 54 2a 32 bc 71 f2 24 bd
       0.052594528 0.021592153 -0.01087435 -0.040270273
000180 6e f1 d5 3c 90 9a 0b bd 3a 48 b0 3b fe 66 ab bb
       0.0261161 -0.03408295 0.005379704 -0.0052307835
000190 17 c7 bd 3b 52 e8 01 3c 8a d6 6d 3c fa c3 57 3d
       0.0057915556 0.007928925 0.014516482 0.052677132
0001a0 39 a5 6b 3d 6f 9b 7e 3d c8 81 c1 3d 1e e1 16 3d
       0.057530615 0.06215995 0.09448582 0.036835782
0001b0 4a a8 f3 3c bf d6 1d 3d c2 f1 eb bc ec 96 4d bd
       0.029743332 0.038534876 -0.028801803 -0.05019276
0001c0 fc e4 58 bd d8 99 44 3d 78 45 d3 bc 60 2c 41 bd
       -0.05295275 0.04799828 -0.025789961 -0.04716146
0001d0 27 b0 20 bd 3a 8d 0a 3d d1 f6 06 bd 2d 4a 26 bc
       -0.039230492 0.03382609 -0.032950226 -0.010149521
0001e0 df 44 1a bd 11 77 c0 3c 1c 05 28 3d 4c 76 82 bc
       -0.037663337 0.023494275 0.041020498 -0.015925549
0001f0 40 cf 03 bc 8f 17 c4 bc db 58 7c bc cb c2 53 bc
       -0.008045018 -0.023937015 -0.015402044 -0.01292486
000200 a3 95 6c 3c 4b ba 5e 3d e4 b9 4c 3d 4a 62 1c bd
       0.014439973 0.05437688 0.049981967 -0.038179673
000210 02 ff 0f bd 8f 4c 18 3d 3b 57 1e bc 89 ee 29 bc
       -0.035155304 0.037182387 -0.009664352 -0.010371813
000220 f0 5a 08 bd 53 07 96 3a 97 43 b4 3b 7b 16 d5 3c
       -0.03328985 0.0011446275 0.0055012214 0.026011696
000230 5d b5 d5 3c e4 a6 7f 3d 0f cf 55 bb 42 d3 b3 bc
       0.026087457 0.06241502 -0.0032624637 -0.021951322
000240 d5 02 23 3d da 57 cf 3c 6d 27 07 bd 10 ac dc bc
       0.039797623 0.025310446 -0.032996584 -0.026937515
000250 8b 09 01 bd 35 b9 bb 3a a1 38 bf 3b 7d f9 9b bc
       -0.03150324 0.0014322164 0.005835608 -0.019039864
000260 3e e9 c9 bc db f8 0b bd 0d 39 01 3c c3 dd 0f bd
       -0.024647351 -0.034172874 0.007887137 -0.035123598
000270 8b 7b 33 bd 00 6d 6b 3c 6a 97 22 3d 6a b4 e4 3c
       -0.04381899 0.014369249 0.03969518 0.02791806
000280 20 53 25 3d a2 b0 25 3d 28 58 e1 bc da 5c 46 bd
       0.040362477 0.040451653 -0.027507856 -0.048428394
000290 da f9 68 bd 17 0e 94 bc 08 7d 96 3c f1 ef d2 3c
       -0.056878902 -0.018073125 0.018370166 0.025749179
0002a0 a6 53 d5 3c cd a0 6b bd 76 0a c6 3c 5b 81 38 3c
       0.026040863 -0.0575264 0.02417491 0.0112613095
0002b0 ba ee d9 3c 53 e9 eb 3c c1 83 00 bc 62 4c 52 bd
       0.026603092 0.028797781 -0.007843913 -0.051342376
0002c0 7a 79 2b 3d 93 47 4d bc 34 d0 af bc e5 8e 13 bd
       0.041863896 -0.012529272 -0.021461584 -0.036024947
0002d0 cd db 82 3d df 4a 0a 3d 77 ea 27 bd 8b 02 16 3d
       0.0638958 0.03376281 -0.040995087 0.03662352
0002e0 6c 4e e7 3c d4 3d 1c bd 60 99 e8 ba d4 90 2a bd
       0.028235637 -0.0381449 -0.0017745905 -0.041642025
0002f0 6a 04 01 3c 9e 5c 9e 3c 5c 21 40 bc a4 ce 0e 3d
       0.007874588 0.019331273 -0.0117267035 0.034865037
000300 18 58 c3 bc 6f cb df 3c bf 7c 99 3d 42 a8 32 3b
       -0.023845717 0.027318684 0.074944966 0.0027260934
000310 b0 38 16 3c 67 00 b9 bc 00 06 82 3d e7 e2 e7 bc
       0.009168789 -0.0225832 0.06348801 -0.028306438
000320 78 f3 16 bd 43 0d 1d bc 36 84 da bb 79 15 97 3c
       -0.036853284 -0.009585681 -0.006668593 0.018442856
000330 f9 c1 71 3c 4c 12 c4 bc 51 14 78 3d 47 cf 02 bd
       0.014755719 -0.023934506 0.06056625 -0.031935956
000340 5c 12 48 bd f6 72 13 bd 43 2b a5 bc d0 30 a6 3b
       -0.048845634 -0.035998307 -0.02016223 0.005071737
000350 52 ba 68 3d 21 22 9e bc 14 9c b4 bc 61 3e 1e 3d
       0.056818314 -0.019303383 -0.02204708 0.038633708
000360 54 de f9 bc 21 04 50 3d eb 0e 83 bc c0 5d fb 3c
       -0.030501522 0.050785188 -0.015998324 0.030684352
000370 16 04 05 3d 41 24 8d 3c 27 77 fe 3c 65 5c 2e 3d
       0.0324746 0.017229201 0.031062676 0.042568583
000380 27 cd 2a 3b 63 e5 e0 bc fe de a4 3c ec 0d 33 3d
       0.0026062222 -0.02745313 0.020125862 0.04371445
000390 bf 96 af bc f4 30 67 bd bc c6 9f bc c5 f1 03 3d
       -0.021434186 -0.05644317 -0.019503944 0.03221299
0003a0 63 cc 0a bd 42 ca 57 3d b2 22 9b 3c 77 33 6b 3c
       -0.033886325 0.052683122 0.018937442 0.014355532
0003b0 57 5b 4f bd 3b 3d d3 3b 2c bf f5 3c 75 c7 c8 bb
       -0.050624218 0.006446508 0.029998384 -0.0061272928
0003c0 bb f2 34 3d d1 44 ac bc 3f 30 17 bd fa e6 9f bb
       0.0441768 -0.021028908 -0.036911245 -0.0048798295
0003d0 f6 20 df 3b ba 47 46 3d ed d1 2c 3c 4b e3 a9 bc
       0.006809349 0.048408248 0.010548097 -0.020738265
0003e0 b0 7e 16 3d df 20 13 3d 1c d1 4c 3d aa da 0c 3d
       0.036741912 0.03592002 0.05000411 0.03438822
0003f0 cf d5 9c 3c 96 88 50 3b 18 87 d9 bb 32 87 74 3b
       0.01914492 0.0031819693 -0.006638419 0.0037312028

decoder.2.bias f4 [32]
000000 91 50 06 bd 47 4c 56 bc 26 bb b7 bc 90 c5 62 3d
       -0.032791678 -0.013079709 -0.022428107 0.05536419
000010 e2 07 22 bd 3c e0 d3 3c 23 6c 07 bd da 54 5a 3d
       -0.0395583 0.02586376 -0.03306211 0.053303577
000020 a3 21 63 3d ed d7 f5 bc 9b 00 c4 bc 9c c4 a5 3d
       0.055452 -0.030010188 -0.02392607 0.08094141
000030 bb 14 b6 bb 62 d5 59 3a 18 c8 ea bc 53 95 20 3d
       -0.0055566705 0.00083096896 -0.028659865 0.039204907
000040 bd df 25 3d 40 37 6e 3d bb 6e da 3c f6 31 e6 bb
       0.040496577 0.05815816 0.026664129 -0.007024999
000050 66 de 00 3d 51 7b 50 3d 73 4d 8f bc b1 8c 54 3d
       0.031462096 0.050898854 -0.017492985 0.051891986
000060 c4 10 13 3d 68 86 35 bd 50 46 5d 3d 19 fc 8c bc
       0.03590466 -0.044317633 0.054022133 -0.017210053
000070 b1 a3 53 3d 81 b2 35 ba 18 66 cb 3b fe 97 7d bc
       0.05166978 -0.0006931201 0.006207239 -0.015478132
