results/DenoisingCAE_Adam_best.pth (torch, 750797 bytes, 12 tensors)

encoder.0.weight f4 [32, 3, 3, 3]
00000000: 1b85 2d3b fef1 ebbc a2af d9bc 0f45 213e
00000010: 2b9b 0e3b 7d95 9b3d eda3 df3d 0bbc 82bd
00000020: a52f 94bd 85d0 2cbe 4ab4 a43c d679 e0bb
00000030: 8450 a8bd 83a7 2a3e a2ce 313e 0c1a fcbd
00000040: 3829 483e d1b1 413e 3977 f03d 3082 efbc
00000050: 58f5 69bd a1e0 233e 0487 b6bd 7b78 873d
00000060: 5de8 2b3e 41df 5bbd abfb f5bd 9475 563e
00000070: 6e45 32bd ec4c d63d 193a 6dbd 5e0a be3d
00000080: b012 2d3e 261a 65bd a8f5 f23d afb7 1dbc
00000090: 3f73 743d 36a6 13be bc4d 743d a752 da3d
000000a0: 4438 223e 2b0d b4bd 0b3d a6bd 7c5e c4bd
000000b0: 9761 133d 3803 f53d e9b8 4c3e b85e 16be
000000c0: be7e 083e b36b 1ebd 54bc 9b3d aad6 21be
000000d0: 0d46 2b3e ea01 bf3d 69b1 11be a330 29be
000000e0: f183 0abe 186b 9f3d 010e 553e c59a 1c3e
000000f0: 1fc8 303e d774 193e be56 15bd 39b9 f73d
00000100: e88e 593e a2c4 e6bd 8385 6c3a b13a c9bd
00000110: ef16 81bc 9d3f 10be d25e 993d 9dd7 0c3e
00000120: 71b8 643c 063a efbd 55db 01bd 5460 323e
00000130: 6d5e 133e 7ab3 823d a62b a43b f42f 04be
00000140: af62 943d 44c6 83bd 44b6 e23d f2d9 25be
00000150: c782 963c 3577 2dbd 1788 303e aca7 663d
00000160: cb9d 133e 484c 5f3d 816a 063e 8d0c 6f3d
00000170: 0b16 3c3e a36d 3a3d 7c51 fe3d 2fff dbbc
00000180: 1702 1a3e e030 fc3d d90b 1dbd 40e9 b7bd
00000190: 7bda 48bd a32b bfbc c077 9b3c 332a 523e
000001a0: 2701 b8bd 9482 2e3e 61b5 1bbe b176 b83d
000001b0: a9e7 403e c574 70bc 894c 3a3e eb32 8a3d
000001c0: 03b3 bdbd f215 2c3e 6bab f1bd e5a3 bfbd
000001d0: 7d72 403e 8e12 24be 842a a83c c970 3d3e
000001e0: 961f b7bb f3ec 1cbe 14a1 cbbc 910a 2d3d
000001f0: 8086 5abd b6bd 9dbd 0ffe 83bc d6e9 e13d
00000200: 4bda 243e 71b5 c73d 34ff f9bb 412e 2abe
00000210: 49cf 353e 89f9 e13d fc4f 1f3e 9cb6 1fbe
00000220: 8e3b 08be b4d5 c0bc 3134 b53d 7158 303e
00000230: 5a74 ac3d 7f22 8b3d d9c6 97bd c447 223e
00000240: 4b22 363d c304 8e3d b8ee 153e 9d10 d6bc
00000250: 6e86 103e ad12 92bd 4c71 d13d 801a 043e
00000260: cc39 d73d 0c75 0e3e 7d12 c0bd b8c1 f0bd
00000270: d1e6 e4bd 5f68 593e 7a4c 5e3e fcd1 e93d
00000280: b231 c93d acf9 a93c f505 15bd e8e1 82bd
00000290: 4fc0 b53d 2f24 5dbd dbfe 813c 99aa 473d
000002a0: fb1d 4e3e 52a4 0e3e 6bfb 89bd c8ab 2a3d
000002b0: bf31 4c3e a732 343c 5816 e73d 2198 f93d
000002c0: cb97 57bd b383 2cbe 47f2 423e 0068 b2bd
000002d0: 4d4c ab3d f3f8 373e e713 77bd cd52 e3bd
000002e0: 0efb b23d 7a75 043e 3e14 5b3e 2319 fe3d
000002f0: f412 053e 3aeb ba3d bd14 313e 2845 2cbe
00000300: 8bf8 0c3e fe08 143e 67a3 9cbc 5be6 18be
00000310: 85fa 06be 8bb4 0f3e 3fed 3c3e eba5 b03c
00000320: c927 523d fde4 98bd d9a2 49ba 260e b5bd
00000330: bccc c03d c232 593e 0dcb b2bc 5496 803d
00000340: 04ad 03bd 4e7a 20be 7a00 80bc 1f13 353e
00000350: dfda 003e 243d c8bd ee0a 943d 9b07 303e
00000360: 1d51 d2bc b97a d63c 12e0 6cbd 2992 11bd
00000370: 5ef6 673d 6c3d c83d e361 8e3d daee 84bd
00000380: 1fc3 5a3d 2d7e 413d 0226 76bd 359f 493e
00000390: 079a 173e 3cc6 e2bd fc58 253e f899 0d3e
000003a0: 033e 263e 6531 053d 03bb c1bd 8457 133d
000003b0: b69a aebd 5b8c c73c 8556 2fbc 360f 66bc
000003c0: 8b6c 773d 1ace 71bb 48cf 2e3e d866 143e
000003d0: 07a7 063e dab1 81bd a425 1c3e 9c4f de3d
000003e0: 8693 10bd 3a91 28be d67b 98bd 2159 b23d
000003f0: 9c28 4ebd 2473 2e3e a187 8f3d ff3d 29bd
0.0026477042 -0.028801914 -0.026573006 0.15749 0.0021759968 0.07596872 0.10919938 -0.063835226
-0.0723565 -0.16876419 0.0201055 -0.0068504615 -0.08218482 0.16665463 0.1736398 -0.123096555
0.19546974 0.18915488 0.1174149 -0.029236883 -0.057118744 0.16003658 -0.08912471 0.06614777
0.16787858 -0.05367971 -0.120108925 0.2094329 -0.043523245 0.104638904 -0.057916734 0.09279321
0.1690166 -0.05593314 0.118632615 -0.009626313 0.05968022 -0.14418873 0.059644446 0.10660296
0.15841776 -0.08791574 -0.08117112 -0.09588334 0.03598174 0.119635046 0.19992413 -0.1468457
0.13329598 -0.03867693 0.0760428 -0.15804544 0.16725941 0.09326537 -0.14227833 -0.1652246
-0.13526894 0.077840984 0.20806123 0.15293415 0.1726384 0.14985977 -0.036459677 0.12095875
0.2124592 -0.112679735 0.00090225803 -0.098256476 -0.015758006 -0.14086767 0.07488789 0.13754125
0.01395999 -0.11680989 -0.031703312 0.17419559 0.1439149 0.06381889 0.005010086 -0.12908918
0.07245385 -0.064343005 0.11069921 -0.16196421 0.018372906 -0.042350013 0.17239414 0.056312248
0.14415662 0.054516107 0.13126566 0.05836158 0.18367784 0.045514714 0.12417886 -0.02685508
0.1503986 0.1231401 -0.038341377 -0.08980036 -0.049036484 -0.023336237 0.018978 0.2052391
-0.08984595 0.17041999 -0.1520591 0.090070136 0.18838371 -0.0146762775 0.18193258 0.06747993
-0.092626594 0.16805246 -0.118002735 -0.09357432 0.18793674 -0.16022703 0.020528086 0.18500055
-0.005588482 -0.15324764 -0.024857081 0.042246405 -0.053350925 -0.077022 -0.016112356 0.11030929
0.16098897 0.09751404 -0.0076292995 -0.16619207 0.17754854 0.11033923 0.15557855 -0.15597004
-0.13303968 -0.023539402 0.08847845 0.17221238 0.0842063 0.06793689 -0.07410974 0.15847689
0.044466298 0.06934502 0.14641845 -0.026130969 0.14113781 -0.071324684 0.10226688 0.12900734
0.10509071 0.13911837 -0.09378526 -0.11755699 -0.11176837 0.2123122 0.21708861 0.114170045
0.09823932 0.020748936 -0.036382634 -0.063907444 0.088745706 -0.053989585 0.015868595 0.04874668
0.20128624 0.1392987 -0.06737407 0.04166773 0.19940852 0.010998405 0.112835586 0.121872194
-0.052634995 -0.16847114 0.19037734 -0.08711243 0.083641626 0.1796606 -0.060321715 -0.11099777
0.08739291 0.12935439 0.2139444 0.12407138 0.12995511 0.09126897 0.17293067 -0.16823256
0.13766687 0.14456555 -0.019120885 -0.14931624 -0.13181503 0.14033715 0.18449877 0.02156349
0.051307473 -0.07465551 -0.00076918077 -0.08840589 0.0941405 0.21210769 -0.021825338 0.06278673
-0.032147422 -0.15671656 -0.015625227 0.17683075 0.12583493 -0.09777287 0.07228647 0.17190401
-0.025673443 0.026181566 -0.057830878 -0.03553978 0.05663144 0.0977734 0.06952264 -0.0649087
0.05340874 0.04723947 -0.06009484 0.19689639 0.1480485 -0.110729665 0.16147226 0.13828266
0.16234593 0.03251781 -0.09459498 0.035972133 -0.085256025 0.024358919 -0.01070178 -0.0140417125
0.06040625 -0.0036896528 0.17071259 0.14492357 0.13149653 -0.063327506 0.15248734 0.10855028
-0.03529694 -0.1646165 -0.07445495 0.08708406 -0.050331697 0.1703611 0.07008291 -0.04131889

encoder.0.bias f4 [32]
00000000: 5034 9d3c 681d 23be fb69 8ebd e909 f6bd
00000010: bdd9 4bbd 2fef 243e 89eb 53bc a4a0 743c
00000020: 9f14 12be 266e 213e c9ef 0ebc 38c3 b83d
00000030: c4ca 44bc c155 6bbc 07aa 87bd 0acb 573e
00000040: 1e9a 34bc 8e48 1b3e a87e 81bd ea8e fa3d
00000050: 5662 5a3e a878 3e3e bb76 d33d c42d 013e
00000060: 49f0 9a3d a1ac 5b3e abe0 13be 46ce a6bd
00000070: 0f1c 0dbe fb8c eebd 56a0 53bd ecb2 333e
0.019189984 -0.15929186 -0.06953808 -0.12013609 -0.0497682 0.16106866 -0.012934574 0.014930878
-0.14265679 0.15764675 -0.008724161 0.0902161 -0.012011234 -0.014363707 -0.06624227 0.21073547
-0.0110230725 0.15164396 -0.06322986 0.1223429 0.21326575 0.18600714 0.103253804 0.12615114
0.07565362 0.21452571 -0.14441173 -0.08144812 -0.13780235 -0.11647984 -0.05166658 0.17548722

encoder.2.weight f4 [64, 32, 3, 3]
00000000: 05d5 363c 5c3c c1bb 1b20 9e3c 96c7 f63c
00000010: dcba 92bc b022 163c 9ec3 703d fdda ddbc
00000020: d3c1 f3bc f3ed 19bc 1acb 82bd bf23 bf3c
00000030: e190 6dbd 6015 c3bc 1b10 98bb b28c 1a3b
00000040: 3fef 2cbd 552a 80bc fdeb 88bd 74da 85bd
00000050: d0d6 a63b 21f3 14bc 8021 093d 8d03 953a
00000060: 405a 3c3c de34 a0bb 2192 fbbc f69c 13bd
00000070: feda 40bc 1aa0 52bc 3bad 72bd 2c8a 7d3c
00000080: e746 2d3d ed11 e7bc 5c28 1d3d f47b 34bd
00000090: 8959 45bd 25ec 1fbc b44b 8a3c 9e8a fb3c
000000a0: 01ba a5bb 4e5d 51bc 1847 16bc 6f5a fa3a
000000b0: a2f1 9b3c 654e 13bd c059 823c 26d3 16bd
000000c0: 4fc4 e4bc 81d9 babc 1bb8 cbbc 274a 0b3d
000000d0: 9732 693d 3dcb 8a3d 6f63 5e3d 4acb fe3c
000000e0: 5cfa fcbc 4399 5d3d e435 0dbd 6745 68bd
000000f0: 869e 513d 325b ba3b c6f7 ec3c 173e 64bd
00000100: 0d07 4abd 9b71 55bd 383e 66bd d1d0 4b3d
00000110: 587a 6bbd 1084 fd3c 2318 a538 27ea f23c
00000120: d1ec bdba 2995 acbc 9d0a 88bc dcef 47bc
00000130: 532d 043d e96e 193d bf2f 6a3c c636 6dbd
00000140: 19f5 0cbc ad46 613b 8d9a 0d3c 28f0 9f3c
00000150: 45f0 3b3b 1c45 31bd f3e8 463c a438 8d3d
00000160: 0cb2 fabc e347 713d 1a62 203d 70e6 1a3d
00000170: 5989 aebc 4e25 fbbb 0e8f 52bd a60b 333c
00000180: d3d3 adbc 28cc 52bc 7ca4 fe3b 52bf 823d
00000190: b203 673d c6b2 7739 bd4a 5e3d 69e7 783d
000001a0: 9051 8fbc 8e0e 913c 116d cebb 35b8 543d
000001b0: 831f ee3c d8a0 0a3d 40e6 003d be42 51bd
000001c0: d6fc 423d 399b 323c cd10 6cbd c192 fbbc
000001d0: b0ea 03bd f569 7abc 9d26 233d 8f30 24bc
000001e0: b432 82ba 196d 183c 8732 25bc f7c8 913c
000001f0: eb08 673d f1c4 f33b 9477 193b dc06 dbbc
00000200: 6d1f abbd 5a23 bebc 0acd a2bd d339 16bc
00000210: 216f d2bc 9d5b 113d 6400 383b 0d48 8a3b
00000220: 6bf0 20bc b71d d2bb 3882 293b 3766 593a
00000230: 810d 9c3d 1812 ab3c f242 123d defb 6e3c
00000240: d7b9 5d3c 00e3 60bd 1888 5d3d 0efb 1abd
00000250: f4ae 63bd 49a5 64bd 362d f63c d8ee 203d
00000260: 6117 b23c 1935 9ebc bd4b 933d 6a0b 13bd
00000270: b6ff 403d d278 7c3d 15f4 623c 1bc9 b83c
00000280: 3a7e 87bc 9746 8d3d 776c 063d 2ef7 6dbd
00000290: 1946 d93c 4829 3e3d 3dba 3f3d 254d 383c
000002a0: b134 2a3d 4b84 9f3c a9dd a0bc d4a0 b83d
000002b0: 552a 2a3c 2eff b33d 85b5 993d 73f0 5e3b
000002c0: 0d79 4e3c a19b 573d 5a1f 953d a95a a43d
000002d0: f632 753d 32a6 c2bc 8a73 5b3d a02b 5abb
000002e0: 71ba dc3b b0a2 903b 0017 8c3d dfdb 923c
000002f0: 4ec7 1eb9 8df2 933d 820c 4e3d 1275 053c
00000300: d0dd 7fbc a334 84bc 6405 793d 5ec4 203d
00000310: 2a1c c1bc ba76 e9bb 0755 be3c 7655 553d
00000320: 08e5 c83c 06fc a1b8 33c2 b83d 1a04 76b9
00000330: 12b5 913d cace 8b3c eb2e 96bc 21be c43c
00000340: 2518 8e3d ace5 d93c 44b0 783d b702 90bb
00000350: 42a9 9ebb d2fc 8f3d f6ff 94bc 6311 fbbb
00000360: 215e 3d3d 62f7 9dbb 96e7 583d 4774 c6bb
00000370: 69e6 09bc 3b38 f1bc 9ee2 f3bb c85e f33c
00000380: 75d3 e0bc aa61 7c3d 8979 603d 4a08 4a3d
00000390: cf34 25bd 8d0d cbbc ced7 9f3c 5be9 093d
000003a0: 42a0 59bc bed6 bbbb 33ec 9a3b e76c a43c
000003b0: f01e 7abd 6277 bcbc a10f 143d 21cb a13c
000003c0: cbc2 7fbd 48d0 823c 6f8f 32bd bbf0 ba3c
000003d0: e3c8 873d 8767 c53c 53fd 9dbd 127a ab3d
000003e0: 08e0 56bc feb2 f1bc eaea ba3d d767 223d
000003f0: 499f 66bc 32e4 d7bb 880f 273d f416 57bc
0.011159186 -0.005897088 0.019302418 0.030124467 -0.017911367 0.009163544 0.058780305 -0.02708196
-0.029755509 -0.00939511 -0.06386395 0.023332475 -0.057999495 -0.023813903 -0.004640592 0.0023582396
-0.04222035 -0.015645185 -0.06685636 -0.06535807 0.0050915256 -0.00909117 0.033479214 0.0011368856
0.011496127 -0.0048891148 -0.030709328 -0.03603836 -0.011770962 -0.012855554 -0.059247237 0.015474837
0.042303946 -0.02820679 0.038368568 -0.044063523 -0.04818109 -0.009760891 0.016881801 0.030705746
-0.005057574 -0.012778593 -0.0091722235 0.0019100438 0.019036118 -0.035963435 0.015911937 -0.03682246
-0.027925638 -0.022808792 -0.024868062 0.034006264 0.05693301 0.06777046 0.054294046 0.031102795
-0.0308811 0.05410124 -0.034475222 -0.056706812 0.05117657 0.005687141 0.028926741 -0.055723276
-0.04932313 -0.052110296 -0.05621168 0.04975969 -0.057489723 0.030946761 7.872309e-05 0.029652668
-0.0014490132 -0.021067219 -0.016606623 -0.012203183 0.032269787 0.037459288 0.01429361 -0.057913564
-0.008603358 0.0034374401 0.008642805 0.019523695 0.0028677147 -0.0432788 0.0121405 0.06895569
-0.030602477 0.058906447 0.039156057 0.03781742 -0.021305727 -0.007664359 -0.05140596 0.01092807
-0.02121917 -0.012866057 0.007771073 0.06384148 0.05640001 0.00023622354 0.054270495 0.060767565
-0.017494947 0.017707136 -0.006299623 0.051933486 0.02906776 0.0338448 0.031469584 -0.05108904
0.047604404 0.010901266 -0.05763321 -0.030709626 -0.032206237 -0.015284051 0.039831746 -0.010021343
-0.0009933324 0.009303355 -0.010082847 0.017796023 0.05640499 0.0074392487 0.0023417221 -0.02673667
-0.08355603 -0.023210216 -0.07949264 -0.00916906 -0.025687756 0.03548776 0.0028076405 0.004220015
-0.009822945 -0.0064122337 0.002586497 0.0008293124 0.07619763 0.020882651 0.035708375 0.014586417
0.013533077 -0.054903984 0.054084867 -0.03783708 -0.05558677 -0.05582169 0.030050855 0.03929028
0.021739664 -0.019312428 0.0719218 -0.035899557 0.047118865 0.06163866 0.013852139 0.022556832
-0.016539682 0.068982296 0.032818284 -0.058097057 0.026522683 0.046426088 0.04680847 0.011248861
0.041554157 0.019472262 -0.019636946 0.090150505 0.010386069 0.08788906 0.07505325 0.003401783
0.012602103 0.052638654 0.072813705 0.080251046 0.059863053 -0.023760889 0.053576984 -0.0033290163
0.0067360927 0.004413925 0.068403244 0.017927108 -0.00015142301 0.07223997 0.050304897 0.0081455875
-0.015616849 -0.01613838 0.060796157 0.03924977 -0.023573 -0.007124749 0.023233904 0.052083455
0.024523273 -7.724021e-05 0.090214156 -0.00023461916 0.071146145 0.017066378 -0.01833292 0.024016442
0.06938199 0.026598774 0.060714975 -0.004394855 -0.0048419544 0.070306435 -0.018188458 -0.007661985
0.046232346 -0.00482075 0.052955233 -0.006056342 -0.0084167505 -0.029445758 -0.0074427864 0.029708281
-0.02744458 0.061616577 0.054803405 0.04932431 -0.040333565 -0.024786735 0.019512083 0.03366981
-0.013282837 -0.0057323864 0.004727864 0.02007146 -0.06106466 -0.023006145 0.036147717 0.01975018
-0.06244163 0.015968457 -0.04359382 0.022819867 0.06630113 0.024097217 -0.077143334 0.083728924
-0.013114937 -0.029504295 0.091268376 0.03964981 -0.0140760625 -0.0065884823 0.040786296 -0.013128031

encoder.2.bias f4 [64]
00000000: dc65 0cbc 1a98 bc38 865b 883d 1eaf 89bc
00000010: 326a d639 615f 1c3d 8ce1 d4bc 8087 9c3d
00000020: c4b7 4b3d ce68 10bd fd62 9d3d 6766 1bbd
00000030: 862c d0bc 9618 3fbd 4bfb 3f3c be37 653d
00000040: 71bd 72bd 7165 0f3d a17b ac3c e640 f1bc
00000050: 081f 02bd f22a 453d 25df 0a3d e5ff 6dbd
00000060: f463 f83c ffe9 723d af38 733c 8d38 9c3b
00000070: f85e 14bd 5925 713d d325 02bd 97ec 06bd
00000080: a847 893d d505 8b3d 2191 1f3d 256c 173c
00000090: fde5 5b3c eec9 f3bc 5154 0dbc 36f2 813c
000000a0: 2d47 c7bb 19ec 4abd bba8 833b 9d70 8d3d
000000b0: ae9c 703c a148 26bc a682 38bd eb2b dabb
000000c0: f973 b43c ae2a bbbc b7bb 403d 5ba3 e8bc
000000d0: 81f9 623d 41bf 133c 8ec7 0c3d d427 0ebc
000000e0: 8e57 0ebd 9db1 2a3b 87b6 9e3d 98c6 6abd
000000f0: d2b4 4bbc 0365 c83c 8bfe 3dbd e5ac f73c
-0.008569207 8.99287e-05 0.06658082 -0.016807135 0.00040896382 0.038176898 -0.025986455 0.07643032
0.0497358 -0.0352562 0.07684896 -0.037939455 -0.025411855 -0.046654306 0.011717628 0.055961363
-0.059262697 0.03500885 0.021055045 -0.029449891 -0.031767875 0.04813666 0.033904213 -0.05810537
0.030321099 0.059305187 0.014845057 0.0047674836 -0.03622338 0.058873508 -0.031774353 -0.032940473
0.067031205 0.06788222 0.038956765 0.009242092 0.013421533 -0.029759374 -0.00862606 0.015862565
-0.006081483 -0.049541567 0.004017917 0.06906245 0.014685793 -0.010149152 -0.04504647 -0.0066580675
0.022027956 -0.0228475 0.04705402 -0.028398206 0.055413727 0.009017766 0.034369998 -0.008676488
-0.034751467 0.0026045807 0.07749658 -0.0573183 -0.012433248 0.024462229 -0.04638533 0.03023381

encoder.4.weight f4 [128, 64, 3, 3]
00000000: abe4 0e3d 2c2c 053d 87dc 053d f418 743c
00000010: c6b6 9abc 1ac3 85bc ebd4 e33c c492 4abd
00000020: abf2 30bd 9479 15bd 22b2 9b3c 29aa 093d
00000030: aa77 5fbc 883d 823d 8c73 8c3d e0c9 763c
00000040: ace6 273d e395 39bb c626 b3bc 617a e9bc
00000050: e1ad 263d 317e 2dbc 922f 3d3a 2007 063d
00000060: 6434 01bd 6205 d63c d670 503d 8f7e 893c
00000070: 750a ea3c 1ef1 823d 6379 8b3c 4cf6 cbbc
00000080: b6e7 683d 15f3 29bc 9fec ee3b 6b8b 2b3d
00000090: 047a 27bd dc0d 59bc b79a 023d d786 48bd
000000a0: 5a03 cf3c b7da 75ba 2b22 9cbb ef77 1a3d
000000b0: a75b ae3c 1a23 693d 7432 38bd b83e 58bc
000000c0: 8fa1 853c e614 43bc 1d95 86bc 0440 9e3c
000000d0: 15b3 dabb 575c f0bc fc15 aabb 7b43 23bd
000000e0: f0f0 00bc 8249 d4bb f08d efba 753e 09bd
000000f0: 4ac2 493d 5c9d c7bc c814 05bd 3313 493d
00000100: 3c20 89bd 9d48 e53c 0a7b 093d de4b 73bd
00000110: 58ea 3ebc de7c 933b 46a8 23bd 2893 3d3d
00000120: 424c 263d 90f5 d2bc d9c1 76bd a3c1 3b3d
00000130: e682 17bd 43ab 1dbc 583a d33c 37ec d9bb
00000140: 1362 a2bd 7fb1 2ebc f012 e73c 46f0 3e3d
00000150: d602 f0bc 559b ff3c 0f42 533d 727f 13bd
00000160: c90d 533c 3c20 1e3b 53a9 ff3c 84ee 523d
00000170: 7b19 b13b bb9d a4bc 9b7a 1bbc 41c8 7a3c
00000180: 8fc9 0abd 01db 53bc d317 4dbc 84cc 6bbc
00000190: 762b f13b 12f5 863c 4e29 243d 0b9f a63d
000001a0: e157 073d e479 283d 0bea 213d 787f 073d
000001b0: f880 0fbd 62eb d03c e64f d73c 0d54 52bc
000001c0: 24b4 8a3d 2805 f83c 1e2a 2e3b 3cff 883c
000001d0: b904 41b9 d48a dcbc e3ea 643d 7b86 c83b
000001e0: 76ca 20bd 5736 263d 1446 0e3d 32d3 f13c
000001f0: 0be1 483b af22 183a 437a 2e3d a79f 2e3d
00000200: 2c11 03bd 6bc9 3f3d 5f39 31bc e26c 24bd
00000210: 1789 4c3d 47ca 1ebd 5b2c 5cbd 53df a83c
00000220: 394b fe3b 50a5 683b 2b0d b9bc e4f8 90bc
00000230: 9f7d f83b b790 6bbc a311 ba3c a6c8 393c
00000240: 04f0 11bd af69 0e3d f571 073d 192c 813c
00000250: 7955 ff3c 51f2 823b b5b3 5bbd 8968 943c
00000260: 6a13 4cbc f4e6 c7bb 74dc 8dbc 16d9 123d
00000270: d6e5 96bc bb50 f3bc 993a 22bc 568e 99bc
00000280: 40ea 0d3c d325 c53b bbe2 693d 63e8 09bc
00000290: 209f 43bb 5b9c b33c 02b5 963c 66eb 6abd
000002a0: b510 c13c a349 ad3b bf4c d33c ca62 d63c
000002b0: 7677 0f3d a7ef 8dbc ba82 d7bc ad82 2b3d
000002c0: 2c82 143d af55 31bc d40d 223b 8e31 93bb
000002d0: c343 3cbd fcfd 8fb8 8c32 f13c b9a8 37bd
000002e0: fa58 ddbb 9d0b 543d 3b40 1bbc adbc d43c
000002f0: 7209 4f3d e10f 09bd 2ee8 bc3c 92ba acbc
00000300: fa92 f1bc 58da 653d 5754 863c 5c46 b7bb
00000310: 4086 0dbc a749 943b 7369 073b fedf 3b3c
00000320: a036 773c 82d1 ac3c 6716 603c b7eb 8a3d
00000330: d485 f43b 82ce 95bb ee3a 1c3d baf5 debc
00000340: 3628 f63c de38 16bd f6a4 113d e3cd 89bc
00000350: e78b 733c 8f61 89bc d925 46bc cda5 edbb
00000360: 9772 393d dc17 d2bc 891f 353c 6a5d 4a3c
00000370: 94f9 a83b f686 a5bc f2de 613c 8d62 dfbb
00000380: 0685 45bd 2aa2 d0bc 87b7 6abb 7b33 dfbc
00000390: 1abf d43c fb6c f0bc 1642 013b 93cb 323d
000003a0: 6baa 183c 2121 5ebd b8ed 9abc b3f4 e43c
000003b0: bbab a8bb 23fc d83b 30fe 69bb f808 f83c
000003c0: eddc 3d3d a1db 023d f1f1 ccbc a0db e73b
000003d0: cd35 cf3b 36ea 0fbc efaa b43c 424b e3bb
000003e0: 6672 0fbc 8aaa 4cbc 647c 26bc edf3 07bd
000003f0: 5fa7 34bd 1ec8 9fbc 6352 313b a859 04bd
0.034886044 0.03251283 0.032681014 0.014898527 -0.018885981 -0.016328383 0.027811488 -0.049456373
-0.043200176 -0.0364929 0.019005839 0.033609543 -0.01363937 0.063593924 0.06857976 0.015062779
0.04099147 -0.00283181 -0.021869075 -0.028500738 0.040693168 -0.010589168 0.00072168664 0.03272164
-0.031544104 0.026125614 0.05088886 0.01678398 0.02856944 0.06393646 0.017025655 -0.024897717
0.0568616 -0.010372897 0.007291391 0.041881006 -0.040887848 -0.013247933 0.03188583 -0.04895672
0.025270153 -0.00093785994 -0.0047648153 0.037712034 0.021283938 0.05691824 -0.04496999 -0.013198547
0.016312389 -0.011906838 -0.016428525 0.019317634 -0.0066741803 -0.029340906 -0.005190609 -0.039859276
-0.007869944 -0.0064784894 -0.0018276554 -0.03350683 0.049257554 -0.024367027 -0.03249052 0.049090575
-0.06695601 0.027988726 0.033564605 -0.059398524 -0.011652552 0.0045009693 -0.0399554 0.046282917
0.04060007 -0.025751859 -0.06024346 0.045838963 -0.03699007 -0.0096233515 0.025784656 -0.0066504735
-0.079288624 -0.010662436 0.028207272 0.04661586 -0.029298227 0.031201998 0.05157667 -0.036010213
0.012881705 0.00241281 0.03120867 0.051496997 0.005404649 -0.020094743 -0.009489681 0.015306533
-0.033883628 -0.012930633 -0.012517887 -0.014392022 0.0073599173 0.01647428 0.040078454 0.08135804
0.033042792 0.04113187 0.03952984 0.033080548 -0.035035104 0.025502864 0.026283216 -0.012837422
0.0677264 0.030275896 0.0026575397 0.016723268 -0.00018407674 -0.026921667 0.055888068 0.006119547
-0.03925558 0.040579166 0.0347348 0.029519651 0.0030651714 0.0005803508 0.042597067 0.042632725
-0.0319988 0.046822947 -0.010816901 -0.0401429 0.049935427 -0.038767125 -0.05375324 0.020614302
0.007760432 0.0035498925 -0.022589287 -0.017696805 0.0075833346 -0.014377764 0.022713488 0.011339342
-0.035629287 0.034768756 0.033067662 0.015768098 0.031168686 0.0039961715 -0.05363818 0.018116252
-0.012455801 -0.00610053 -0.017317034 0.03585156 -0.018420141 -0.029701581 -0.009901666 -0.018744629
0.008661807 0.006016472 0.057100993 -0.008417222 -0.0029849485 0.021925142 0.018396858 -0.0573534
0.023567537 0.005288319 0.025793431 0.026170153 0.035026036 -0.01732619 -0.026307452 0.04187267
0.036256954 -0.010823651 0.002472748 -0.0044919914 -0.04596306 -6.86608e-05 0.029443048 -0.04483864
-0.0067549916 0.051768888 -0.009475763 0.025968874 0.050546117 -0.03346241 0.02305993 -0.021085057
-0.02948903 0.056116432 0.016397638 -0.0055931043 -0.008637965 0.0045253816 0.0020662218 0.011466978
0.015088707 0.021095995 0.013677216 0.0678324 0.0074622426 -0.004571737 0.038142137 -0.02721678
0.030048471 -0.036675327 0.03555771 -0.016821807 0.014864898 -0.016770152 -0.0120939845 -0.007252431
0.045275297 -0.025646143 0.011054882 0.012351373 0.005156705 -0.020205956 0.013786064 -0.006817168
-0.048222564 -0.02546795 -0.0035814957 -0.027246227 0.02597003 -0.029348841 0.0019723228 0.043651175
0.009317975 -0.054230813 -0.018912181 0.027948713 -0.005147425 0.006621854 -0.0035704486 0.030277714
0.04635327 0.031947736 -0.02501771 0.007075742 0.006323552 -0.008783868 0.022054164 -0.0069364617
-0.008755302 -0.012491832 -0.010161493 -0.03319161 -0.04410493 -0.019504603 0.0027057163 -0.032312065

encoder.4.bias f4 [128]
00000000: ded6 003d 13a8 07bc bb5f 44bc 37a8 283d
00000010: 5756 ad3c 0591 483d a1bc 92bc 0280 933c
00000020: 0a27 483d 35bd 603c 0d4e c7bc 7ce3 543c
00000030: ac5c edbc f104 ec3b 727f abbb 36a2 b03c
00000040: 4bb1 3cbd f990 3abc 379a a63b eaee 9a3a
00000050: 7cb6 8d3c 9f37 0b3d 99d2 fa3c f9b5 1c3b
00000060: 01b5 253d 7403 103d 9b3e 6f3c 8724 e23c
00000070: 7b57 6b3d a451 71ba 1940 d93b 4fa4 963c
00000080: 758f ce3a 1558 663d 94a8 12bd 258e 703d
00000090: b372 333d beec fcbc addb 2abd 8c69 353d
000000a0: d0a5 633c d4f2 743d bb9d 0a3d 3745 433c
000000b0: 005e 41bc 079d 273d 9eaa 063d b663 1d3d
000000c0: 13d7 123d ac4d 82bc 4bfb 09bd c087 cdbc
000000d0: c5b5 9a3c 4925 84bb 8eb4 0dbc 9518 c23c
000000e0: 89e7 20bc f0a3 3e3d bd66 743d 045f df3c
000000f0: 9752 2cbd 142a 80bb 4475 7e3d ebcc 33ba
00000100: 8e7e 383d edb6 5f3d 6b7d 373c 1bb2 913c
00000110: e242 223d 49e4 d93c 6950 723c a14c 1f3c
00000120: 5a17 06bc 839a fbbc d9c7 513d 8d91 503c
00000130: 5350 1dbc 6b6f b73c 327b 263d 7ca6 4e3d
00000140: 93c7 d4bc 7e8d 14bd 5576 533c 25d6 403d
00000150: a01d ffbc a719 b43c ada8 04bd 9f97 04bd
00000160: 027d 613c 55c1 373d 2283 f23c 7d2a bfbb
00000170: c443 18bd 0923 a2bc 51f5 353d 09d2 683c
00000180: e609 223c d49b e53c 3055 ed3a d2a3 043d
00000190: 3f9a 313d 5914 24bd 1f21 1abc 6ad1 d5bb
000001a0: de17 0b3d 861b cdbb 0144 abbc 9596 13bc
000001b0: 7af1 fb3c e0f1 25bd a0fb fa3a 1021 43bc
000001c0: 6219 bcba 64eb 303d affa 573d 62a8 0a3d
000001d0: 9ef3 b73c cdb0 91bc 60a7 563d 8605 b5bc
000001e0: 0027 f23c d021 efbb c74d 25bd 2036 8b3b
000001f0: 0978 4fbc 63f4 ca3c fcb1 1f3c 8d6e 4d3d
0.031454913 -0.008279818 -0.011985715 0.041176047 0.021159334 0.048966426 -0.01791221 0.018005375
0.048865356 0.0137169855 -0.02432921 0.01299369 -0.028974853 0.0072027375 -0.0052336985 0.021561723
-0.046067517 -0.011387103 0.005084302 0.001182047 0.01729893 0.03398859 0.030617999 0.0023912175
0.040455822 0.035159543 0.014602329 0.027605308 0.057456475 -0.0009205586 0.0066299555 0.018388895
0.0015759306 0.056236345 -0.0358053 0.05872931 0.043810558 -0.030874606 -0.041713405 0.04429011
0.013894513 0.05980189 0.03384183 0.011918358 -0.0118021965 0.040921237 0.032877557 0.03842517
0.035849642 -0.015906177 -0.033686917 -0.025089145 0.018885503 -0.004032765 -0.008649005 0.023693362
-0.009820827 0.04654306 0.05966829 0.027266987 -0.04207095 -0.003911266 0.062123552 -0.0006858843
0.045042567 0.05461781 0.011199336 0.017785123 0.039614566 0.026598113 0.014789679 0.00972286
-0.008184278 -0.030713325 0.05121598 0.0127300145 -0.00960167 0.022391995 0.040644832 0.05045174
-0.02597407 -0.03626775 0.0129066305 0.047079224 -0.031142056 0.021984888 -0.032387424 -0.03237116
0.013762714 0.04486211 0.029603545 -0.0058339224 -0.037174 -0.019792097 0.044423405 0.0142102325
0.009890055 0.028028406 0.0018107053 0.032382794 0.04335999 -0.040058468 -0.009407311 -0.0065252082
0.03395831 -0.0062593846 -0.02090645 -0.0090080695 0.030754793 -0.040513873 0.0019148476 -0.011909738
-0.0014350826 0.043193236 0.052729305 0.03385199 0.022455033 -0.0177845 0.052405715 -0.02209736
0.029559612 -0.007297732 -0.040357377 0.0042483956 -0.012662896 0.024774736 0.009747025 0.050154258

decoder.0.weight f4 [128, 64, 3, 3]
00000000: bc8d 79bc 5c10 4d3c 88c3 bbbb b12e a7bb
00000010: 711e 703d c49b 72bc f961 893c 9a82 b43c
00000020: 9b6c 643c 8ae1 c23c c14d 10bd 031f f0bc
00000030: 9d73 cf3c 82d3 983c 9cb4 8a3c d91e b2bc
00000040: 1947 953c f764 55bd 7408 a93c dfd2 02bc
00000050: 8c98 36bc b617 c33c 92ac c03a 25ad c13b
00000060: 92a3 563c 007e d8bc f9a1 903c bc95 74bc
00000070: 5487 c43c e5ed 3ebc 9b1b 0c3d 526b 163c
00000080: 9395 3bbd b370 8fbc 998b bbbb d54b 9b3b
00000090: 8fb2 10bd a81d f63c 7a91 83bc 1e2a 32bd
000000a0: a54e c43b 66e7 863d 4caf 6e3c 90d6 00bc
000000b0: 4721 92bc 7b12 d93b 9982 9fbc f74f b43a
000000c0: 32b6 7f3c b29c fdbc 2b8a 32bc c529 103c
000000d0: d109 183c 931b bb3c d154 a8bb 4bbc 9bbc
000000e0: 18b5 b33c 1b0c 58bd c774 ef3b 5d5d 74bd
000000f0: 9dec 953c 09d5 e9bb f0ad e9bc 39dc a83c
00000100: b035 16bd aba7 0e3d ad1f 053d b442 5b3c
00000110: 37af b73c 0e65 53bd baf7 8dbc 79cd c33b
00000120: 9e7f 24bd b827 553c b399 003d 3231 25bd
00000130: 8596 2b3d 3f8f 843d e2ec b5bc 1b9a 633d
00000140: 2b18 533d 8df2 d5bb 3237 9c3c 54a3 1bbc
00000150: c8cb deba 4447 9abc ef66 debc 6a62 77bc
00000160: 9b6a 12bd c9d4 093c e571 ea3c f479 3b3d
00000170: 0bac 533d c2dc aa3c 636c 8dbb 8e43 0cbd
00000180: 632d c4bc 67eb 453d 0618 033c 075b dd3c
00000190: e316 033d 85fb a63c adf5 eabc a082 143c
000001a0: fed5 653d 3039 45bd 23a8 1f3a 3acd 603d
000001b0: 89f0 b43c 87e1 1dbd 90e8 7c3d 9378 273d
000001c0: fdf0 4d3c c083 0b3a 2c45 60bc e577 193d
000001d0: c06e 4b3d d138 86bb 7143 633c fc2c 273d
000001e0: a0c0 e6bc f852 9e3b fcfb 90bc 93dc 8e3c
000001f0: ca73 0ebd fc11 6b3d fec5 4fbc f45c b5bc
00000200: 7bdb 263c e3ab 533d 9d2f 233a 3f52 5abd
00000210: ed03 c7bc e0bd 2b3d 091f 7b3b bba2 febc
00000220: 2e78 ea3c df01 f03c b3cd 09bd 297b ebba
00000230: 61b3 2d3d 07eb e83b e63f 5abc 7d2b f8bb
00000240: 9185 66bc ec5b 783c 9fc9 193d b48c 0e3c
00000250: 1968 123d d0d8 1b3d 30cf ebbc 7c34 7b3c
00000260: d0fb 893c 7222 b1bc 6a43 0b3d 5549 003d
00000270: 9dfb 6b3c 83b1 473a ec0a 1b3d d0f0 b4bc
00000280: 2545 263d 9608 a83c b929 9e3c 2a9b 9f3b
00000290: e6d7 4d3d 2622 e73c 0311 e53c 4144 8ebc
000002a0: bbaf 2bbd 745b 073d 2dd8 503d 1e64 cabb
000002b0: c186 5c3c d81a 1f3d c6a2 1dbb 1dcf 083d
000002c0: 3483 00bd c572 9b3c d44e 8e3c a8a2 79bb
000002d0: 8234 30bd 75fc 253d d2f4 103c 9cb1 a8bc
000002e0: cd7e dc3c d228 c33c 4be2 39bd a627 6c3c
000002f0: 4ba8 023d 2ef2 8f3c cb68 223c 7ad0 a33c
00000300: 9927 fabc 86b7 873c 2d69 923c 7071 20bc
00000310: 263e c739 fefc 91bc e80b 0fba 0c91 83bc
00000320: 9ecc 45bd f6d2 473c 176d d63b b777 2b3c
00000330: 32c1 30bd b211 11bc 5030 4bbd ca79 06bd
00000340: 1630 fd3c a857 47bb bcbc 293c ced5 80bc
00000350: 1a4e f13c 1c06 37bc 0ce8 8b3c 61f1 1c3d
00000360: 0313 ae3c 385b 803c 64b8 05bd 5bca 803b
00000370: 6a3f 633d 584d 13bc f4e6 dc3b a9f2 5d3c
00000380: 96c9 a73c 7933 50bd 972d 9bbb 3ceb e6bc
00000390: 31e0 a73c 33a1 0b3d 49dc 6d3d 9232 b2bb
000003a0: 019d d73c e3da 683a bbe0 9cbb 93e1 953c
000003b0: 4882 8a3c 5560 b2bc e827 ec3b 6a9b 65bc
000003c0: 1133 a3bc 69d8 a13b 468e ae3c c715 a139
000003d0: 47f1 b7bb 7aca 49bc c8c0 e93b 8ebd b6bc
000003e0: 058d 05bd ad90 ec3c 3efc 6c3b 189c 0bbd
000003f0: fefc 0e3d de98 e939 9ebe fbba 1f82 18bd
-0.015231546 0.012516107 -0.0057300963 -0.0051020016 0.05862278 -0.014807645 0.01677035 0.022034932
0.013941909 0.023789186 -0.035230402 -0.029311663 0.025323683 0.018655542 0.016931824 -0.021743225
0.018222379 -0.05209824 0.020633914 -0.007984846 -0.011144768 0.023815017 0.0014699867 0.005910533
0.013100522 -0.026427269 0.01765536 -0.014928278 0.02399031 -0.011653398 0.034206014 0.009180861
-0.045796942 -0.017509794 -0.0057234284 0.0047392645 -0.035326537 0.030043438 -0.01606058 -0.043497197
0.0059908205 0.065871045 0.014568161 -0.007863656 -0.017838133 0.0066245175 -0.019471454 0.0013756742
0.015607404 -0.030958507 -0.0108972 0.008799021 0.009279684 0.022840297 -0.005137064 -0.019010684
0.021936938 -0.05274592 0.007307622 -0.05965935 0.018301303 -0.0071359915 -0.028525323 0.020612823
-0.036672294 0.03482787 0.03250091 0.0133826025 0.022422416 -0.051610045 -0.01733004 0.005975422
-0.040160768 0.013009958 0.03139658 -0.04033012 0.041891593 0.064726345 -0.022207681 0.05556689
0.05153672 -0.0065291584 0.019069288 -0.00949939 -0.0016997987 -0.01883281 -0.027148692 -0.015099147
-0.0357462 0.008412548 0.028618762 0.0457706 0.051677745 0.020857219 -0.004315899 -0.034244113
-0.023947423 0.0483202 0.008001333 0.027020944 0.03200425 0.020383606 -0.0286816 0.009064347
0.056112282 -0.04815024 0.0006090423 0.05488322 0.022087352 -0.038545158 0.061745226 0.040886473
0.012569663 0.00053220615 -0.013688367 0.037467856 0.049666166 -0.0040961285 0.01387106 0.040814385
-0.028168023 0.004831668 -0.01769828 0.017439162 -0.034778394 0.057390198 -0.012681482 -0.02213905
0.010184164 0.051677596 0.00062250515 -0.053301092 -0.024293864 0.041929126 0.003831806 -0.031083455
0.02862176 0.029297767 -0.033643436 -0.0017965782 0.042407397 0.0071080956 -0.013320899 -0.0075735436
-0.014069931 0.015158635 0.037545796 0.008700538 0.035743807 0.038048565 -0.028785318 0.0153323375
0.016843706 -0.02162287 0.033999838 0.031319935 0.014403251 0.0007617699 0.037852213 -0.022087485
0.040593285 0.020511907 0.019307004 0.004870792 0.050254725 0.028214525 0.027962213 -0.01736653
-0.041915637 0.0330462 0.05098741 -0.0061764857 0.013459862 0.03884396 -0.002405332 0.033400644
-0.031375125 0.018975625 0.017371573 -0.0038091335 -0.043018825 0.040523965 0.008847432 -0.020592503
0.026915932 0.023823176 -0.045381825 0.01441375 0.031898778 0.017571535 0.00991268 0.01999687
-0.03053646 0.016567003 0.017872417 -0.009792671 0.00038002542 -0.017820831 -0.0005456791 -0.016060375
-0.04829084 0.012196293 0.0065437662 0.010465554 -0.043152995 -0.008854317 -0.04960662 -0.03283099
0.030906718 -0.0030417237 0.010359939 -0.01572695 0.029456187 -0.01117089 0.017078422 0.038316134
0.0212493 0.015668496 -0.03264655 0.0039303727 0.0554804 -0.008990608 0.006741399 0.013546624
0.020481866 -0.05083034 -0.0047356593 -0.02818834 0.020492645 0.03408928 0.05807141 -0.0054381574
0.026319982 0.00088827143 -0.004787532 0.018296039 0.016907826 -0.02177445 0.0072069056 -0.014014104
-0.019921811 0.004939128 0.021308076 0.00030724538 -0.0056134793 -0.012316341 0.007133577 -0.022307184
-0.03260519 0.02887758 0.003616109 -0.03408441 0.03490924 0.00044555118 -0.0019206589 -0.03723347

decoder.0.bias f4 [64]
00000000: 1065 f6bb 7524 983c f8ff 313d d106 2e3c
00000010: be7a 823b 81ec 633d 72a9 243d 98f5 fa3c
00000020: ff1a 0f3d 195d 08bc 9e35 cdbc a5aa 1cbb
00000030: 5367 93bc b1d2 b2bc 1fd2 0b3d 75ff 143d
00000040: 4b2d 05bd 3517 9abc 5741 11bd 3382 11bd
00000050: e1bb b3bb e246 b8bb d3ec babc 97be 1ebd
00000060: 044a 7dbc e902 9fbc a469 043d cdba 053d
00000070: 470b 93bc ec16 31bc 8046 05bd 4dd1 f4bc
00000080: 1281 0abd 9b32 553d dc2a 2c3d 044c d23c
00000090: 2c07 dfbb 500f e73c d93b 89bc 8984 0a3c
000000a0: df1a 113d 8aca d13c 09fd 26bd 6739 4ebb
000000b0: 6b00 4d3d 4c25 b53c b627 02bc 1469 9cbc
000000c0: 5372 8d3c 6652 5dbc ff96 623d 83e8 a239
000000d0: e2a5 cd3c a38a 18bc 1f69 31bc 4b0b 92bc
000000e0: 3775 b7bc a272 1a3d d16c 053b 8499 1ebc
000000f0: 0e6f 37bc 54ba 273d e1da 4d3c 86b4 24bd
-0.007519372 0.018572072 0.043457 0.010621742 0.003981917 0.05564547 0.04020066 0.030634686
0.034937855 -0.008322977 -0.02504998 -0.0023905423 -0.017993605 -0.021828981 0.034135934 0.036376435
-0.032513898 -0.018809894 -0.035462704 -0.03552456 -0.0054850434 -0.0056236843 -0.022818005 -0.03875598
-0.015459541 -0.019410567 0.03232731 0.03264885 -0.017949713 -0.010808688 -0.032537937 -0.029884959
-0.033814497 0.052050214 0.04203306 0.025671013 -0.006806275 0.028205544 -0.01675217 0.00845445
0.035426017 0.025609273 -0.040768657 -0.003146732 0.050049227 0.022112511 -0.007944038 -0.019093074
0.017266428 -0.013508415 0.055319782 0.00031072283 0.025103513 -0.009310397 -0.0108282855 -0.01782765
-0.02239476 0.03770698 0.002035905 -0.009680156 -0.011195911 0.04094918 0.012564392 -0.040211223

decoder.2.weight f4 [64, 32, 3, 3]
00000000: af39 51bd 806f 2cbc d8ec 383c 49ce 813d
00000010: 64a6 923d 8063 87bc cd80 b4bc 8f4b 96bc
00000020: e846 7ebb 0654 5b3d 4100 ca3c e67b 5dbc
00000030: 42ce c63c b54a 8dbd 7661 b4bc 6b96 9abb
00000040: 5b24 4fbd 9fc3 223d ed1f 1cbd 5d48 33bc
00000050: ff16 2cbd cc77 6cbd e7fe f03c 8550 09bd
00000060: c2ec 093d 0f2a d83c dff4 63bb 7779 ff3c
00000070: dc0b 8d3b 6eff c73c 8d00 5dbd 367c 4dbc
00000080: 489a e03c d7e7 3ebd e1a9 09bd c84d 95bd
00000090: f0d7 47bd ad77 d2bc 7201 80bd 3caa d93c
000000a0: 5b62 98bd bdf8 623d b0aa fa3c 8f7a cfbc
000000b0: feb0 36bc 6d57 583b 3e35 213d 9125 d8bc
000000c0: 74ab e5bc 3e6c afbc a91b cabc 4476 38bc
000000d0: 376e 0a3d 4fcd 133d 3502 423d 8120 4bbb
000000e0: cb5f fb3c 6e72 723b 82d3 753c f7ab b0bc
000000f0: c4c6 003d cd1e a13d 0f0b a6bc 3eb7 8fbc
00000100: dc17 13bb 5867 093d da84 24bc 9351 253b
00000110: a768 6ebd 0e7c a0ba a4a9 e3bc 1b04 c6bc
00000120: 2fe0 373d 1b97 423d ee5f 193d ca3e 773d
00000130: f194 3c3c 2a2d 3e3d d34c d3bc b563 733c
00000140: 40aa 1c3d a682 dfbc f64b b1bc 5e92 2c3c
00000150: 24e5 1bbd 044e 25bd 2f73 7dbc a408 c8bc
00000160: c35e 903c 9c12 c8bc 8131 03bd d2fb e1bc
00000170: b04a fabc edee 86bc 09fe 91bd 5d58 ff3c
00000180: ec03 ba38 57de 05bd 35fb 393b 826b 623c
00000190: 89ab 6c3d 9724 5cbc 173b d0bb 300c 93bc
000001a0: b7e9 6e3d 5c1f bebc 2f02 493d 151e 833d
000001b0: 90a8 3c3d 734c 0d3d 3230 593c bfd9 babc
000001c0: 95f1 3f3c 4b70 ddba 122f 8d3d 490a 13bd
000001d0: 6eeb d0bc 0c91 7bbb 62a3 80bc 03b3 84bc
000001e0: 3ae3 91bc f395 683d 2868 a63b 1190 123c
000001f0: 971b 153d 0ce1 c23a 7d47 9c3c 6771 b83b
00000200: 4a36 903d 981e 5bbd 6275 9abb cc4b 363d
00000210: 5452 f03c 6c09 ad3d a0e1 e13c 9f8b 293c
00000220: 09c1 543c 3e59 bdbc 3238 ce3c 0e7e 36bd
00000230: b737 cdbc 1006 113d f204 88bc bd82 473d
00000240: dbd3 703c f3ac 4d3c 8410 8ebc f9c8 243d
00000250: e121 e0bc f8e5 68bc 627b 54bc b572 953d
00000260: 6e26 e7bc 44c5 9f3c b7ae 4cbd 65e6 7c3c
00000270: 2fc1 7fbc 0325 b9bd 44b1 1abd 632d 5dbd
00000280: 3408 d03b b56f 0bbd 4476 eabc cc1f be3c
00000290: 7fc2 a13c 5ea0 453d 5c1b 873c 14a4 2d3d
000002a0: 1905 613d ba46 4c3d 63f6 8a3d 3714 e1bc
000002b0: ca04 98bc 574e 0c3d cd9c 543d dc78 273c
000002c0: abe7 f53c 14a7 2c3b 668a 9b3c ecc6 a43c
000002d0: 5e09 58bc ce38 f03c 7014 463d e0c0 c33c
000002e0: a5e1 1d3d a7e6 5abd a453 b03c f425 2f3c
000002f0: 959e 39bc 0375 b0bc 927d 1bbd e366 4cbd
00000300: ca78 ad3c 6358 90bd 20a9 1f3d 9a15 97bc
00000310: 2a31 1bbd 9864 3bbd 4903 11bc a7a8 16bd
00000320: 8c79 21bd dc99 f9bc 24bf 68bd b2af 0b3d
00000330: 881c d4bc b4fd 51bd 2055 06bc fdca 3abc
00000340: a4b6 28bd bee9 063d c24f e7bc ebe9 b7bd
00000350: 8641 57bd 46cd 53bd 5527 69bd 5b41 36bd
00000360: 35f2 9cbc accd 393d 73ff e6bc ac81 e7b9
00000370: 53a2 37bd 1b54 84bd 65ea a43c 0801 f2bc
00000380: d861 06bc 0900 a23c 47a6 25bc a2a2 29bd
00000390: a0fd 763d 2572 55bc d94b 3f3d ab03 3a3c
000003a0: 379e 3d3d cfcb b93a f42f 4f3d c10a 083d
000003b0: 3c0d 04bc 3123 c43c 7db2 003c e6ed ab3b
000003c0: 6ef8 07bd 17d6 f93c 30ea 8f3b 4244 8a3d
000003d0: 7deb 27bd 2f23 2fbc 79ce c6ba 7e90 313d
000003e0: 74ec e2bc 5e98 0cbd b722 64bd a7a9 55bd
000003f0: abe9 a73b 72be 743d 35c3 01bd 389b f8bc
-0.051080402 -0.010524631 0.011286937 0.06338174 0.07160643 -0.016526937 -0.022034073 -0.018346576
-0.0038799588 0.053546928 0.024658324 -0.013518309 0.024268273 -0.06899015 -0.02201913 -0.0047176383
-0.05057178 0.03973734 -0.038116384 -0.010942546 -0.04201412 -0.057731435 0.029418422 -0.033524055
0.033673055 0.026387243 -0.0034783406 0.031185849 0.0043043923 0.02441379 -0.053955603 -0.012541821
0.027417317 -0.04660782 -0.033609275 -0.07290226 -0.04878992 -0.025691831 -0.06250276 0.026570432
-0.07440635 0.055412997 0.030598968 -0.025326995 -0.011150597 0.0033011094 0.039357416 -0.0263851
-0.028035857 -0.021413919 -0.024671393 -0.0112586655 0.033796515 0.03608447 0.047365386 -0.0030994716
0.030685326 0.0036994475 0.015004041 -0.021566374 0.031439558 0.07867203 -0.020268945 -0.017543431
-0.0022444641 0.033545822 -0.01004144 0.0025225624 -0.058205273 -0.0012244002 -0.027790852 -0.02417188
0.044891533 0.047507387 0.037445 0.060362615 0.01151012 0.04642979 -0.025793469 0.014855315
0.0382483 -0.027283978 -0.021642666 0.0105329435 -0.038060322 -0.040357605 -0.015469356 -0.024418183
0.01762331 -0.024422936 -0.032029632 -0.027585898 -0.030553192 -0.01647135 -0.071285315 0.031170065
8.869902e-05 -0.032682743 0.002837849 0.013819577 0.057780776 -0.013436458 -0.0063547003 -0.017950147
0.058328357 -0.023208313 0.049074348 0.06402222 0.04605919 0.034496736 0.01325612 -0.022808908
0.0117153125 -0.0016894428 0.068937436 -0.03589848 -0.025502887 -0.0038386015 -0.015702907 -0.01619864
-0.017808545 0.056783628 0.0050783344 0.008945481 0.036403265 0.0014868095 0.019077057 0.005628753
0.07041605 -0.053495973 -0.0047137 0.04450588 0.029336132 0.08449063 0.027573407 0.01034823
0.012985476 -0.023113843 0.02517328 -0.04455381 -0.025050981 0.035406172 -0.01660392 0.048708666
0.014698948 0.012553441 -0.01734186 0.040230725 -0.027359905 -0.014214985 -0.01296887 0.07297269
-0.028216567 0.019503243 -0.04997131 0.01543579 -0.015610023 -0.090402626 -0.03776671 -0.053998362
0.006348634 -0.03404208 -0.028620847 0.023208521 0.019746063 0.04824864 0.016492538 0.042392805
0.054936502 0.049872138 0.06785276 -0.02747546 -0.018556971 0.0342544 0.05190735 0.010221686
0.030017694 0.0026344704 0.018986892 0.020114385 -0.013185827 0.029323962 0.048359334 0.02389568
0.03854527 -0.053442623 0.021524258 0.010690201 -0.011329313 -0.02154017 -0.03796155 -0.049902808
0.02117576 -0.070481084 0.03897965 -0.018442918 -0.037888683 -0.04575023 -0.008850881 -0.036781933
-0.039422557 -0.030468874 -0.05682291 0.034103103 -0.025892511 -0.05126734 -0.008199006 -0.011400935
-0.041189805 0.032937758 -0.028236274 -0.08980163 -0.052552722 -0.051709436 -0.056922276 -0.04449592
-0.019158462 0.04536216 -0.02819798 -0.00044156366 -0.04483254 -0.06461354 0.0201313 -0.029541507
-0.008202039 0.019775407 -0.010110444 -0.041414864 0.06030047 -0.013027702 0.046703193 0.011353414
0.046293464 0.001417512 0.05058284 0.03321338 -0.008059796 0.023942562 0.007855055 0.0052468656
-0.033195905 0.030497594 0.004391931 0.067513004 -0.040996064 -0.010689541 -0.0015167735 0.04335069
-0.02770064 -0.034324996 -0.05569717 -0.052163746 0.005124291 0.059751935 -0.031680305 -0.030347452

decoder.2.bias f4 [32]
00000000: ab03 e1bc f1c3 8bbb d894 f2bb 8a10 083c
00000010: c499 2b3d 0a6a 523d 060f cb3c 9ebb c93c
00000020: ff47 4abd 2ce1 5b3d 12cc 133d b474 dbbb
00000030: 4dc8 10bc a2b6 a9bc d956 933b 3bd4 743c
00000040: c00d 9a3c e9fd 013d 3782 a93b 6d47 fcbc
00000050: 7afd 57bd ddf1 6e3c 2e98 583d 1786 293d
00000060: c90a ec3c 0c0d 5d3c 0900 20bd 56f7 233d
00000070: fe15 2bbd b435 8d3d 66bb 3f3c 08e0 c3bc
-0.02746757 -0.0042653014 -0.0074029975 0.0083047245 0.04189469 0.051370658 0.024787437 0.024625596
-0.049385067 0.053681538 0.03608329 -0.0066972617 -0.008836818 -0.020716969 0.004496437 0.014943178
0.018805385 0.03173629 0.0051729935 -0.030795777 -0.05273197 0.014584032 0.052879505 0.041387644
0.028813737 0.01349188 -0.039062534 0.0400308 -0.04176902 0.06895009 0.011702394 -0.023910537

decoder.4.weight f4 [32, 3, 3, 3]
00000000: 33c0 1fbe 032b 433e 0211 07be ede0 a23c
00000010: 6884 953d 28f0 d73c 0100 f9bd 3b5f 0dbe
00000020: dfe8 bd3d b703 cd3d e829 253e 8473 103c
00000030: 0bf3 c83d bb55 02bc 6551 4cbd 0514 2b3e
00000040: 3f17 523d 4ffc 44bb 05b1 d53d 65c4 453e
00000050: b213 d63d 4111 bd3b 97c6 44bd 72c1 9ebc
00000060: 7399 a5bd 6795 333e de7b f5bd 8aac 753c
00000070: aaca 13be c40f 253e 5d54 543e 54fd f4bd
00000080: 3f02 413e ff48 083e 4a2a 343e 9649 b3bb
00000090: 1dcf ffbd 9f2d bf3c 77ae 1a3e b533 70bd
000000a0: bc05 21be d3ce 75bd bba3 023e 9648 2e3e
000000b0: c288 1fbb 3d6e 203e 9a30 3d3e 43db 1abe
000000c0: 093a e3bc 5e9e 533e 1e20 053d 73b9 2ebe
000000d0: 2135 b8bd 88bc 81bc 0b7c 0dbe 2ce7 79bd
000000e0: 8d00 9fbc 17d3 3dbe 571a 64bd eace b7bc
000000f0: 48a2 12be 0091 123e 7d6d 4bbc cccc 4c3c
00000100: 14a9 b93d a967 8fbc 36fe 063e 53f2 11be
00000110: f198 20be 6bfa 743d fe84 0ebe fb7c 0e3e
00000120: a14d b1bd 9a49 03be 2d06 fb3d f8fc 0ebe
00000130: 3b82 49bd 16f5 1c3e 43f3 0abe 4487 b13d
00000140: 1a81 36be 09ee 243e e810 d2bc cdc5 0d3e
00000150: e1de e2bb 4d87 18bc f436 03be 6b12 2fbe
00000160: fbd9 933d 9bb0 893d 2db6 09be cf2c 3dbe
00000170: a72e 4bbd b026 783b 1aae 143e d718 a7bd
00000180: ca85 2b3d a8ea 543c b4c1 64bc 1fbd 533a
00000190: 7743 56be 5238 afbd ca64 8e3d 1f23 17be
000001a0: a60f 113e 0e87 53be 59c6 07be 7517 34bd
000001b0: c5a0 13be 347c 903d 37db b13d 62a9 15be
000001c0: 1801 4cbd 9439 08be 21eb a7bd 2c6c 0f3e
000001d0: 63b3 113e 8166 d83b d8d9 2f3e cde1 3bbd
000001e0: 7255 3dbe de48 e1bc 7fe2 bf3d aa88 183e
000001f0: 86a5 1c3e b245 32be 2e6e 00be c2f7 d13d
00000200: 875d 20be 8019 0e3d fa39 7abd 3e4e 87bd
00000210: 6319 47bc af4f 29be 3b29 8fbd 0d7a 50bd
00000220: 0eec d1bd ca6b 863c 67c2 60bd 0d33 97bd
00000230: 2097 18be 13c9 2fbd 4e66 21be b56d 543b
00000240: a28a 803c bd3d 8ebd 4c9c cfbd a6f4 38be
00000250: 2c14 4dbd 8e1e 22be 752d 1eba cbd3 033e
00000260: a762 ac3d 8021 2dbc 36b2 053e 0a8a 433e
00000270: 15eb 103e 9c7d 313d 69e4 95bd c463 7f3d
00000280: e587 9a3d 54be 463d eca8 b7bd 2d41 303e
00000290: 2e33 9fbd 2ebb dfbd 931c cabd a637 53bd
000002a0: 1f46 3e3e c590 d03d 2b92 9d3d 26ad 923a
000002b0: c0e4 5d3d 9fac d83c 6a3b 3d3e 5bca adbd
000002c0: 5628 5cbd 8763 613c 97e6 c13d 2846 2f3d
000002d0: 9a0b 943d 77ab fd3d 27b9 48bd 11b5 de3d
000002e0: 4060 b4bd 0dcd aebd ab78 f73d e983 f73d
000002f0: 7b67 e43c 7a9c c63c 1efd 253e 4c34 1dbc
00000300: 464d 44be 7f87 32be d644 f93c c786 0fbe
00000310: 0886 103e 121a c03b 968d 08be 63de 1e3e
00000320: 9eee 193e a855 f7bd 95a3 72bc 737b ffbd
00000330: 1746 45be 6b35 53be c297 0dbe 4f50 aebd
00000340: 2eb0 7e3d c070 20be 6388 ad3d 5363 d9bc
00000350: 4c63 2d3d f2f3 1f3e abcb a93d ef5b c23b
00000360: 8f53 06bd 5e3a 553e 0221 09be 38ae b03d
00000370: 69a7 503e aa4e 833c a7a9 9f3d d629 42bd
00000380: c862 26be e28d 633c a637 2b3d ffce 03bd
00000390: 0527 343e 7881 6f3d 6438 f5bd c18f 053d
000003a0: 8b92 c63d 154c 353d abc3 1f3e d1b0 fcbd
000003b0: 1af0 0abe 670f 953d 4f78 1fbe d1f1 333e
000003c0: 61d5 f7bd 418f 07be 81d0 173e 869c e43a
000003d0: bf91 36be 8452 c1bc 10f6 9c3d adcc 843d
000003e0: afd9 3abc ff89 443d cd7b 0a3d 5b75 8bbd
000003f0: 4a8f 763d a2f0 983d c201 74bd f400 27be
-0.15600662 0.19059376 -0.13190082 0.019882644 0.07300645 0.026359633 -0.12158204 -0.13805859
0.09272932 0.10010474 0.16129267 0.008816604 0.09811982 -0.00795501 -0.04988231 0.16706856
0.0512917 -0.0030057614 0.104341544 0.193132 0.10452975 0.005769879 -0.048040953 -0.019379351
-0.08085909 0.17537461 -0.119865164 0.01499475 -0.14432779 0.16119295 0.20735307 -0.11962381
0.18848513 0.13309096 0.17594257 -0.0054714186 -0.124906756 0.023337184 0.15105616 -0.05864306
-0.15724844 -0.060011696 0.1275777 0.17019877 -0.0024342989 0.15667053 0.18475571 -0.15122704
-0.027737634 0.20665881 0.032501332 -0.17062931 -0.089945085 -0.015836969 -0.1381685 -0.06101148
-0.019409442 -0.18537556 -0.055689182 -0.022437532 -0.14319718 0.14313126 -0.012416241 0.012499999
0.09065452 -0.017505484 0.13182911 -0.14252596 -0.15683343 0.05980913 -0.1391792 0.13914864
-0.08657385 -0.12821046 0.12257037 -0.13963687 -0.049196463 0.15327868 -0.1356936 0.08668378
-0.17822686 0.16106428 -0.025642827 0.13844986 -0.006923542 -0.009309602 -0.12813932 -0.1709687
0.07219311 0.06723138 -0.13448401 -0.18474124 -0.049605038 0.0037864856 0.1451954 -0.08159035
0.041875638 0.0129954 -0.013962198 0.00080771925 -0.20924173 -0.08555664 0.06952818 -0.14759491
0.14166126 -0.20656988 -0.13259257 -0.043967683 -0.14416797 0.0705494 0.0868439 -0.14615396
-0.04980573 -0.13303214 -0.08199144 0.14006108 0.14228587 0.0066040163 0.17172945 -0.045869637
-0.18489626 -0.027500566 0.093693726 0.14895883 0.15297517 -0.17409399 -0.1254203 0.10252334
-0.15660678 0.034692287 -0.061090447 -0.066067204 -0.012152049 -0.16534303 -0.06990286 -0.050897647
-0.10250102 0.01640882 -0.054872897 -0.07382784 -0.149014 -0.04291637 -0.15761682 0.0032414023
0.015691105 -0.069453694 -0.10137233 -0.18062076 -0.050068066 -0.15831968 -0.00060339953 0.12873761
0.08417254 -0.010567069 0.13056263 0.19095626 0.14152177 0.04333268 -0.073189564 0.062351003
0.07545451 0.048521355 -0.08967766 0.17212363 -0.077734336 -0.109243736 -0.09868731 -0.051566742
0.18581437 0.101838626 0.07693895 0.0011190518 0.05417323 0.0264495 0.18479696 -0.08485862
-0.053749405 0.013756639 0.0946781 0.042791516 0.07228775 0.1238622 -0.0490047 0.108743794
-0.08807421 -0.08535204 0.120835625 0.12085707 0.027881375 0.024244536 0.16209838 -0.009594988
-0.19170102 -0.174345 0.030428331 -0.14016257 0.14113629 0.005862483 -0.13335261 0.15514521
0.15032431 -0.120768845 -0.014809509 -0.12474718 -0.19265018 -0.20625846 -0.13827422 -0.085114114
0.062179737 -0.1566801 0.08473279 -0.02653662 0.042331025 0.15620402 0.082908 0.0059313695
-0.03279453 0.20823047 -0.13391498 0.086269796 0.20376362 0.01602872 0.077960305 -0.04740318
-0.1624862 0.013888808 0.041801117 -0.03217983 0.1759301 0.05847308 -0.11973646 0.032607798
0.096959196 0.04426201 0.15601985 -0.123384126 -0.13568154 0.072783284 -0.15573238 0.17572714
-0.12101246 -0.13238241 0.14825632 0.0017441667 -0.17829035 -0.023598917 0.0766412 0.06484351
-0.011404439 0.047983166 0.033809472 -0.06809493 0.060195245 0.07467772 -0.05957199 -0.16308957

decoder.4.bias f4 [3]
00000000: 744f 26bd 5858 7cbc 494c 15bd
-0.040603116 -0.015401922 -0.036449704
